python_skeleton_minimax/ai/small.pt (torch, 97153 bytes, 11 tensors)

input_layer.weight f4 [64, 104]
0	0xbdea5c27	-0.11443358
1	0xbb26c97b	-0.0025449682
2	0x3da7a78c	0.08186254
3	0xbc851b66	-0.016248416
4	0x3d54bc5d	0.05193745
5	0x3d961d6d	0.07329831
6	0xbdda39f2	-0.106555834
7	0x3c06202f	0.008186384
8	0x3df15b4c	0.117849916
9	0xbda504f2	-0.08057584
10	0xbbf7030f	-0.0075382064
11	0x3d2eea07	0.042703655
12	0x3a823a98	0.0009935675
13	0xbc257f2f	-0.010101124
14	0xbcf96b1f	-0.030446587
15	0xbd287e9e	-0.041136377
16	0xbd0b2c39	-0.03397772
17	0x3c4b09f9	0.012392514
18	0xbbb0c222	-0.005394236
19	0xbb0a3568	-0.0021088962
20	0xbd670da1	-0.056409482
21	0xbd1fe379	-0.039035294
22	0x3d429e41	0.047514204
23	0x3ca77928	0.020443514
24	0xbceecf23	-0.029151505
25	0x3d20b3a6	0.039233826
26	0xbdcf69b6	-0.10127585
27	0x3b252ec6	0.002520488
28	0x3cc05146	0.023476254
29	0x3dbe5cb1	0.09295023
30	0xbd81cefe	-0.06338309
31	0x3d00f2b0	0.031481445
32	0xbd8f8912	-0.07008566
33	0x3cc68289	0.024232166
34	0xbd245f17	-0.040129747
35	0xbd902f9a	-0.07040329
36	0x3dc35af9	0.09538836
37	0xbdc656da	-0.09684534
38	0xbc0b837b	-0.008515234
39	0xbcfaa149	-0.030594485
40	0x3d5e2718	0.0542365
41	0xbd489d7d	-0.048978318
42	0xbce7d787	-0.028301014
43	0x3db5aa15	0.08870331
44	0x3dc748a4	0.09730652
45	0x3d830540	0.06397486
46	0xbcf3b8b7	-0.029751165
47	0xbd8b92ad	-0.068150856
48	0xbd597d2b	-0.053097885
49	0x3d84bb16	0.06480996
50	0xbd225ac0	-0.039637327
51	0xbc9806e2	-0.01855797
52	0x3daa97ce	0.08329736
53	0x3df1dcf4	0.118097216
54	0x3e0b19d4	0.13584071
55	0x3d732eb0	0.059370697
56	0x3db2f3ce	0.08737908
57	0x3d345c1d	0.04403316
58	0xbd0c1cde	-0.034207217
59	0xbd3a7c31	-0.045528594
60	0xbd7d3459	-0.0618175
61	0xbb5da1a9	-0.003381828
62	0xbcade345	-0.021226535
63	0xbbff5e01	-0.0077931886
64	0x3d123960	0.03569925
65	0xbd78a760	-0.060706496
66	0x3d792955	0.060830433
67	0xbd636330	-0.055514514
68	0x3d8dd05d	0.06924508
69	0xbce8ef55	-0.028434435
70	0x3ce2a252	0.027665291
71	0x3c79f8fd	0.015257117
72	0xbac892d6	-0.001530255
73	0x3d3bf8b8	0.045891494
74	0x3d6ec03a	0.05828879
75	0xbbe1ce16	-0.0068910224
76	0x3cccdf43	0.025008803
77	0x3d62875d	0.055304874
78	0xbd856f84	-0.065154105
79	0xbd735ef1	-0.059416715
80	0xbd425e2c	-0.04745309
81	0x3c4d376f	0.012525423
82	0xbd6470bf	-0.055771586
83	0xbde4a0f5	-0.111635126
84	0x3c8005b3	0.015627718
85	0x3d6fffe8	0.05859366
86	0x3db6d7e4	0.089278966
87	0x3d899382	0.06717588
88	0x3d43c156	0.0477918
89	0xbd9dabd2	-0.07698788
90	0xbd12c8b3	-0.035835933
91	0x3d62913d	0.05531429
92	0x3c809487	0.015695823
93	0xbdde8dee	-0.10866915
94	0xbe036f5e	-0.12835452
95	0x3d687ab5	0.056757648
96	0xbd1a4c92	-0.03767068
97	0xbd6f53da	-0.058429576
98	0xbc311bf5	-0.010809888
99	0xbd0aa377	-0.0338473
100	0x3b98bffa	0.0046615573
101	0xbdef605c	-0.11688301
102	0xbe047172	-0.12933901
103	0xbd4450cc	-0.047928616
104	0x3dbfccbb	0.09365221
105	0x3cb24cad	0.021765077
106	0xbc34727d	-0.011013624
107	0x3d06b377	0.032885995
108	0xbd9c3120	-0.07626557
109	0xbc51407d	-0.012771723
110	0x3e0742a3	0.13209014
111	0x3c07a833	0.008279848
112	0x3e327e10	0.17430902
113	0x3d2e0ca9	0.042492542
114	0x3c1d8776	0.009614816
115	0x3d2fd394	0.042926386
116	0x3d9db042	0.07699634
117	0x3cb14295	0.021638194
118	0xbba5c884	-0.0050593037
119	0xbc7244a1	-0.01478687
120	0x3dddc107	0.10827833
121	0x3cc55dd0	0.024092585
122	0x3cfc06ff	0.030765055
123	0xbbd8aa91	-0.00661213
124	0x3de29be7	0.11064892
125	0xbd10ec85	-0.035381813
126	0xbdae4e0b	-0.08510979
127	0x3be4e863	0.0069857105
128	0x3cf0e9e8	0.02940841
129	0x3d9fe4ea	0.07807334
130	0xbbf92f85	-0.0076045417
131	0xbcf82557	-0.030291243
132	0x3c2fe1f5	0.010735025
133	0x3d532066	0.05154457
134	0xbd394876	-0.04523512
135	0x3d9742b5	0.0738577
136	0x3cbcfd74	0.023070075
137	0x3c018b6b	0.007906775
138	0xbd945004	-0.07241824
139	0xbd6cb52a	-0.05778996
140	0xbd50c590	-0.05096966
141	0x3c4494a6	0.011998331
142	0x3d16c0e1	0.036805037
143	0xbc6c31ce	-0.014416171
144	0xbe084f1a	-0.13311425
145	0xbdf0991b	-0.117479526
146	0x3c868da8	0.016424969
147	0xbe0ac8c1	-0.13553144
148	0xbd5c43bd	-0.053775538
149	0x3cb21ba6	0.0217417
150	0x3ce6b41a	0.028162051
151	0x3c96e27a	0.01841854
152	0xbddd0888	-0.10792643
153	0x3cd84f05	0.026404867
154	0xbdd99dc1	-0.10625792
155	0xbdae4ecd	-0.08511124
156	0x3a89bfbe	0.0010509414
157	0x3ddc1ae3	0.10747316
158	0x3d2236f9	0.039603207
159	0x3c503b4b	0.012709449
160	0x3c9760e7	0.018478824
161	0xbdb06e6a	-0.0861481
162	0x3d64bc88	0.05584386
163	0x3d01425a	0.03155742
164	0x3d237da7	0.039914753
165	0xbc3ceb9a	-0.011530781
166	0x3d52ddde	0.05148112
167	0x3df333b7	0.11875098
168	0x3d9ac99c	0.07557985
169	0xbd466d88	-0.0484443
170	0x3cc89945	0.024487147
171	0x3c8147dc	0.015781336
172	0x3dac1ce5	0.08403949
173	0x3d24b61d	0.04021274
174	0xbcda51b6	-0.026650291
175	0x3d49a59a	0.049230196
176	0xbd762562	-0.060094245
177	0xbc18e8c2	-0.009332838
178	0xbcc483f0	-0.023988694
179	0xbdcfe6a7	-0.10151415
180	0x3d721501	0.059102062
181	0x3d9cc9f0	0.07655704
182	0xbda1d63f	-0.07902192
183	0xbdc1359e	-0.09434055
184	0xbbf16d70	-0.0073677823
185	0xbcca1081	-0.024666073
186	0xbdf0c015	-0.11755387
187	0xbdd234fc	-0.10264012
188	0x3ce9c4a6	0.028536152
189	0xbdc47a9c	-0.095936984
190	0x3d3fe2d2	0.046847172
191	0xbce1c867	-0.02756138
192	0xbd4533e6	-0.048145197
193	0xbdb1d438	-0.08683056
194	0xbd90f82f	-0.07078587
195	0xbde43628	-0.11143142
196	0x3d6c741d	0.05772792
197	0x3df84da5	0.121241845
198	0x3befa479	0.007313308
199	0x3dd2e728	0.10297996
200	0xbd9b771f	-0.0759108
201	0xbd86ea91	-0.06587709
202	0xbcd14eb6	-0.025550228
203	0xbe0bc666	-0.13649902
204	0xbe02742b	-0.12739627
205	0x3d1cf087	0.038315322
206	0x3cd5390a	0.026028175
207	0xbdb095dc	-0.086223334
208	0xbe0b86e1	-0.13625671
209	0x3d9f1c13	0.077690266
210	0x3d353555	0.044240315
211	0x3d7b6a40	0.061380625
212	0x3d96caa2	0.07362868
213	0x3c34fea1	0.011047036
214	0xbcd367bd	-0.025806302
215	0xbcbddde6	-0.023177098
216	0x3ddfdc3a	0.10930677
217	0xbc925d76	-0.017866831
218	0x3c93401b	0.017974904
219	0x3d7f7422	0.062366612
220	0x3d821017	0.06350725
221	0x3c70535b	0.014668311
222	0xbd345da3	-0.04403461
223	0x3d6e3620	0.058157086
224	0x3c846063	0.016159242
225	0x3c89867f	0.016787766
226	0xbab07879	-0.0013463638
227	0x3e17ff70	0.14843535
228	0x3bc5a6b7	0.006031837
229	0xbd51063c	-0.051031336
230	0x3dafc049	0.08581597
231	0x3d30f5f7	0.04320332
232	0x3d95d100	0.07315254
233	0xbdbb4af6	-0.09145157
234	0xbd44a81c	-0.048011884
235	0xbbf260ec	-0.007396808
236	0x3c4d6c4f	0.01253803
237	0x3db87928	0.09007484
238	0x3cdcf1f1	0.026970835
239	0xbc1882c7	-0.0093085235
240	0xbdb6d87d	-0.089280106
241	0x3d0c41e0	0.03424251
242	0x3d72d0e1	0.059281234
243	0x3d99712d	0.0749229
244	0xbd8b4425	-0.06800107
245	0xbd9c9b4e	-0.076468095
246	0xbd48710d	-0.04893594
247	0x3d49d569	0.04927579
248	0xbd8e4b12	-0.06947912
249	0xbda634c3	-0.08115532
250	0x3d6a77d4	0.057243183
251	0x3d25b9a5	0.040460248
252	0xbbc6d2e4	-0.0060676206
253	0xbd5988ee	-0.053109102
254	0xbe0404b1	-0.12892415
255	0xbdee47b8	-0.11634773

input_layer.bias f4 [64]
0	0xbd039ea2	-0.032133706
1	0xbbd94e43	-0.006631644
2	0x3d2a27a7	0.04154172
3	0xbdceb9a5	-0.10094003
4	0xbda464dd	-0.08027051
5	0xbd27e805	-0.040992755
6	0xbd34d427	-0.044147637
7	0x3c071ecf	0.008247091
8	0x3d811fd0	0.06304896
9	0x3dab8941	0.083757885
10	0xbda178cc	-0.07884368
11	0x3c19474c	0.009355377
12	0xbd5f7d26	-0.05456271
13	0x3c9cef21	0.019156994
14	0x3d740313	0.059573244
15	0x3d6f4a79	0.058420632
16	0xbcf120d1	-0.029434593
17	0xbc5d6e8c	-0.013515126
18	0x3d906681	0.07050801
19	0xbd952792	-0.07282938
20	0xbdb4dc88	-0.088311255
21	0x3dad9398	0.08475417
22	0x3daea375	0.08527271
23	0xbcad1c33	-0.02113161
24	0x3d0fa18a	0.035066165
25	0xbd248e32	-0.04017467
26	0x3d9fe5c0	0.07807493
27	0x3c5e9aa6	0.013586676
28	0xbbb0c66f	-0.005394749
29	0xbd99233f	-0.07477426
30	0xbd4b03e8	-0.049564272
31	0xbdcb4ef6	-0.0992717
32	0xbc78236c	-0.015145164
33	0x3d6f6f96	0.058456026
34	0x3ca61217	0.020272298
35	0x3c0f801c	0.008758571
36	0xbcd786ac	-0.026309334
37	0xbd6789e6	-0.056527995
38	0xbcd929ba	-0.026509155
39	0xbd74c3ae	-0.059756927
40	0xbcd891f2	-0.02643678
41	0x3b5ff91f	0.0034175587
42	0xbb6f7920	-0.0036540702
43	0xbd202641	-0.03909898
44	0xbd0b9c90	-0.034084857
45	0x3c258bcf	0.010104134
46	0x3d8a7e38	0.067623556
47	0xbd57de8c	-0.05270247
48	0xbd293b91	-0.041316573
49	0x3d661ac3	0.056177866
50	0xbdb4ca6c	-0.088276714
51	0x3d8f1c91	0.069878705
52	0x3d9daac6	0.07698588
53	0xbd379cff	-0.044827458
54	0x3d3c001c	0.04589854
55	0xbdd2f656	-0.10300891
56	0xbd9fbb3e	-0.077993855
57	0x3d3edf6d	0.046599794
58	0x3d47b6cc	0.048758313
59	0x3cdd8b74	0.027044035
60	0x3d37c043	0.04486109
61	0x3d985245	0.07437567
62	0x3c9b5e96	0.018966
63	0xbd5908dc	-0.052986965

hiddens.0.weight f4 [64, 64]
0	0xbda2baf7	-0.07945817
1	0x3cde23d8	0.027116701
2	0x3dc88322	0.097906366
3	0x3d82b83f	0.063827984
4	0x3b048aeb	0.0020224403
5	0x3d8d029d	0.06885264
6	0x3ce2bb4f	0.027677206
7	0xbe00a6ac	-0.1256358
8	0x3bf73870	0.0075445697
9	0xbdea3c90	-0.11437333
10	0x3da30718	0.079603374
11	0xbd44b708	-0.048026115
12	0xbe0559aa	-0.13022485
13	0xbe21f15b	-0.15814726
14	0xbdfe90f7	-0.124299936
15	0xbcf68402	-0.030092243
16	0xbd23cf8b	-0.03999285
17	0x3e00d26d	0.12580271
18	0x3d20237a	0.039096333
19	0xbd98b44d	-0.07456265
20	0xbc7ed424	-0.015553508
21	0x3d6bf67c	0.057608113
22	0xbd60375d	-0.0547403
23	0x3e3944df	0.18092678
24	0x3cbc5445	0.022989402
25	0x3d908869	0.07057268
26	0xbdbdcb93	-0.09267344
27	0x3dcbe1f7	0.09955209
28	0xbd6daf93	-0.05802877
29	0x3de977fc	0.11399838
30	0xbc00ce56	-0.007861694
31	0xbcbb650e	-0.022875335
32	0x3d5a816a	0.053346075
33	0xb99015cf	-0.0002748207
34	0x3d6f79df	0.058465835
35	0xbb02b3b8	-0.0019943547
36	0xbd7df84c	-0.062004372
37	0x3e153cdc	0.14573997
38	0x3df2d815	0.118576206
39	0xbbe9c121	-0.0071336185
40	0x3deb701e	0.11495994
41	0x3d675ff4	0.056487992
42	0x3c7926be	0.015206991
43	0x3d530601	0.051519398
44	0x3c99d546	0.018778455
45	0x3da231d5	0.07919661
46	0x3bd99e61	0.0066411947
47	0x3d8242c8	0.06360394
48	0x3e0d042e	0.13771126
49	0xbd472665	-0.0486206
50	0x3b926ea5	0.0044687563
51	0xbdb8fbf2	-0.0903243
52	0xbd6a19dd	-0.05715357
53	0xbdfdfa35	-0.12401239
54	0xbc8cd3f8	-0.017190918
55	0x3df86fab	0.12130674
56	0xbda61d62	-0.08111073
57	0xbdbe95d2	-0.0930592
58	0xbde6f71e	-0.112776026
59	0xbdadb6d1	-0.08482135
60	0xbd49f648	-0.049307138
61	0x3b5f2757	0.0034050548
62	0xbd236ddf	-0.039899703
63	0x3c0383e6	0.0080270525
64	0x3e09dd89	0.13463415
65	0xbdb56856	-0.08857791
66	0xbd9f36b9	-0.077741094
67	0x3d4f91e2	0.050676234
68	0x3df8dda1	0.12151647
69	0x3c0a60ed	0.0084459605
70	0x3cd6bd0d	0.026213193
71	0xbe100737	-0.14065252
72	0x3db3be05	0.08776478
73	0xbd27ad83	-0.040936958
74	0x3cf88436	0.03033648
75	0xbbec6e82	-0.007215322
76	0xbda290fb	-0.07937809
77	0x3dac8026	0.0842288
78	0x3ce73257	0.028222246
79	0x3b0f9884	0.0021910975
80	0x3dc78e4a	0.09743936
81	0x3d919253	0.07107987
82	0x3c8c190b	0.017101785
83	0x3df9e17f	0.12201213
84	0xbe0c223a	-0.13684931
85	0x3df859d7	0.121265106
86	0x3d7e5fcb	0.062103074
87	0x3d8d3da8	0.068965256
88	0x3dc5ac87	0.096520476
89	0xbce5409a	-0.027984906
90	0x3b854af3	0.0040677725
91	0xbd765d8d	-0.06014781
92	0xbe132543	-0.14369683
93	0xbdc912c8	-0.09818035
94	0x3da8b28a	0.082371786
95	0x3d11bc95	0.035580236
96	0xbe2d922d	-0.16950293
97	0xbcc5c1a7	-0.024140192
98	0xbda4491d	-0.08021758
99	0x3d9281af	0.071536414
100	0xbc6543da	-0.013993228
101	0x3db2a30a	0.087225035
102	0x3e15ed6f	0.14641355
103	0x3dce2911	0.100664265
104	0xbe35eddc	-0.17766517
105	0x3c4f8fc3	0.012668553
106	0xbe0e4552	-0.13893631
107	0xbcb2fdeb	-0.021849593
108	0xbc094ae7	-0.0083796745
109	0x3d786ee2	0.06065262
110	0x3e0d9456	0.13826117
111	0x3dfba316	0.122869655
112	0x3d5e0af6	0.054209672
113	0xbcc287e7	-0.023746444
114	0x3e240f2d	0.16021414
115	0xbda6ab66	-0.081381604
116	0xbd9bb411	-0.07602704
117	0x3e3fdeed	0.18737383
118	0xbe0dce03	-0.13848118
119	0x3db35a8a	0.08757503
120	0xbcf3b1eb	-0.029747924
121	0xbcb37f8b	-0.021911403
122	0x3d757227	0.059923317
123	0xbd632d4b	-0.055463117
124	0x3da2f8d0	0.079576135
125	0xbe2ce65c	-0.1688475
126	0xbc37bc1b	-0.011214281
127	0xbd8f0a63	-0.06984403
128	0x3dc5d1b9	0.09659142
129	0x3c62a6b4	0.01383369
130	0xbd693883	-0.05693866
131	0x3df05204	0.11734393
132	0x3da53ba5	0.08068017
133	0x3d6fedaa	0.058576263
134	0x3d13f606	0.036123298
135	0xbda932a7	-0.08261614
136	0xbdac12c3	-0.08402016
137	0x3d7f27ac	0.062293693
138	0x3c3368f2	0.010950314
139	0xbd9638ae	-0.073350295
140	0x3d7ea643	0.06217028
141	0xbd274688	-0.04083875
142	0x3c9b2012	0.01893619
143	0x3e0810ab	0.13287608
144	0xbe0f8537	-0.14015661
145	0x3daea612	0.08527769
146	0xbde9802e	-0.114014015
147	0xbe18d07f	-0.14923285
148	0xbe07ec62	-0.13273767
149	0xbde410e4	-0.11136034
150	0x3e03de04	0.12877661
151	0xbd69568b	-0.0569673
152	0xba9db540	-0.0012032166
153	0x3b6c4a46	0.0036055013
154	0x3db05d17	0.086115055
155	0x3c03c3df	0.008042305
156	0xbd0d7354	-0.034533814
157	0xbcbcb02a	-0.02303322
158	0x3d6b3943	0.057427656
159	0xbbad7a8a	-0.005294149
160	0x3df8b977	0.121447496
161	0xbdcbdc34	-0.0995411
162	0xbd2bbbd9	-0.041927192
163	0xbd102e2a	-0.035200275
164	0xbd369a0c	-0.044580504
165	0x3dc2b278	0.095066965
166	0x3d96716b	0.073458515
167	0xbcb27b1d	-0.02178722
168	0x3c28d85e	0.010305492
169	0xbdf39789	-0.118941374
170	0x3da84bc2	0.08217575
171	0x3c016bf2	0.007899271
172	0x3cfc1f64	0.030776687
173	0xbcfc1118	-0.03076987
174	0x3d83163c	0.06400725
175	0xbd885f33	-0.06658783
176	0x3d2fc3e1	0.042911414
177	0xbbdcee33	-0.0067422627
178	0x3ced732e	0.028985586
179	0x3dd01d7f	0.10161876
180	0x3cf3425a	0.029694725
181	0x3dc76646	0.09736304
182	0x3c94709a	0.018120099
183	0xbe05bcb0	-0.1306026
184	0x3dc1d1ed	0.09463868
185	0xbd8de0c9	-0.0692764
186	0x3dddf35e	0.10837434
187	0xbd3e8ed8	-0.046522945
188	0xbdc81c1a	-0.09770985
189	0xbd039955	-0.03212865
190	0xbdb1d663	-0.08683469
191	0xbdb95984	-0.09050277
192	0x3db6030e	0.088873014
193	0xbde1157e	-0.109904274
194	0x39a02f20	0.0003055269
195	0xbd0e6cac	-0.034771606
196	0xbd4f203c	-0.05056785
197	0x3dd62070	0.10455406
198	0xbade8c16	-0.0016979005
199	0x3d972639	0.07380337
200	0x3c3e64e7	0.011620737
201	0x3b5fa858	0.003412744
202	0x3da8b703	0.08238032
203	0x3c6b6d70	0.014369354
204	0xba8755eb	-0.0010325288
205	0xbe1a375e	-0.15060183
206	0x3d071115	0.032975275
207	0x3df9d244	0.12198308
208	0x3dac3f38	0.084104955
209	0x3da3250d	0.07966051
210	0xbc4af447	-0.012387342
211	0x3d24b8b9	0.040215228
212	0xbd394e36	-0.045240603
213	0xbd9e6dad	-0.07735763
214	0x3c287d79	0.010283821
215	0xba3a8a66	-0.000711596
216	0xbd6b8ad2	-0.057505436
217	0x3d24dd4b	0.040250104
218	0xbd635398	-0.055499643
219	0x3c877589	0.016535537
220	0xbbb2d325	-0.0054572993
221	0x3cf728a7	0.030170752
222	0x3e2b2e57	0.16716896
223	0xbdc036da	-0.09385462
224	0xbe3225e6	-0.1739727
225	0xbdf7b3cd	-0.12094841
226	0xbcce37cc	-0.02517309
227	0x3c9d8e2a	0.019232828
228	0xbc31c7c5	-0.010850851
229	0x3d1b5759	0.037925098
230	0xbcf973bc	-0.030450694
231	0xbd99f4cb	-0.07517394
232	0x3d3a3871	0.045463983
233	0x3e1d161a	0.15340462
234	0x3d5fe645	0.05466296
235	0x3dd0170d	0.101606466
236	0xbcebed10	-0.028799564
237	0x3c5271cf	0.012844517
238	0xbe075963	-0.13217692
239	0x3db232c2	0.087010875
240	0xbd6ad8ad	-0.057335544
241	0xbe29cf49	-0.1658298
242	0xbc3e7bfa	-0.011626238
243	0x3d538860	0.05164373
244	0xbdb7b6c5	-0.089704074
245	0x3cc97fbb	0.02459704
246	0x3bbd7a9d	0.005782439
247	0x3cd60ac5	0.026128182
248	0x3da88305	0.08228115
249	0x3dda790e	0.106676206
250	0xbdf99e33	-0.12188377
251	0xbdd726fe	-0.10505484
252	0xbe06440c	-0.13111895
253	0xbdd9c22e	-0.1063274
254	0xbe069181	-0.13141443
255	0x3e252d9c	0.1613068

hiddens.0.bias f4 [64]
0	0xbd971d54	-0.07378641
1	0xbd127f74	-0.03576608
2	0x3d64687f	0.055763718
3	0xbce4cc5b	-0.027929476
4	0x3d51ee86	0.051252864
5	0xbb6eced5	-0.00364392
6	0x3d73d4e8	0.059529215
7	0xbd75b1d5	-0.059984047
8	0x3bcab796	0.006186436
9	0x3d868efa	0.06570239
10	0xbcfb3135	-0.030663112
11	0xbccd8664	-0.025088497
12	0xbd8edea1	-0.06976057
13	0xbd27a32d	-0.0409271
14	0x3ce57121	0.028008046
15	0x3d2762fa	0.040865876
16	0xbd85dc28	-0.06536132
17	0x3d3750bb	0.044754725
18	0xbd87d32a	-0.06632073
19	0x3ba2028a	0.0049441503
20	0x3dfefcc9	0.12450559
21	0x3d122d9a	0.03568802
22	0xbcd67759	-0.026179956
23	0xbbe08569	-0.006851841
24	0xbd68b9b9	-0.056817744
25	0x3c0fe220	0.00878194
26	0xbdfb4a1c	-0.122699946
27	0x3d954e2c	0.07290301
28	0xbd8edc4c	-0.06975612
29	0xbdc6ff95	-0.09716717
30	0xbd9fe299	-0.07806892
31	0x3dc1b7a0	0.09458852
32	0xbd7f96cd	-0.062399674
33	0x3d9e7f58	0.07739133
34	0x3c620d14	0.013797063
35	0xbd9b02df	-0.07568907
36	0x3d68d665	0.056845088
37	0xbc11bb78	-0.008894794
38	0xbdbff512	-0.09372915
39	0x3d64e13c	0.055878863
40	0xbdb5aed5	-0.08871237
41	0x3d1e257b	0.038609963
42	0xbd18002a	-0.03710953
43	0x3d1ba269	0.037996683
44	0xbdb39fe9	-0.08770735
45	0xba5b418c	-0.0008363954
46	0x3dbd8897	0.09254568
47	0x3dd287d4	0.102798134
48	0x3d99ef15	0.075163044
49	0x3df7b2ca	0.12094648
50	0x3d07a8b0	0.033119857
51	0xbd9c2e90	-0.076260686
52	0xbd2d391c	-0.042290792
53	0xbdfcdfb3	-0.12347355
54	0xbd0ca4d6	-0.034336887
55	0xbdac1003	-0.084014915
56	0xbdc992f6	-0.09842484
57	0x3d505f53	0.05087216
58	0xbd85fbc5	-0.06542162
59	0x3dacff8a	0.08447178
60	0x3b5e8672	0.0033954647
61	0x3dadc865	0.08485488
62	0x3cf0e488	0.029405847
63	0x3ccf7ec7	0.025329007

hiddens.1.weight f4 [64, 64]
0	0x3decbb5b	0.11559173
1	0x3de1e36d	0.11029706
2	0x3db89507	0.090128
3	0xbdb2ca67	-0.087300114
4	0xbcc97366	-0.02459116
5	0xbd85d15e	-0.06534074
6	0xbd723619	-0.059133623
7	0x3dc3eb40	0.09566355
8	0xbd6c8c30	-0.05775088
9	0xbdafef3b	-0.085905515
10	0xbd4206b7	-0.047369685
11	0x3d4d7dbd	0.05016874
12	0x3d8f4ebe	0.06997441
13	0x3dc0be36	0.0941128
14	0x3cb229c6	0.021748435
15	0x3cfe723e	0.031060334
16	0xbcfe9894	-0.031078614
17	0xbb473ac0	-0.0030400008
18	0xbda4c1e2	-0.08044793
19	0xbda66565	-0.08124808
20	0xbd86796b	-0.065661274
21	0xbdff1e7a	-0.12456985
22	0x3c5b50c8	0.013385959
23	0xbd97f486	-0.07419686
24	0x3c040c4a	0.008059571
25	0xbe14062a	-0.14455476
26	0x3e36c5d2	0.178489
27	0xbdc71ef6	-0.09722702
28	0x3bf2b0c9	0.0074063283
29	0xbd826e31	-0.063686736
30	0x3e4b8331	0.19874264
31	0xbba4ee8e	-0.0050333207
32	0xbe002e08	-0.1251756
33	0xbddf8d1c	-0.10915586
34	0xbe0a80f8	-0.1352576
35	0x3dc21d42	0.09478237
36	0x3dcfd5b1	0.1014818
37	0x3d7ff9b8	0.06249401
38	0x3e220786	0.15823182
39	0x3bc6a981	0.006062687
40	0xbc9208fa	-0.017826546
41	0x3d8e99b8	0.06962913
42	0x3cb9f407	0.02269937
43	0x3d067456	0.03282579
44	0xbc8f25ab	-0.017474016
45	0xbc871008	-0.016487136
46	0x3ce5ae25	0.02803714
47	0xbd00ccfd	-0.031445492
48	0xbd6a402d	-0.05719011
49	0x3ca37dae	0.01995739
50	0xbe215c8e	-0.15757963
51	0xbcc91433	-0.024545765
52	0xbcd0c751	-0.025485666
53	0x3dfd1bc5	0.12358812
54	0x3d3626d8	0.044470638
55	0xbd9f7799	-0.07786483
56	0x3da04526	0.07825689
57	0xbda3fba3	-0.0800698
58	0x3daa4f6f	0.08315932
59	0x3dbc6a6a	0.09199984
60	0xbe14bc1b	-0.14524882
61	0x3d60cb69	0.054881487
62	0x3e1bc3a5	0.15211351
63	0xbd871dc4	-0.06597474
64	0x3dbb268c	0.091382116
65	0xbe1d9e34	-0.15392381
66	0xbdd005b6	-0.10157339
67	0x3c38446e	0.011246784
68	0x3dace9b1	0.084430106
69	0x3cb0739d	0.021539504
70	0x3db5e9e4	0.08882502
71	0x3d95702d	0.072967865
72	0xbe452c25	-0.19255121
73	0xbe732d0a	-0.2374765
74	0xbe304e46	-0.17217359
75	0xbe13a9d0	-0.14420247
76	0x3cf1e863	0.029529756
77	0xbde05702	-0.109540954
78	0xbdb3c5eb	-0.08777984
79	0x3ab247ad	0.0013601683
80	0x3d689593	0.05678327
81	0x3db52081	0.0884409
82	0x3e11dab0	0.14243579
83	0x3c850eb6	0.016242366
84	0x3dc16f36	0.0944504
85	0xbd88b337	-0.066748075
86	0xbcbda548	-0.023150101
87	0x3db5008d	0.08837996
88	0xbe0b21d5	-0.13587125
89	0xbdf1816e	-0.11792265
90	0xbe1b3466	-0.15156707
91	0x3c801de4	0.015639253
92	0xbe108c82	-0.141161
93	0xbd3022e7	-0.043002035
94	0xbda017e4	-0.07817057
95	0x3dc6b958	0.0970332
96	0xbe3e9d43	-0.18614678
97	0x3e258592	0.16164234
98	0x3d92a6c8	0.07160717
99	0xbdefb4bf	-0.117043965
100	0x3abe6f73	0.0014529064
101	0xbe50b988	-0.20383275
102	0x3d180497	0.037113752
103	0xbc86c98d	-0.016453529
104	0x3dc7586a	0.097336605
105	0x3ba091ff	0.0049002166
106	0xbd6d4071	-0.057922784
107	0xbe876bd8	-0.26449466
108	0x3d3f3a82	0.046686657
109	0x3e199394	0.14997703
110	0xbdec16c3	-0.11527779
111	0xbdf4bd08	-0.11950117
112	0xbc550a38	-0.013002925
113	0x3e3cc42c	0.18434209
114	0xbe1e34a5	-0.1544977
115	0xbcc65478	-0.0242102
116	0x3de0b9fb	0.10972973
117	0xbe5dc146	-0.21655759
118	0xbdeb8fce	-0.11502038
119	0xbdcad228	-0.099033654
120	0xbd979b99	-0.07402725
121	0x3c9e0a7f	0.019292114
122	0x3d644f84	0.055739895
123	0xbdae8df1	-0.08523167
124	0x3e83d3d7	0.25747558
125	0x3b874ce1	0.0041290377
126	0xbd8dcc41	-0.06923724
127	0x3dd60e46	0.10451941
128	0x3bc6efcf	0.006071068
129	0x3ccdc92a	0.025120337
130	0xbdbca824	-0.09211758
131	0x3dc798b4	0.09745923
132	0xbc2f8c6f	-0.010714634
133	0x3c236145	0.009971921
134	0x3e0f827d	0.14014621
135	0x3dd1b12d	0.10238872
136	0x3e0323d0	0.1280663
137	0xbd07862b	-0.033086937
138	0x3d68197d	0.056664933
139	0x3e1221ac	0.14270657
140	0xbd5d9af2	-0.054102845
141	0x3cf11bd7	0.02943222
142	0x3de8f915	0.113756336
143	0x3de7042b	0.11280092
144	0x3d2e4c99	0.042553518
145	0xbd91d6b7	-0.07121032
146	0xbb8767c2	-0.004132242
147	0x3c9c54b0	0.01908335
148	0xbca3cf7e	-0.0199964
149	0xbc14ea1e	-0.009089021
150	0x3db82ce3	0.089929365
151	0xbde411e6	-0.11136226
152	0x3e1325f1	0.14369942
153	0x3dedea28	0.116169274
154	0xbc6bfde6	-0.014403796
155	0xbe0c3028	-0.13690245
156	0xbc8285a6	-0.01593287
157	0xbe18cbdb	-0.14921515
158	0xbdca772b	-0.09886011
159	0xbbb9d8c7	-0.005671594
160	0xbdd77e5d	-0.10522149
161	0xbd3b6545	-0.045750875
162	0xbe036f76	-0.12835488
163	0xbd572da1	-0.05253375
164	0xbdc866d5	-0.09785239
165	0x3daa037e	0.08301447
166	0xbd6ebfb5	-0.058288295
167	0xbdd31541	-0.10306788
168	0xbcba020f	-0.02270606
169	0xbc1d3888	-0.009595998
170	0x3e15ada3	0.14617018
171	0x3d11b7dc	0.035575733
172	0xbdcf28ff	-0.10115241
173	0x3c8f6f00	0.017508984
174	0xbd9f72bc	-0.07785556
175	0x3ddcd94e	0.10783635
176	0x3c8b34dc	0.016992979
177	0xbe1d1bac	-0.15342587
178	0xbd01d058	-0.031692833
179	0xbca7193e	-0.020397779
180	0x3ce0fae6	0.027463388
181	0x3dc20c61	0.09475017
182	0x3e32089f	0.17386101
183	0xbcf2ed8a	-0.029654283
184	0x3e1e368f	0.154505
185	0x3db604f2	0.08887662
186	0x3d0a1206	0.033708595
187	0x3dc6987f	0.09697055
188	0xbe4bdc0a	-0.19908157
189	0x3c567b38	0.013090901
190	0x3dcf90eb	0.10135063
191	0x3e061a6e	0.1309602
192	0xbb4df552	-0.003142674
193	0x3d85dde0	0.0653646
194	0x3d515188	0.051103145
195	0xbd822672	-0.06354989
196	0xbc9b6e32	-0.018973444
197	0xbe0b8766	-0.13625869
198	0xbd3e0ee6	-0.046400927
199	0x3d86e25e	0.06586145
200	0x3bba22ec	0.0056804325
201	0x3e0f572b	0.13998096
202	0xbba32323	-0.004978554
203	0x3ddbe304	0.10736659
204	0x3e1afa85	0.15134628
205	0x3e274235	0.1633385
206	0x3e177aea	0.14792982
207	0x3d04d7a2	0.032432206
208	0xbdf286e2	-0.11842133
209	0xbda6f925	-0.08152989
210	0xbd25902d	-0.0404207
211	0x3ca70b1b	0.020391038
212	0xbd82d6e6	-0.06388645
213	0xbdc6df93	-0.09710612
214	0xbcd5876f	-0.026065556
215	0xbe35d8b1	-0.17758442
216	0x3d75db74	0.06002374
217	0x3c89f23e	0.016839143
218	0x3d4baf66	0.04972782
219	0xbe1a801c	-0.15087932
220	0xbda8d05f	-0.08242869
221	0xbc130fb9	-0.008975917
222	0x3d211fd7	0.039337005
223	0xbc34b12b	-0.011028568
224	0x3d79bd14	0.060971335
225	0xbc5a3f65	-0.0133207785
226	0xbdacd24e	-0.0843855
227	0xbd8b90d2	-0.06814732
228	0xbd76941b	-0.060199838
229	0xbd561852	-0.052269287
230	0xbd95a141	-0.07306147
231	0xbdf38895	-0.11891285
232	0x3d521e25	0.05129828
233	0x3da2b2b7	0.079442434
234	0x3c59577b	0.013265486
235	0xbd32f23a	-0.043688037
236	0xbd4a8424	-0.049442425
237	0xbd2cd57e	-0.04219579
238	0x3bcea4d1	0.0063062687
239	0x3caed2c8	0.021340743
240	0xbd44f1e8	-0.048082262
241	0x3b3db7e9	0.002894873
242	0x3e126d89	0.14299597
243	0x3bf9b65c	0.007620616
244	0x3d135834	0.03597279
245	0x3de1f02a	0.11032136
246	0x3e25b5d4	0.16182643
247	0x3be522f0	0.0069926903
248	0x3e144f63	0.14483409
249	0x3da91196	0.082553074
250	0x3d842f28	0.06454307
251	0x3dcb87ec	0.099380344
252	0xbe573528	-0.21016371
253	0x3cc6d80c	0.024272941
254	0xbd82ea2a	-0.063923195
255	0xbccea056	-0.025222939

hiddens.1.bias f4 [64]
0	0x3d1b9619	0.03798494
1	0x3bb2ebc1	0.005460233
2	0x3cbfd0b9	0.023414956
3	0x3dab418d	0.08362112
4	0xbd4a8342	-0.049441583
5	0xbd403f07	-0.046935108
6	0x3d7034e2	0.058644183
7	0xbda8d55d	-0.08243821
8	0x3d09295a	0.0334867
9	0xbceeedd3	-0.029166138
10	0x3dbe8367	0.09302407
11	0x3cf6aa8c	0.03011062
12	0x3d03d93f	0.032189604
13	0xbd1c25dd	-0.038122047
14	0xba639d6c	-0.00086828205
15	0xbd153a2e	-0.036432438
16	0x3cde7d97	0.027159495
17	0x3da098e1	0.07841659
18	0x3dbb09b7	0.09132712
19	0xbd8bacd9	-0.068200774
20	0x3dc8b50d	0.09800158
21	0xbd053fda	-0.032531597
22	0x3d5f778e	0.054557376
23	0xbd64f752	-0.055899926
24	0xbd131a2a	-0.035913624
25	0x3bf55aef	0.007487647
26	0xbcdce374	-0.026963927
27	0x3d9f32e0	0.077733755
28	0xbd513359	-0.05107436
29	0x3dc6438e	0.09680854
30	0xbc8213f7	-0.01587866
31	0x3dd43ddf	0.103633635
32	0x3d960a46	0.07326178
33	0x3d8b7146	0.068087146
34	0x3da2c82d	0.07948337
35	0xbcd03166	-0.02541418
36	0x3c8189e4	0.015812822
37	0x3d5a6551	0.05331928
38	0xbd836f0c	-0.06417665
39	0xbd9db87c	-0.07701203
40	0xbd3d49dc	-0.046213016
41	0x3ceb21df	0.028702674
42	0xbd1b03d9	-0.037845466
43	0x3d526025	0.05136122
44	0x3c391b42	0.011298003
45	0x3d096222	0.033540852
46	0x3c019d79	0.00791108
47	0xbd5e0a97	-0.054209318
48	0x3da6950e	0.08133899
49	0xbdbfb6ec	-0.093610615
50	0x3ca8f7b7	0.020625932
51	0x3ca3598f	0.019940166
52	0xbde2a7ad	-0.11067138
53	0x3dba304a	0.09091242
54	0x3d93075a	0.071791366
55	0xbddce3c5	-0.10785631
56	0xbd7003f0	-0.058597505
57	0x3ca68bac	0.020330273
58	0xbd89c026	-0.067261025
59	0xbdd4974a	-0.103804186
60	0x3d3e9685	0.046530265
61	0x3d225214	0.039629057
62	0x3c8f4616	0.017489474
63	0x3dc52105	0.096254386

hiddens.2.weight f4 [64, 64]
0	0xbd2aa7dd	-0.041663993
1	0x3d378e2f	0.04481333
2	0xbd31257e	-0.043248646
3	0xbc9fe3ff	-0.019517897
4	0xbdb2c429	-0.08728821
5	0xbc58b6a7	-0.013227141
6	0x3da9a87f	0.08284091
7	0x3dd8dc55	0.105889
8	0xbcb82c2e	-0.022482004
9	0xbd8f5a82	-0.06999685
10	0x3c8af068	0.016960338
11	0x3da2dd00	0.07952309
12	0x3d2c2f1f	0.042037126
13	0x3d59132c	0.0529968
14	0xbd02e891	-0.031960074
15	0xbdd5d513	-0.10441031
16	0xbdea3307	-0.11435514
17	0x3d87fcfd	0.066400506
18	0xbd459bed	-0.048244406
19	0x3c9d2195	0.019181052
20	0x3cac872d	0.02106055
21	0xbdea53f2	-0.114417925
22	0x3d6ba73b	0.05753253
23	0x3d3ec817	0.04657754
24	0x3d81a27e	0.06329821
25	0x3bec01d1	0.007202365
26	0xbd5de23e	-0.05417084
27	0x3d274aa1	0.040842656
28	0x3d172ddd	0.036908973
29	0xbc9c101c	-0.01905065
30	0x3e1357c4	0.14388949
31	0xbb2bd2d9	-0.0026218204
32	0xbda6159e	-0.08109592
33	0x3c9ef3e0	0.019403398
34	0x3da31616	0.07963197
35	0xbce532a4	-0.027978249
36	0x3c109c5a	0.00882634
37	0x3d97fed6	0.07421653
38	0xbd612201	-0.05496407
39	0x3b011a48	0.0019699503
40	0xbda17238	-0.078831136
41	0x3e278f7f	0.16363333
42	0x3e00c16c	0.12573785
43	0xbe464ad6	-0.19364485
44	0x3d3d19ea	0.04616729
45	0xbd9bca66	-0.07606964
46	0xbd61d53d	-0.055135
47	0x3d7bcbd2	0.061473675
48	0xbc939c3d	-0.018018836
49	0xbdc27a18	-0.09495944
50	0x3dda21e2	0.10650994
51	0x3e36c352	0.17847946
52	0xbdbcbcb6	-0.09215681
53	0xbd373257	-0.044725742
54	0xbde30b48	-0.11086136
55	0x3da9cbe0	0.08290839
56	0xbe081875	-0.1329058
57	0x3e047986	0.12936983
58	0x3d959730	0.07304227
59	0xbdc9bbce	-0.09850274
60	0x3da3f216	0.080051586
61	0xbe21c1de	-0.1579661
62	0x3cc6b664	0.024256893
63	0xbce1f60d	-0.027583146
64	0x3ca91506	0.020639908
65	0xbc1ec859	-0.009691321
66	0x3d2a98b9	0.041649554
67	0x3dc4d347	0.096106105
68	0xbd5bbeec	-0.053648874
69	0x3d4643a5	0.048404355
70	0xbd46fc50	-0.048580468
71	0x3ca5e95b	0.020252874
72	0x3d24965e	0.040182464
73	0xbe19b0c3	-0.15008835
74	0xbcba98a4	-0.022777863
75	0xbdfc2bda	-0.123130515
76	0xbdb092ed	-0.08621774
77	0x3cd5391e	0.026028212
78	0xbdcca79e	-0.09992908
79	0x3df2dfc9	0.1185909
80	0xbdef8e78	-0.11697096
81	0xbdeeb7c2	-0.11656143
82	0x3dce1a38	0.100635946
83	0x3dddedf0	0.108363986
84	0x3d0e70fc	0.03477572
85	0xbd383738	-0.044974536
86	0xbc09c855	-0.008409579
87	0x3dc395f1	0.095500834
88	0xbd11fca1	-0.035641316
89	0x3dcd7637	0.10032313
90	0xbcb38c44	-0.02191747
91	0xbdb87690	-0.09006989
92	0xbd91fc8e	-0.07128249
93	0xbd2fc999	-0.042916868
94	0xbe393fe3	-0.18090777
95	0x3d5f1b70	0.054469526
96	0x3d1f7c8f	0.038937148
97	0x3bd81b0b	0.0065950206
98	0xbce4c244	-0.027924664
99	0xbda33b33	-0.07970276
100	0xbc90ce08	-0.017676368
101	0x3d39ac5b	0.045330387
102	0x3d859a64	0.06523588
103	0xbdc8fd57	-0.09813946
104	0x3e0be508	0.13661587
105	0xbd1e69cc	-0.038675115
106	0x3da84203	0.08215716
107	0x3e107d86	0.14110383
108	0xbd97f1e0	-0.07419181
109	0xbd81905c	-0.063263625
110	0xbdcfe657	-0.10151356
111	0xbd1491ed	-0.03627198
112	0x3e15ff6c	0.14648217
113	0x3d5b1d91	0.053494994
114	0xbe17ad71	-0.14812256
115	0xbc6a0043	-0.014282289
116	0x3e182fa0	0.14861917
117	0xbd67625d	-0.05649029
118	0xbc87724c	-0.016533993
119	0x3cad5654	0.021159329
120	0xbda21fa2	-0.0791619
121	0xbd8f1f37	-0.06988376
122	0xbddfd197	-0.10928648
123	0x3e12ab7e	0.14323232
124	0x3e09faa8	0.13474524
125	0x3e1e0e3e	0.1543512
126	0x3d1b3d93	0.03790052
127	0x3dd6718e	0.104708776
128	0xbd97855e	-0.07398485
129	0x3dbb4d44	0.091455966
130	0x3d9939d8	0.07481736
131	0x3da9629d	0.08270762
132	0x3d0dcd76	0.03461977
133	0xbd374f62	-0.04475344
134	0x3e30804f	0.17236446
135	0x3e067ed3	0.13134317
136	0xbdd64b35	-0.10463563
137	0xbd185dfa	-0.037198998
138	0xbdc5dba5	-0.096610345
139	0x3d7f091c	0.062264547
140	0x3c98dbaf	0.01865944
141	0x3ce2b31c	0.027673297
142	0x3d9ee5b6	0.07758658
143	0x3cfcec7f	0.030874489
144	0x3d62ad46	0.055341028
145	0x3ddd22db	0.10797664
146	0xbdab3277	-0.08359235
147	0x3df6173a	0.12016149
148	0x3df007a7	0.117202096
149	0x3de33005	0.110931434
150	0xbd8e78f5	-0.069566645
151	0x3d4b3e92	0.04962022
152	0xbd9237e4	-0.071395665
153	0xbcfc7673	-0.0308182
154	0x3dbce035	0.092224516
155	0xbdae731f	-0.08518051
156	0xbdb56d55	-0.08858744
157	0x3cd8353d	0.026392573
158	0xbd6eb343	-0.058276426
159	0x3be034ad	0.006842217
160	0x3a1dbad4	0.0006016914
161	0xbd384580	-0.044988155
162	0xbd567d5f	-0.052365657
163	0xbcc18404	-0.02362252
164	0x3e1239d4	0.14279872
165	0xba420233	-0.00074008404
166	0x3d2fb358	0.042895645
167	0xbaf342e2	-0.0018559361
168	0xbdd5069f	-0.104016535
169	0x3d3b8917	0.045785036
170	0x3dca7afa	0.09886737
171	0x3dbd6b12	0.09248938
172	0x3dbd1578	0.092326105
173	0x3dc9da18	0.09856051
174	0xbda61f96	-0.08111493
175	0xbdb3649d	-0.08759425
176	0xbd7f8997	-0.062387075
177	0x3ab8996c	0.0014083809
178	0x3cb1a791	0.021686347
179	0x3d8d2f76	0.06893818
180	0x3dd75938	0.10515064
181	0x3cb4c0f0	0.022064656
182	0x3de66bca	0.11251028
183	0x3c368640	0.011140406
184	0xbd83c528	-0.06434089
185	0x3d7996a7	0.06093469
186	0x3daf4760	0.085585356
187	0x3c651ba5	0.013983642
188	0x3df5d7a0	0.12004018
189	0x3dc0ec43	0.09420063
190	0x3e165540	0.14680958
191	0xbe0e56d5	-0.13900311
192	0x3b952bc9	0.0045523387
193	0xbdf64591	-0.120249875
194	0x3db0f4f8	0.08640474
195	0x3d4b7250	0.049669564
196	0xbcfc9230	-0.030831426
197	0x3d4fd01d	0.05073558
198	0xbdc5490c	-0.09633073
199	0xbbae4326	-0.0053180633
200	0xbb7b3985	-0.0038333845
201	0xbcfc2bd0	-0.03078261
202	0x3be6fbe7	0.007049072
203	0x3d43222d	0.047640014
204	0xbcabb82b	-0.020961842
205	0x3d8ab790	0.06773293
206	0xbdd3748c	-0.10324964
207	0xbe0d3a3d	-0.13791747
208	0x3d203b06	0.03911879
209	0x3cc74bf3	0.024328208
210	0x3c336db9	0.010951453
211	0xbdcf9e40	-0.10137606
212	0xbcacd670	-0.021098346
213	0xbd8e3d4b	-0.069452845
214	0x3c8fb7c3	0.01754368
215	0xbdae303a	-0.08505292
216	0xbdf5e4d7	-0.12006538
217	0x3d8d4cd3	0.06899419
218	0x3d4ade02	0.04952813
219	0xbc550607	-0.013001925
220	0xbdddf305	-0.10837368
221	0xbb79faef	-0.0038143953
222	0xbd5799dd	-0.05263697
223	0xbdae3daf	-0.08507859
224	0xbb9b44d1	-0.004738428
225	0x3da53507	0.08066755
226	0xbdd17c8d	-0.10228834
227	0xbcbc6f1a	-0.023002196
228	0x3d8720bb	0.0659804
229	0x3c957cd7	0.018248005
230	0x3d07c1b0	0.0331437
231	0x3dd8136d	0.1055058
232	0xbd56f2f9	-0.05247781
233	0xbd2f6c9c	-0.042828187
234	0xbcdffb6c	-0.027341567
235	0xbe0a21a2	-0.13489392
236	0xbdce2886	-0.10066323
237	0xbdbde7dc	-0.09272739
238	0xbd1ad250	-0.037798226
239	0x3dd70e8a	0.1050082
240	0xbe143aae	-0.1447551
241	0xbc26deb4	-0.0101849325
242	0x3dd33b44	0.103140384
243	0x3ca6c581	0.02035785
244	0x3c0e3109	0.008678683
245	0x3d84189f	0.064500086
246	0xbd8b60a3	-0.06805541
247	0x3c834a7b	0.016026726
248	0x3d6e27fb	0.058143597
249	0x3df6c37e	0.12049006
250	0xbdc63664	-0.09678343
251	0xbe063522	-0.13106206
252	0x3c4a5bb2	0.012350963
253	0x3d157425	0.036487717
254	0x3cd831d5	0.02639095
255	0xbc93d18c	-0.018044256

hiddens.2.bias f4 [64]
0	0xbd16bc86	-0.036800884
1	0x3d88fcd2	0.06688847
2	0x3d95a96b	0.073077045
3	0x3d078fa6	0.03309598
4	0xbde3f5c3	-0.1113086
5	0xbd19c8fa	-0.03754518
6	0x3d743725	0.059622902
7	0x3dc9a97a	0.09846778
8	0xbd387971	-0.04503769
9	0x3dbb9a99	0.091603465
10	0xbd9702a8	-0.073735535
11	0x3dc45452	0.09586395
12	0xbdaff38f	-0.08591377
13	0xbd60f42e	-0.054920368
14	0x3d6afeed	0.057372022
15	0xbd273f93	-0.040832113
16	0xbc2d20bd	-0.010566887
17	0x3dc8cf78	0.098051965
18	0x3d97b204	0.07407001
19	0x3bfed734	0.007777119
20	0xbdaa02ee	-0.0830134
21	0x3dc2fb92	0.095206395
22	0xbd8a62f5	-0.06757156
23	0xbcedf568	-0.029047683
24	0xbcb4eb55	-0.022084871
25	0x3d3783ba	0.04480336
26	0x3c998179	0.018738495
27	0xbca323ac	-0.01991447
28	0x3db1638f	0.086615674
29	0x3e000e12	0.12505367
30	0xbdb820b0	-0.0899061
31	0xbce38893	-0.027775085
32	0x3d02173e	0.031760447
33	0xbdb2bc2d	-0.08727298
34	0xbd391bc7	-0.045192506
35	0x3bba66db	0.005688531
36	0xbd2f9a59	-0.042871807
37	0x3dddf31b	0.10837384
38	0xbbe5f559	-0.007017773
39	0x3bbeeb07	0.0058263573
40	0xbc3fe7fe	-0.011713026
41	0x3d169f64	0.0367731
42	0xbd985d12	-0.07439627
43	0x3d28d0a4	0.0412146
44	0xbdf625d5	-0.12018935
45	0xbdbfa854	-0.09358278
46	0xbdc33bf7	-0.09532922
47	0xbd951d86	-0.07281022
48	0x3d613b28	0.054988056
49	0xbd2ecea2	-0.04267753
50	0x3d9b1316	0.07572
51	0x3bbd3e76	0.005775268
52	0xbc4152d3	-0.011799532
53	0xbdbb4e49	-0.09145791
54	0xbdc00cac	-0.09377417
55	0xbc6e5fc6	-0.014549201
56	0x3cbd6d53	0.023123419
57	0x3d0cc0b2	0.034363456
58	0x3d9db105	0.076997794
59	0xbd1e3dda	-0.038633205
60	0x3d0ccd66	0.03437557
61	0x3d85a283	0.06525137
62	0x3de68e7c	0.112576455
63	0xbd5d055e	-0.053960197

hiddens.3.weight f4 [64, 64]
0	0xbdd00709	-0.10157592
1	0xbc5f95c3	-0.013646546
2	0x3ce0d2fb	0.027444353
3	0x3c2f1a5e	0.010687439
4	0xbc017b7d	-0.007902977
5	0x3c034d91	0.008014099
6	0x3df34fbf	0.11880445
7	0x3d6d1726	0.057883404
8	0xbe200dcc	-0.15630263
9	0x3d77d287	0.06050351
10	0xbd9fe1f2	-0.078067675
11	0xbdf6e80c	-0.12055978
12	0xbd860195	-0.065432705
13	0xbdec65d8	-0.11542863
14	0x3b3eaa04	0.0029093036
15	0x3c47cfce	0.012195541
16	0xbd5255b2	-0.051351257
17	0x3b834064	0.0040054787
18	0x3d57a99b	0.052651983
19	0xbd7fc53d	-0.06244396
20	0xbdefe72d	-0.11714015
21	0x3d1fcd6c	0.039014265
22	0xbe07b120	-0.13251162
23	0x3cb42cb6	0.021993976
24	0xbc4abb4e	-0.0123737585
25	0x3caf327b	0.021386376
26	0xbd02281b	-0.03177653
27	0xbd84f1fb	-0.064914666
28	0xbdba3a72	-0.09093179
29	0xbcfd7c0a	-0.030942935
30	0xbdbcbfcd	-0.092162706
31	0xbdd4e3f2	-0.103950396
32	0xbdc862d7	-0.09784477
33	0x3e06d637	0.13167654
34	0xbd8c58ba	-0.06852861
35	0x3d82d592	0.063883916
36	0x3d050690	0.03247696
37	0x3db3c493	0.08777728
38	0xbc157744	-0.009122673
39	0x3e0bf88c	0.13669032
40	0xbdb2be47	-0.08727699
41	0x3e02f871	0.12790085
42	0x3dfc2ae9	0.12312872
43	0xbe071e0b	-0.13195054
44	0x3d3cfc8d	0.04613929
45	0x3d8fc118	0.070192516
46	0x3a6bcde4	0.00089952187
47	0x3d792599	0.06082687
48	0xbd993cf8	-0.07482332
49	0xbda6965e	-0.08134149
50	0xbd66c6be	-0.05634188
51	0x3d0ef2a7	0.03489938
52	0xbd4e1619	-0.050314043
53	0x3c57cce8	0.013171412
54	0x3d942852	0.07234253
55	0x3c5e3bc7	0.013564057
56	0x3dcec7ed	0.100967266
57	0x3db64b4e	0.08901082
58	0x3d95bb5a	0.07311125
59	0xbd751990	-0.05983883
60	0x3cbe223b	0.023209682
61	0x3db75bed	0.0895308
62	0xbd04f756	-0.03246244
63	0xbd83fbd4	-0.06444517
64	0x3d9aa930	0.07551801
65	0xbcc271bc	-0.023735873
66	0x3cc0c2c6	0.023530375
67	0x3e2adcdb	0.16685812
68	0x3e2708ee	0.16312
69	0xbd52abde	-0.051433437
70	0x3b6f1c13	0.003648524
71	0xbdb5c812	-0.08876051
72	0xbe147adc	-0.14499992
73	0xbcc7a540	-0.02437079
74	0x3c7c4bb1	0.015398906
75	0x3ca04aad	0.019566858
76	0x3d62c1de	0.055360667
77	0xbd389678	-0.045065373
78	0x3df30b01	0.11867333
79	0xbd8d9473	-0.0691308
80	0x3e084ca0	0.1331048
81	0x3bdea73b	0.006794838
82	0xbd31445b	-0.04327808
83	0x3c7b7dff	0.015349864
84	0x3de24adb	0.11049434
85	0xbdf528c8	-0.11970669
86	0xbd22421b	-0.039613824
87	0x3e33d8e1	0.17563201
88	0xbd957515	-0.07297722
89	0x3c1f51df	0.009724109
90	0x3de5a120	0.11212373
91	0x3bc32f52	0.0059565688
92	0xbd41df88	-0.047332317
93	0x3e053bf5	0.13011153
94	0x3db745a9	0.089488335
95	0x3e110bec	0.14164704
96	0xbe052f1b	-0.1300625
97	0x3db5fc44	0.088860065
98	0xbd7a7ebb	-0.061156016
99	0x3d69efb8	0.05711338
100	0x3dd5f3da	0.104469016
101	0x3d026d3a	0.031842448
102	0x3d8af33b	0.06784674
103	0x3b303f83	0.0026893325
104	0x3dbad38c	0.091223806
105	0xbd8d2e95	-0.068936504
106	0x3e5b8e07	0.21440898
107	0x3d21d392	0.03950841
108	0x3e497f64	0.19677502
109	0xbd76dbb7	-0.06026813
110	0x3ad0c430	0.0015927609
111	0xbdea857d	-0.11451242
112	0xbdc914cd	-0.098184206
113	0x3dddf8ca	0.108384684
114	0xbdcf392a	-0.10118325
115	0x3d5c8f86	0.053847812
116	0xbb5be891	-0.0033555368
117	0x3da070a6	0.07833986
118	0x3c81bd75	0.01583741
119	0xbd4e8bb7	-0.05042621
120	0xbdf0b1b6	-0.11752646
121	0xbe0db72e	-0.13839409
122	0xbd98919e	-0.07449649
123	0x3d049a66	0.03237381
124	0x3dda8d81	0.10671521
125	0x3de353a1	0.11099935
126	0xbe172286	-0.14759263
127	0x3d423215	0.047411043
128	0xbe08de15	-0.13365968
129	0x3d4342ac	0.047671005
130	0xbde3fcc6	-0.11132197
131	0x3dc58a6f	0.09645545
132	0x3dbe2deb	0.09286102
133	0xbdbeba61	-0.09312893
134	0x3d943a28	0.07237655
135	0xba04818c	-0.00050547044
136	0xbe1a26cf	-0.15053867
137	0xbda81f9f	-0.08209156
138	0xbcd369e6	-0.025807332
139	0x3df6e652	0.12055649
140	0x3dd18d98	0.10232085
141	0x3cd6016a	0.026123721
142	0x3c2a5903	0.010397199
143	0xbe105b58	-0.14097345
144	0x3d84f817	0.06492632
145	0x3d0afecf	0.03393441
146	0xbdb84d42	-0.08999111
147	0x3dce3982	0.100695625
148	0x3da01d6f	0.07818114
149	0x3de299de	0.11064504
150	0xbd0a824c	-0.033815667
151	0x3d84e639	0.06489224
152	0x3d870d0f	0.065942876
153	0xbdd223d8	-0.10260743
154	0xbdd57736	-0.10423128
155	0xbc9dbd2d	-0.019255245
156	0xbd123bac	-0.03570144
157	0x3ddecb13	0.10878577
158	0x3d4ae6e0	0.049536586
159	0xbd5f0311	-0.054446284
160	0x3d8697c1	0.065719135
161	0xbd155595	-0.03645857
162	0x3d13a7e3	0.03604878
163	0x3db416a5	0.087933816
164	0x3d7defb2	0.06199617
165	0xbdd89aab	-0.105763756
166	0xbba87431	-0.005140804
167	0xbc996c05	-0.018728266
168	0xbdabe3f5	-0.08393089
169	0x3ce80e50	0.028327137
170	0x3d9a3868	0.0753029
171	0xbc0a9833	-0.008459139
172	0xbdaad059	-0.083405204
173	0x3cbe6260	0.023240268
174	0xbdd3ac4d	-0.10335598
175	0xbcecfbc9	-0.028928654
176	0xbd6e39fe	-0.058160774
177	0xbcf504ed	-0.029909575
178	0x3d95a446	0.07306723
179	0xbc55e1d7	-0.013054333
180	0x3d1f769e	0.03893148
181	0x3d26306d	0.040573526
182	0xbca06ef6	-0.01958416
183	0xbda97b32	-0.08275451
184	0x3dc64752	0.09681572
185	0x3c61f140	0.013790429
186	0xbdcc0500	-0.09961891
187	0xbc629af4	-0.013830889
188	0x3d0421e1	0.032258872
189	0xbc9f0a57	-0.01941411
190	0x3d9a720c	0.07541284
191	0x3bbb3729	0.0057133627
192	0xbdfe9b9b	-0.12432023
193	0xbd82a915	-0.06379906
194	0xbdb83e73	-0.08996286
195	0xbd9bc7dd	-0.0760648
196	0xbcf7f92d	-0.030270183
197	0x3cfa7150	0.03057161
198	0x3d27b6d7	0.040945854
199	0xbd02c1c8	-0.031923085
200	0xbcd2a261	-0.025712194
201	0xbda8a3fb	-0.08234402
202	0x3a4888e4	0.0007649793
203	0x3da96d43	0.08272793
204	0x3d4c7aa9	0.049921665
205	0xbcd4683f	-0.025928615
206	0x3a0c842f	0.0005360273
207	0xbd1d978e	-0.038474612
208	0x3dcf3dc7	0.10119205
209	0xbd89c85b	-0.06727668
210	0x3c4bda50	0.0124421865
211	0x3dc7ab78	0.09749502
212	0xbd1e9c43	-0.03872324
213	0x3d102057	0.03518709
214	0x3c23439b	0.009964849
215	0x3d24f696	0.040274225
216	0xbd490a81	-0.049082283
217	0x3d7cb339	0.061694358
218	0xbdf33f40	-0.11877298
219	0xbd8772b3	-0.06613674
220	0x3e08f74d	0.13375588
221	0xbd822095	-0.06353871
222	0x3df7fbe8	0.12108594
223	0xbcf7b38a	-0.030236978
224	0x3d3ebebe	0.046568625
225	0x3ceed253	0.029153025
226	0xbcc64eb6	-0.024207454
227	0x3db69926	0.089159295
228	0xbdb78943	-0.089617275
229	0x3d7944ec	0.060856745
230	0xbe050904	-0.1299172
231	0xbdafb17a	-0.08578773
232	0x3d2fecd2	0.04295046
233	0x3da8ecd1	0.08248294
234	0xbe086d23	-0.13322882
235	0x3cc21d01	0.02369547
236	0x3d8e0bb3	0.06935825
237	0xbd4e4ac2	-0.050364263
238	0xbd9bd40c	-0.07608804
239	0xbd4f95a4	-0.050679818
240	0x3e2d0c1d	0.16899152
241	0xbd7ee0ac	-0.062225983
242	0x3d894f1c	0.06704542
243	0x3dee6a73	0.11641397
244	0xbd33844e	-0.043827347
245	0x3da25875	0.07927028
246	0xbdb625ab	-0.08893903
247	0x3d06fd9e	0.032956712
248	0x3e16e396	0.14735255
249	0x3b3a358d	0.0028413266
250	0x3d9d69ea	0.07686217
251	0xbd7ce4e8	-0.06174174
252	0xbdd8f228	-0.10593063
253	0xbdaac3bd	-0.08338115
254	0x3e206a9a	0.15665665
255	0xbe21c377	-0.1579722

hiddens.3.bias f4 [64]
0	0xbd8b544b	-0.06803187
1	0xbd3a2d05	-0.04545309
2	0xbd9a6e6c	-0.075405926
3	0xbd2944fa	-0.041325547
4	0xbdcb8fb0	-0.099395156
5	0xbd936974	-0.07197848
6	0xbdeab877	-0.11460965
7	0x3b3a4c47	0.0028426812
8	0x3ddf1463	0.1089256
9	0xbde200b1	-0.11035288
10	0xba9aa3e0	-0.0011798106
11	0x3db26cdf	0.08712172
12	0x3cbcd6a1	0.023051562
13	0xbd40e990	-0.047097743
14	0x3da1b647	0.07896095
15	0x3d342af3	0.043986272
16	0x3cf9fe21	0.030516686
17	0xbc2301ed	-0.00994919
18	0xbd69d689	-0.057089362
19	0xbd72c43a	-0.059269167
20	0x3c59e65c	0.013299551
21	0xbdb489ac	-0.08815321
22	0x3de971a0	0.113986254
23	0xbd435d38	-0.047696322
24	0x3d6f2dc3	0.05839325
25	0xbd0f0768	-0.034919173
26	0x3dd633ae	0.10459076
27	0x3b8b05a1	0.0042426144
28	0x3e00ccf8	0.1257819
29	0x3d6f0cb4	0.058361724
30	0xbd9f834f	-0.07788717
31	0x3beed0f2	0.007288092
32	0x3d079dc7	0.033109453
33	0x3d5ce3ff	0.05392837
34	0x3d7214e7	0.059101965
35	0xbdb10479	-0.08643431
36	0xbc19f9c0	-0.009397924
37	0x3d5c8414	0.053836897
38	0xbc885c31	-0.016645523
39	0x3dcc5313	0.09976783
40	0x3d67e104	0.056611076
41	0x3cf03213	0.029320752
42	0xbdadeb26	-0.08492117
43	0x3d08841c	0.033329114
44	0x3d713203	0.058885586
45	0x3dcded66	0.10055046
46	0x3db68963	0.08912923
47	0x3c8887c7	0.016666306
48	0x3bd4f697	0.0064991224
49	0x3d397ca8	0.045284897
50	0x3c88fe02	0.016722683
51	0x3bcb0a54	0.0061962996
52	0xbd672ec5	-0.056441087
53	0x3d1061ce	0.035249524
54	0xbd4e7923	-0.050408494
55	0x3db11db9	0.08648247
56	0x3d80d788	0.06291109
57	0x3d1ada9d	0.037806142
58	0x3d2548a9	0.040352497
59	0x3d409fd0	0.04702741
60	0xbdb58a6c	-0.088642925
61	0xbdcc8834	-0.09986916
62	0xbdc5f1cd	-0.096652605
63	0x3b83fc29	0.0040278626

output_layer.weight f4 [1, 64]
0	0xbdc7a4f2	-0.09748258
1	0xbde56daf	-0.11202561
2	0xbda75616	-0.081707165
3	0xbd40552f	-0.046956237
4	0x3d8e8c71	0.06960381
5	0xbdfaa65d	-0.122387625
6	0xbe14cbad	-0.14530821
7	0xbddad075	-0.10684291
8	0x3dd43967	0.10362511
9	0x3c0ea676	0.00870668
10	0xbe166ba0	-0.14689493
11	0x3d494f80	0.049148083
12	0x3e1f5fd5	0.15563901
13	0x3e014c67	0.12626801
14	0xbdc4deef	-0.09612834
15	0x3d9b3980	0.07579327
16	0x3d333385	0.043750305
17	0xbd2ed47b	-0.042683106
18	0xbd8d961f	-0.06913399
19	0x3dd2da43	0.10295536
20	0xbdc17d19	-0.094476886
21	0xbe13b8d4	-0.14425975
22	0xbdae5222	-0.08511759
23	0xbd0a6aae	-0.033793144
24	0x3c98b059	0.018638777
25	0x3d892ab4	0.06697598
26	0xbc8d7ee7	-0.017272426
27	0xbd832102	-0.0640278
28	0xbded13ca	-0.1157604
29	0x3d625b5a	0.0552629
30	0xbdbcb149	-0.09213502
31	0xbe0d0339	-0.1377076
32	0x3d8235bc	0.06357905
33	0x3d005d41	0.031338934
34	0xbdf8dbd2	-0.121513024
35	0x3e0e6de2	0.13909104
36	0xbc4fd6b4	-0.012685467
37	0xbda6503b	-0.081207715
38	0x3d4907d1	0.04907972
39	0x3cbd8fe7	0.023139907
40	0x3dcbcd80	0.099513054
41	0xbdb8457f	-0.0899763
42	0x3decec09	0.11568458
43	0xbd952f90	-0.072844625
44	0x3debe9ea	0.11519225
45	0xbd8249a5	-0.06361703
46	0xbe0c3a28	-0.1369406
47	0x3d65cb8a	0.056102313
48	0xbce3b5f5	-0.027796725
49	0xbd7e5213	-0.06208999
50	0xbdc67b3c	-0.09691474
51	0x3d35bb21	0.044367913
52	0xbd9483e3	-0.07251718
53	0x3dd15e57	0.10223072
54	0xbb31393a	-0.0027042166
55	0x3d1eb174	0.03874345
56	0xbdd65a56	-0.10466449
57	0xbdca6fe3	-0.09884622
58	0x3dc88732	0.097914115
59	0xbd790034	-0.06079121
60	0xbd2624f0	-0.04056257
61	0xbdac0406	-0.08399205
62	0x3c6883ff	0.014191627
63	0xbe135d99	-0.14391173
