python_skeleton/ai/large.pt (torch, 110047 bytes, 3 tensors)

input_layer.weight f4 [256, 104]
0	0xbd303f0d	-0.04302888
1	0x3bb09900	0.005389333
2	0xbd32fb12	-0.04369647
3	0x3d593d4d	0.053036977
4	0xbd97fa95	-0.074208416
5	0x3d8eae9e	0.06966899
6	0x3c8d6cf3	0.017263865
7	0x3bbc207a	0.005741176
8	0x3d02a114	0.031891897
9	0xbdc8d14e	-0.09805547
10	0xbd26a8d8	-0.040688366
11	0x3d7ba191	0.06143338
12	0xbdd5c988	-0.1043883
13	0x3de4fa68	0.11180574
14	0xbdf48ed1	-0.119413026
15	0xbd8b5a77	-0.06804364
16	0x3e1f97cc	0.1558525
17	0xbd5a3f23	-0.053282868
18	0x3ddf94b8	0.10917038
19	0x3da9e3a7	0.08295374
20	0xbc948010	-0.018127471
21	0x3b986145	0.0046502673
22	0x3cccc7f3	0.024997687
23	0x3c8d92ca	0.017281909
24	0x3da0efe6	0.07858257
25	0x3e26b20a	0.16278854
26	0x3e49c732	0.19704893
27	0x3da39ca8	0.07988864
28	0xbbdd9384	-0.00676197
29	0x3e1019c8	0.14072335
30	0x3e48dd7f	0.19615744
31	0xbaf11958	-0.0018394394
32	0x3d499ace	0.0492199
33	0x3db1de5c	0.0868499
34	0xbc2347b2	-0.009965824
35	0xbd3bd9e9	-0.045862112
36	0x3d851207	0.06497579
37	0xbd8c018c	-0.068362325
38	0x3d91a395	0.07111279
39	0xbcff260b	-0.03114607
40	0xbdc0d433	-0.09415474
41	0x3ba85b4b	0.005137836
42	0xbc6b26d0	-0.014352515
43	0x3ba77a4d	0.005111015
44	0xbe09e316	-0.13465533
45	0xbcb2b1da	-0.021813322
46	0xbd742b50	-0.05961162
47	0x3c364618	0.01112511
48	0xbe8917f9	-0.26776102
49	0xbd9c7710	-0.07639897
50	0xbcc6efd0	-0.024284273
51	0xbdcea9e0	-0.10090995
52	0xbde92401	-0.1138382
53	0xbdea7cfb	-0.114496194
54	0xbd989e01	-0.07452012
55	0xbda64d84	-0.08120254
56	0xbe9782ec	-0.29592073
57	0xbe1fa468	-0.1559006
58	0xbd54b23e	-0.051927797
59	0xbdebab85	-0.11507324
60	0xbe632607	-0.22182475
61	0xbe22bb64	-0.15891796
62	0xbd95b4d2	-0.07309879
63	0xbdf01553	-0.11722817
64	0xbe7a31db	-0.24433081
65	0xbe229274	-0.1587618
66	0xbda915bb	-0.08256098
67	0xbd91fc34	-0.07128182
68	0xbe6b409d	-0.22973867
69	0xbdd4331c	-0.10361311
70	0xbe42c341	-0.19019796
71	0xbe012025	-0.12609918
72	0xbd9ea5c2	-0.077464595
73	0xbd270e38	-0.040785044
74	0xbdcc97b5	-0.09989873
75	0xbd182633	-0.037145805
76	0x3ba25a37	0.004954602
77	0x3e7d0049	0.2470714
78	0x3c722ac5	0.014780705
79	0x3cf72c88	0.030172601
80	0x3e6bab2a	0.23014513
81	0x3e0c40c0	0.13696575
82	0x3e85f790	0.26165438
83	0x3e11db32	0.14243773
84	0x3cde9a6a	0.02717324
85	0x3e29effd	0.16595455
86	0xbce1005a	-0.027465988
87	0x3e287dda	0.16454259
88	0xbcb28dd6	-0.021796148
89	0x3e713b24	0.23557717
90	0x3daa6121	0.08319307
91	0x3d9d6ede	0.07687162
92	0x3b06fe20	0.0020598248
93	0x3e2a893b	0.16653912
94	0x3dbc309a	0.091889575
95	0xbc9f987c	-0.01948189
96	0x3db3b407	0.08774572
97	0x3bf47013	0.0074596494
98	0x3deadc41	0.11467791
99	0x3e31b0c4	0.17352587
100	0xbe2b3213	-0.1671832
101	0xbdc12c66	-0.094322965
102	0xbd842f58	-0.064543426
103	0x3a754d19	0.0009357497
104	0x3d1cb070	0.0382542
105	0xbd2e474a	-0.042548455
106	0xbd2f306c	-0.042770788
107	0xbd227584	-0.039662853
108	0xbda764d4	-0.08173528
109	0xbdc44823	-0.095840715
110	0xbcb330b4	-0.02187381
111	0xbd8832ae	-0.066502914
112	0x3c866bd9	0.016408848
113	0xbde6eb97	-0.11275404
114	0xbc9c4109	-0.01907398
115	0x3ac599a6	0.0015075698
116	0x3ac2cb58	0.0014861627
117	0xbd707622	-0.05870641
118	0xbe29aba3	-0.1656938
119	0xbe0cc308	-0.13746274
120	0xbe2ab5ac	-0.16670865
121	0xbe35ac71	-0.17741562
122	0x3da7e6ec	0.08198342
123	0xbd2d19e4	-0.04226102
124	0xbc32ba3b	-0.010908659
125	0xbd1043ff	-0.035221096
126	0xbe1a96a8	-0.15096533
127	0xbd6285f6	-0.055303536
128	0xbc3d6cdc	-0.011561599
129	0x3d3a849b	0.04553662
130	0xbe6b2b7b	-0.22965805
131	0xbd9702f8	-0.07373613
132	0x3cb540c3	0.022125607
133	0xbd84ed8c	-0.06490621
134	0xbe0f4301	-0.13990404
135	0xbde97cb3	-0.114007376
136	0x3ca52fab	0.020164331
137	0x3b2c5007	0.0026292817
138	0x3d561a97	0.05227145
139	0xbdbfeef0	-0.093717456
140	0xbd18a8cd	-0.037270356
141	0xbdc815de	-0.09769796
142	0x3db88e91	0.090115674
143	0xbcbfe8ad	-0.023426378
144	0x3debb0c3	0.11508324
145	0x3dbb23e8	0.09137708
146	0x3ce4fdb8	0.027953014
147	0xbcad0f43	-0.021125441
148	0x3dddea53	0.108357094
149	0x3daa19f9	0.08305735
150	0x3d8c4cf8	0.06850618
151	0x3d0b9981	0.03408194
152	0x3e19ee61	0.1503234
153	0x3cffc56e	0.031222071
154	0x3d36d37d	0.044635285
155	0x3c58dbbf	0.013235985
156	0xbd5dbc4b	-0.05413465
157	0x3d40bb3a	0.047053553
158	0xbd2fcd52	-0.042920418
159	0x3db75671	0.08952034
160	0xbd152eed	-0.036421705
161	0x3d552181	0.052033905
162	0x3dd1bfea	0.10241683
163	0xbdad2a87	-0.08455377
164	0xbcb3d9cc	-0.02195444
165	0xbde6a8d5	-0.11262671
166	0xbdd58e0d	-0.10427485
167	0x3c27a856	0.0102330055
168	0xbddeb6f4	-0.10874739
169	0x3d16cbef	0.03681558
170	0xbe17bcd5	-0.14818127
171	0xbd80132c	-0.06253657
172	0xbd0bb923	-0.034112107
173	0xbdec2e40	-0.11532259
174	0xbdb6bcea	-0.08922751
175	0x3c224da8	0.00990621
176	0x3d1b701d	0.037948716
177	0xbe092d57	-0.13396202
178	0x3d5e29be	0.054239027
179	0x3cd0b2b6	0.025475841
180	0xbdcbf8d0	-0.099595666
181	0xbe04bd95	-0.12962945
182	0xbcceceda	-0.025245119
183	0xbe209e8d	-0.15685482
184	0xbded24ca	-0.115792826
185	0xbc238e3c	-0.009982642
186	0x3d51d520	0.051228642
187	0xbde331c2	-0.11093475
188	0xbd874a9f	-0.0660603
189	0xbda4b707	-0.08042722
190	0xbd9f06e7	-0.077649884
191	0x3d3177d0	0.043327153
192	0x3d25cfb5	0.040481288
193	0xbcd2fbbf	-0.025754808
194	0x3e0e898e	0.1391966
195	0x3d843fe5	0.064574994
196	0x3d242398	0.040073007
197	0x3e71c80d	0.2361147
198	0x3dbcf486	0.09226327
199	0x3e3c67a1	0.18398906
200	0x3e02c7c1	0.12771513
201	0x3e37936b	0.17927329
202	0x3dd9c413	0.10633101
203	0x3bd58b46	0.006516847
204	0x3e3cd615	0.18441041
205	0x3d9c3a69	0.07628328
206	0x3e99b2e9	0.3001931
207	0x3b846d28	0.0040413328
208	0xbdb9cca3	-0.090722345
209	0x3dc2ac8e	0.095055684
210	0xbc102717	-0.008798382
211	0xbe1eb19b	-0.15497439
212	0xbe1b9bd2	-0.1519616
213	0xbd008c57	-0.03138384
214	0xbd61a2b0	-0.05508679
215	0xbd1f1ae3	-0.038844
216	0xbda3ad4a	-0.07992037
217	0xbda44a6f	-0.080220096
218	0xbca1254f	-0.01967111
219	0xbcd892a8	-0.026437119
220	0xbd90026b	-0.07031711
221	0xbdbcaa9c	-0.09212229
222	0xbdc9daaa	-0.0985616
223	0xbe1e34f0	-0.15449882
224	0xbddbe490	-0.10736954
225	0xbd99f260	-0.075169325
226	0xbdf96157	-0.12176769
227	0xbdac07e9	-0.08399946
228	0xbda85b14	-0.08220497
229	0xbd9361c9	-0.071963854
230	0xbca510ea	-0.020149667
231	0xbd5da294	-0.054110125
232	0xbd3296d6	-0.04360088
233	0xbd429afc	-0.047511086
234	0xbdfb9283	-0.12283804
235	0xbbde01d4	-0.0067751203
236	0xbdb3affe	-0.08773802
237	0xbddf54e8	-0.109048665
238	0xbde0400b	-0.10949715
239	0x3d307445	0.043079633
240	0xbd345de7	-0.044034865
241	0xbd2a6d63	-0.041608226
242	0x3c1fd1e0	0.009754628
243	0x3a91f26e	0.0011134872
244	0xbbb80609	-0.005615954
245	0x3ca135f3	0.019679045
246	0x3d9c9399	0.076453395
247	0xbaf571d7	-0.0018725944
248	0x3d8dddf0	0.06927097
249	0xbd7e39ee	-0.062066965
250	0x3de5cb16	0.11220376
251	0x3cfde4ca	0.030992884
252	0xbd61f6c4	-0.055166975
253	0x3cd442f9	0.025910841
254	0x3da727f2	0.08161916
255	0x3c1ebac3	0.009688082

input_layer.bias f4 [256]
0	0xbce5b2f4	-0.028039433
1	0xbbba4923	-0.005684988
2	0xbe1e1c35	-0.15440448
3	0xbcb801a0	-0.022461712
4	0x3d074fdb	0.03303514
5	0x3d960a6e	0.07326208
6	0xbde9c3fb	-0.114143334
7	0xbd7de595	-0.061986525
8	0x3d01d117	0.031693544
9	0x3def3097	0.1167919
10	0x3d33ec76	0.04392668
11	0xbd39ed92	-0.04539258
12	0x3d360965	0.044442553
13	0x3c071ed8	0.0082471
14	0xbdfff7bf	-0.12498426
15	0x3d747c00	0.059688568
16	0xbe1f5988	-0.15561497
17	0xbe5b7aec	-0.2143361
18	0xbe2569b6	-0.16153607
19	0xbc1f32c1	-0.0097166905
20	0xbda6e75f	-0.08149599
21	0xbdb7eef9	-0.08981127
22	0xbe0418c3	-0.12900071
23	0x3d707ad2	0.05871088
24	0xbdcda25f	-0.100407355
25	0xbd297a06	-0.041376136
26	0xbc359ac1	-0.0110842595
27	0xbd9ac34e	-0.07556783
28	0xbdd90618	-0.105968654
29	0x3cb682e7	0.022279216
30	0xbccd72a8	-0.025079086
31	0xbe0dddf1	-0.13854195
32	0xbd09b409	-0.03361896
33	0x3e160af6	0.14652619
34	0xbd8a2e00	-0.06747055
35	0xbdd22e95	-0.10262791
36	0x3d52f0ac	0.051499054
37	0xbe6379a4	-0.22214371
38	0xbd15aab8	-0.036539763
39	0xbd7bd52a	-0.061482586
40	0xbe08e0ac	-0.13366956
41	0x3d648596	0.05579146
42	0xbce003bb	-0.027345529
43	0x3cb89e8c	0.022536539
44	0xbdf189e2	-0.11793877
45	0xbc9d75dc	-0.019221239
46	0xbe173e70	-0.14769912
47	0xbc2e6731	-0.01064472
48	0x3cd4a3c4	0.025956996
49	0xbbd0bf3c	-0.006370453
50	0xbd9567f8	-0.07295221
51	0x3cbf9c43	0.023389941
52	0xbdaa83cd	-0.0832592
53	0xbe43fb2a	-0.1913878
54	0xbd181cd1	-0.037136856
55	0x3d5d2af0	0.053996027
56	0x3d265471	0.040607873
57	0x3ccc64a0	0.024950325
58	0x3de2f58c	0.110819906
59	0xbb2444ff	-0.002506554
60	0xbd04b530	-0.032399356
61	0xbc948228	-0.01812847
62	0xbd1172ed	-0.035509992
63	0xbd894ac0	-0.067037106
64	0x3dd693de	0.10477422
65	0x3cd8559b	0.026408007
66	0x3d953010	0.07284558
67	0xbc009ce4	-0.007849906
68	0xbde129a4	-0.109942704
69	0xbcd26393	-0.025682246
70	0xbd974d22	-0.07387759
71	0x3c1b284a	0.009470055
72	0xbd9a5d71	-0.07537354
73	0xbc644558	-0.013932548
74	0xbdf68203	-0.120365165
75	0xbcc895d7	-0.024485512
76	0x3c63103f	0.013858854
77	0xbe1067e2	-0.14102128
78	0xbd4f8585	-0.050664444
79	0xbbf17040	-0.0073681176
80	0xba81145a	-0.0009847984
81	0x3da836d8	0.082135856
82	0xbd257373	-0.040393304
83	0x3c6a59b8	0.014303617
84	0xbe171ce4	-0.14757115
85	0xbe537a33	-0.20652084
86	0xbdf2924f	-0.118443124
87	0x3c24e4c9	0.010064312
88	0x3d50fcf7	0.051022496
89	0x3c92bd75	0.017912606
90	0xbd4574c0	-0.048207045
91	0x3c0f6370	0.008751735
92	0xbda7bd5a	-0.08190413
93	0x3df3fab3	0.119130515
94	0xbddf0048	-0.108887255
95	0x3db434c5	0.087991275
96	0xbd203187	-0.039109733
97	0x3d01514a	0.031571664
98	0xbd883b07	-0.066518836
99	0x3da40681	0.08009053
100	0x3c3cc761	0.011522145
101	0xbbbe7e03	-0.0058133616
102	0xbe0437cd	-0.12911911
103	0xbcd36f60	-0.025809944
104	0xbe37365f	-0.17891835
105	0x3e000ac9	0.12504114
106	0xbd171a5a	-0.036890365
107	0xbd4b08f4	-0.049569085
108	0xbcd0c2ae	-0.025483456
109	0x3c749654	0.014928419
110	0xbe252fd2	-0.16131523
111	0x3cf49e35	0.029860595
112	0xbdff9215	-0.12479035
113	0x3dbbf527	0.091776185
114	0xbd179e0a	-0.037015952
115	0xbc81dd33	-0.015852546
116	0xbd0cd293	-0.034380507
117	0x3c5dff02	0.013549568
118	0xbc93f51d	-0.018061215
119	0xbda56ef3	-0.080778025
120	0x3ca55b34	0.02018509
121	0x3db7b939	0.08970875
122	0x3ce896bd	0.02839219
123	0x3d2fbe61	0.04290617
124	0xbd90df12	-0.07073797
125	0x3d978549	0.07398469
126	0x3dafd4d7	0.08585518
127	0x3d1c6a10	0.038187087
128	0xbd52ab4c	-0.051432893
129	0xbdbd578d	-0.092452146
130	0xbcde4413	-0.02713207
131	0xbd7f23f2	-0.06229014
132	0xbd09b75b	-0.033622127
133	0xbcfed9bb	-0.031109681
134	0xbcf972a5	-0.030450175
135	0x3d18e9a9	0.03733221
136	0x3c5e6403	0.013573649
137	0xbc25aebe	-0.010112463
138	0xbe087fc7	-0.13329993
139	0xbd7e6a4c	-0.06211309
140	0xbdd0549a	-0.101723865
141	0x3c04fcdc	0.008116927
142	0xbc4138e8	-0.011793353
143	0xbd1467db	-0.036231857
144	0xbd636464	-0.05551566
145	0xbcc1d0ec	-0.023659192
146	0xbdc0dd9c	-0.09417269
147	0x3c5d5d79	0.013511055
148	0x3d87bf1b	0.06628247
149	0x3d9e977d	0.07743738
150	0x3db10cae	0.086449966
151	0x3bc0d4a2	0.005884723
152	0xbcb09be7	-0.021558715
153	0xbda0e1dc	-0.07855579
154	0x3cd9b0d9	0.026573585
155	0xbd142fa0	-0.03617823
156	0x3cfa973c	0.030589692
157	0xbccb3196	-0.024803918
158	0xbdbd0cbf	-0.09230947
159	0xbe1f1f36	-0.1553925
160	0xbe03139a	-0.12800446
161	0x3e1eb1e4	0.15497547
162	0xbd73c298	-0.05951175
163	0xbdd431cc	-0.103610605
164	0x3b9224b6	0.0044599427
165	0x3c586871	0.0132084945
166	0x3d853c12	0.06505598
167	0xbcf046f5	-0.02933071
168	0xbdc1c457	-0.09461277
169	0xbde11dad	-0.10991988
170	0x3da7302e	0.081634864
171	0xbd5ada54	-0.05343087
172	0xbc5f3b81	-0.013625027
173	0x3b991902	0.0046721706
174	0x3d776e3f	0.060407873
175	0x3e07bade	0.13254878
176	0xbc5e7845	-0.013578479
177	0xbd607137	-0.05479547
178	0xbe43a780	-0.19106865
179	0xbcb05eb8	-0.02152954
180	0x3cbe4fbc	0.02323138
181	0xbd9b34ba	-0.07578416
182	0xbd32f44f	-0.043690022
183	0x3d96197d	0.0732908
184	0x3d94c357	0.072638206
185	0xbba8576a	-0.0051373737
186	0x3cc9e8ff	0.024647234
187	0xbcf5bba7	-0.029996706
188	0xbde0428e	-0.10950194
189	0x3dd8cf2f	0.10586392
190	0x3df94c99	0.12172813
191	0xbae794c1	-0.0017668233
192	0x3cfca8d7	0.030842228
193	0xbdfb75b5	-0.1227831
194	0x3e453396	0.1925796
195	0xbdfb2142	-0.12262203
196	0xbe7bb353	-0.24580126
197	0x3ca5dfe1	0.020248355
198	0xbdafde1e	-0.08587287
199	0x3cb369c3	0.021901017
200	0xbc028ed3	-0.007968622
201	0x3daca4a8	0.08429843
202	0xbd4f5fac	-0.05062835
203	0x3b4dc5f0	0.0031398498
204	0xbd6a8b37	-0.057261672
205	0xbd4c3cc2	-0.04986263
206	0x3d6036b9	0.054739688
207	0xbd7a2de6	-0.06107893
208	0xbd9b0691	-0.07569612
209	0x3dac8b6d	0.08425031
210	0x3d3fd0ab	0.04682986
211	0xbbb8ea0a	-0.005643134
212	0xbd4f9b44	-0.050685182
213	0xbe05ec72	-0.13078478
214	0x3d577751	0.052604023
215	0xbdb84587	-0.08997636
216	0xbda2d027	-0.07949858
217	0xbc8caa4a	-0.017171044
218	0xbe0b5d1b	-0.13609736
219	0xbc7f54f7	-0.015584222
220	0x3daa1abb	0.0830588
221	0xbdee2ba6	-0.11629419
222	0x3d5d475d	0.054023135
223	0xbdce9998	-0.100878894
224	0xbd1d6e1e	-0.038435094
225	0xbd24ec61	-0.04026449
226	0xbda46764	-0.08027533
227	0xbddbf81b	-0.10740682
228	0xbd8a48be	-0.06752156
229	0xbd374095	-0.044739325
230	0x3db11dc1	0.08648253
231	0xbd929b18	-0.07158488
232	0xbd841e03	-0.06451037
233	0xbda8edd5	-0.08248488
234	0xbc91f129	-0.01781519
235	0xbe0fe43c	-0.14051908
236	0x3cdc6633	0.026904201
237	0xba99ec9a	-0.0011743486
238	0xbdd8e153	-0.10589852
239	0xbd2b477c	-0.04181622
240	0x3d2d6bd9	0.04233918
241	0x3c72a81e	0.01481059
242	0xbbfd1b5a	-0.007724208
243	0x3c7cc17c	0.01542699
244	0xbd060a9e	-0.03272497
245	0xbdc94b09	-0.09828765
246	0xbe241618	-0.16024053
247	0xbd7fe8cf	-0.062477883
248	0x3dc66b03	0.096883796
249	0xbcd9e136	-0.026596647
250	0x3e23d087	0.15997516
251	0x3dcdcee9	0.100492306
252	0xbc8b0de1	-0.016974391
253	0x3db87d08	0.09008223
254	0xbd3f4b8d	-0.04670291
255	0xbdc25523	-0.09488895

output_layer.weight f4 [1, 256]
0	0x3d7c8ba7	0.06165662
1	0xbc386d93	-0.011256593
2	0xbdb04e3f	-0.08608674
3	0xbda7b7df	-0.081893675
4	0x3d4fca10	0.05072981
5	0xbcd0ead1	-0.025502594
6	0x3dc2c4e3	0.095102094
7	0xbd042a69	-0.032267008
8	0xbdb37d7e	-0.0876417
9	0xbe119781	-0.1421795
10	0x3cce47c0	0.025180697
11	0x3db8ef11	0.09029973
12	0x3d1129bd	0.035440195
13	0x3ce897d4	0.02839271
14	0x3d1a0992	0.037606783
15	0xbb930acf	-0.0044873725
16	0x3e5d7770	0.21627593
17	0x3da3857c	0.079844445
18	0xbcf97d2c	-0.030455194
19	0xbb83019a	-0.0039979937
20	0xbd48d0e8	-0.049027354
21	0xbd92ae84	-0.071621925
22	0xbad9382d	-0.0016572528
23	0xbde595b9	-0.11210198
24	0x3cb8a782	0.022540811
25	0x3cfa70d9	0.030571388
26	0x3c742618	0.01490166
27	0x3cdf6127	0.027268006
28	0xbe18de78	-0.14928615
29	0x3abd63bc	0.0014449279
30	0x3ce1463b	0.027499309
31	0xbecdb103	-0.40174112
32	0xbc96cab7	-0.018407209
33	0xbd1cb05c	-0.038254127
34	0x3ad72be5	0.001641628
35	0xbd9c5942	-0.07634212
36	0x3c3bf514	0.011472005
37	0xbc804159	-0.01565616
38	0x3d0504c1	0.032475237
39	0xbd88d9b9	-0.06682152
40	0x3e10d47d	0.14143558
41	0x3db332df	0.08749937
42	0xbd8737a3	-0.06602409
43	0x3c22f3fe	0.009945868
44	0xbd9c3d31	-0.07628859
45	0xbd88aaaa	-0.066731766
46	0x3bca9c14	0.0061831567
47	0x3c7ccb51	0.015429334
48	0x3dc5413d	0.09631584
49	0xbc22e72f	-0.009942814
50	0xbbc1903b	-0.005907086
51	0x3d6637ba	0.05620549
52	0x3d9606b9	0.07325501
53	0xbd81b70f	-0.06333744
54	0x3d57ae7b	0.052656632
55	0xbdd30919	-0.103044696
56	0x3dd9cb2c	0.10634455
57	0xbdaa3f93	-0.08312907
58	0x3d9e0051	0.07714904
59	0x3d2165f6	0.03940388
60	0xbccc8e83	-0.024970299
61	0xbd0568cd	-0.03257065
62	0xbd946962	-0.07246663
63	0x3b3cc9c5	0.0028806787
64	0xbe381db1	-0.17980076
65	0xbd86f39d	-0.06589434
66	0x3c459eb4	0.012061764
67	0x3c85ce50	0.016333729
68	0x3b199d9c	0.002343989
69	0xbba939ca	-0.0051643597
70	0xbd2c5bff	-0.04207992
71	0xbc2fc3a7	-0.0107277995
72	0x3d055152	0.032548256
73	0xbc897eef	-0.01678416
74	0xbd29aab5	-0.041422565
75	0x3d82e76e	0.06391798
76	0x3e05d1e2	0.13068345
77	0xbce18c5e	-0.027532753
78	0xbd8344e7	-0.064096265
79	0x3bdae961	0.006680653
80	0xbd4f6a8c	-0.05063872
81	0xbc2c1e33	-0.010505247
82	0x3d2a6135	0.04159661
83	0xbd98cf7a	-0.07461448
84	0x3c458d4e	0.012057615
85	0xbc853150	-0.016258866
86	0x3dfee2a8	0.12445575
87	0x3d31cab0	0.04340619
88	0x3da09b85	0.07842163
89	0xbcc3ff7b	-0.023925534
90	0xbbac3ce8	-0.005256284
91	0x3d722113	0.059113573
92	0x3c9a0575	0.01880143
93	0xbac11bea	-0.001473305
94	0xbcb75a12	-0.022381816
95	0xbd541a2b	-0.05178277
96	0xbd0d5f97	-0.03451499
97	0x3d80e7be	0.06294201
98	0xbb970c9b	-0.004609657
99	0x3ca209f7	0.019780142
100	0x3d1d7da2	0.03844989
101	0xbc2fcf89	-0.010730633
102	0x3b7e1fac	0.0038776202
103	0xbccb029d	-0.02478152
104	0xbc32668f	-0.01088871
105	0x3daff298	0.08591193
106	0x3d6e2cd4	0.05814822
107	0xbd738e13	-0.059461664
108	0xbd42392e	-0.047417812
109	0xbd447743	-0.0479653
110	0xbd3b703a	-0.045761324
111	0xbc766d92	-0.015040772
112	0xbc083017	-0.008312247
113	0xbd402851	-0.04691345
114	0x3d06fbfd	0.03295516
115	0xbcee500d	-0.029090906
116	0xbd318e92	-0.043348856
117	0xbd16f146	-0.03685119
118	0xbc897b96	-0.016782563
119	0x3d65ea04	0.056131378
120	0x3bd0d8cd	0.006373501
121	0x3cba3003	0.022727972
122	0x3b3c6f5f	0.0028752906
123	0xbd1412e3	-0.036150824
124	0xbd93e851	-0.07222045
125	0x3cab7867	0.020931436
126	0x3cf3027d	0.029664272
127	0xbd9a1ec6	-0.07525401
128	0x3dae9b28	0.085256875
129	0x3cb634b2	0.022241924
130	0x3cf01bfd	0.02931022
131	0x3d6e7523	0.05821718
132	0x387783c4	5.9012105e-05
133	0x3d1aabdd	0.037761558
134	0xbd34d299	-0.044146154
135	0xbb8b3eb9	-0.0042494205
136	0xbdcd7e3b	-0.10033842
137	0xbd94511c	-0.07242033
138	0xbd93fcf9	-0.07225985
139	0xbaef9614	-0.001827898
140	0x3c432c02	0.011912348
141	0x3d8b7a01	0.0681038
142	0x3d3f3246	0.046678804
143	0x3df596eb	0.11991676
144	0xbce019f5	-0.027356127
145	0xbd2ea140	-0.04263425
146	0x3e4e460f	0.20143913
147	0xbbc32c0a	-0.0059561776
148	0x3d00067e	0.03125619
149	0xbd6c6155	-0.05771001
150	0x3c5d876c	0.013521057
151	0x3cd1b9d0	0.025601298
152	0xbe98debb	-0.2985743
153	0x3d66cba3	0.056346547
154	0xbc755abc	-0.014975246
155	0x3e612a53	0.21988802
156	0x3e2e8c3e	0.17045686
157	0xbdc5527e	-0.09634875
158	0x3df07296	0.117406055
159	0xbd2ecc60	-0.042675376
160	0xbb618b39	-0.0034415259
161	0x3d4487ab	0.047980946
162	0x3d3a9d14	0.045559958
163	0xbd28fd0d	-0.041256953
164	0x3b89055f	0.0041815485
165	0x3e474720	0.19460726
166	0xbe1b2877	-0.15152155
167	0xbc6e1db7	-0.014533452
168	0x3c50d75c	0.012746658
169	0xbcfbca06	-0.03073598
170	0xbcef4a9f	-0.029210387
171	0x3da60571	0.081065066
172	0xbd845114	-0.06460777
173	0x3d1e1960	0.03859842
174	0x3d3cd3ad	0.046100307
175	0x3d0dc7f4	0.03461452
176	0x3c885ae2	0.016644899
177	0xbd845d31	-0.06463087
178	0xbd350604	-0.04419519
179	0x3e629190	0.2212584
180	0xbc45ac79	-0.0120650465
181	0xbc281ec7	-0.010261244
182	0xbda2e47b	-0.079537354
183	0xbda28cea	-0.079370335
184	0xbb874217	-0.0041277516
185	0x3bba5c43	0.005687268
186	0x3d7136ae	0.058890037
187	0xbe66eeb8	-0.22552001
188	0x3e256d23	0.16154914
189	0xbd7dd455	-0.061970074
190	0x3d531ce6	0.05154123
191	0xbd4fe29d	-0.050753225
192	0xbc12884b	-0.008943628
193	0x3e06e309	0.13172545
194	0xbdc03ee4	-0.093869954
195	0x3d8572f9	0.0651607
196	0x3de05b65	0.10954932
197	0xbdf73f23	-0.12072589
198	0xbca39913	-0.019970452
199	0x3db46412	0.088081494
200	0xbd454ce5	-0.048169035
201	0xbb55c8a8	-0.003262082
202	0xbce90343	-0.028443938
203	0xbd8b54f9	-0.068033166
204	0xbdf94557	-0.12171429
205	0x3db81e8a	0.089902
206	0xbd1d6677	-0.038427796
207	0x3c9e39c1	0.019314649
208	0x3d931373	0.07181444
209	0xbe765d11	-0.2405894
210	0xbce90aa9	-0.028447466
211	0x3d9e7d22	0.07738711
212	0x3d9a8105	0.0754414
213	0x3cb27e69	0.021788793
214	0xbc4046b7	-0.01173561
215	0xbd8f8925	-0.0700858
216	0x3c7747f7	0.015092841
217	0x3c81c8ae	0.015842762
218	0xbc958a6c	-0.018254481
219	0x3c2ec5a9	0.010667243
220	0xbda8fa62	-0.08250882
221	0x3eef6d52	0.46763092
222	0x381835e5	3.6289817e-05
223	0xbd4d7779	-0.050162766
224	0xbe17af2e	-0.1481292
225	0xbdcd3714	-0.10020271
226	0x3c8fa37f	0.017534016
227	0x3c51d363	0.012806746
228	0xbe180c00	-0.14848328
229	0xbe0ad8c3	-0.1355925
230	0xbda9e9fa	-0.082965806
231	0x3db2ff03	0.08740046
232	0xbd8b4bbb	-0.06801554
233	0xb9904684	-0.0002751836
234	0xbc6f33a9	-0.014599719
235	0x3d3a933e	0.045550577
236	0x3d6f783c	0.058464274
237	0x3c3e8215	0.011627694
238	0xbda6254e	-0.08112584
239	0xbc7a85dd	-0.015290705
240	0xbd5f884c	-0.054573342
241	0xbbab3677	-0.0052249986
242	0xbd04f548	-0.03246048
243	0x3ce7dd4e	0.028303768
244	0xbc2172e6	-0.009854054
245	0x3d0fcb27	0.03510585
246	0xbd798b1f	-0.06092369
247	0xbcad0b9a	-0.021123696
248	0xbba2793c	-0.0049583
249	0xbcca857c	-0.024721853
250	0x3d1b2ff9	0.037887547
251	0xbcdfe2e9	-0.027329879
252	0x3d3cb136	0.04606744
253	0x3b7b734f	0.003836829
254	0x3c93e515	0.01805357
255	0x3c9c883c	0.01910793
