python_skeleton/ai/small.pt (torch, 97153 bytes, 11 tensors)

input_layer.weight f4 [64, 104]
-0.11414555 -0.0022440623 0.08111742 -0.016059961 0.05226938 0.07384843 -0.106497616 0.0077213626
0.118173726 -0.08094974 -0.0074361223 0.042476844 0.0010237043 -0.009715852 -0.029982654 -0.041536137
-0.033586994 0.01180404 -0.005950845 -0.0020458456 -0.056571007 -0.038555995 0.048240367 0.0211843
-0.029459955 0.038361184 -0.10169521 0.002733382 0.022594005 0.09379482 -0.06343265 0.031425253
-0.07059102 0.024029862 -0.039920166 -0.07030077 0.09496219 -0.09751828 -0.009414048 -0.030351559
0.054528985 -0.04823727 -0.028283672 0.08874936 0.09754037 0.063469134 -0.03011198 -0.067581184
-0.05296682 0.06426559 -0.039113 -0.01828875 0.0825 0.11808685 0.13557787 0.05941419
0.08731416 0.043974854 -0.033782203 -0.045653567 -0.061478373 -0.0044381134 -0.021436099 -0.008214042
0.036265977 -0.06038708 0.060630552 -0.054522373 0.06886297 -0.028624263 0.028823864 0.015803168
-0.0015853774 0.045900393 0.059234045 -0.0063922843 0.02573795 0.055905093 -0.0660128 -0.05988205
-0.047536373 0.011964612 -0.05598231 -0.111584984 0.015514524 0.057827346 0.08950252 0.066658296
0.047796022 -0.07760733 -0.035723854 0.055984247 0.016541144 -0.108728305 -0.12775828 0.056320548
-0.037247527 -0.058046322 -0.010807617 -0.034343116 0.0055004647 -0.11675022 -0.12848344 -0.04797305
0.09374272 0.022297338 -0.011478473 0.033093214 -0.07621026 -0.012918758 0.13250811 0.008444583
0.17491561 0.041742124 0.009318851 0.042979218 0.076753184 0.021004843 -0.005124223 -0.015091028
0.10883318 0.023942355 0.030330425 -0.0068773017 0.110227905 -0.035151724 -0.08433217 0.0074652554
0.029317454 0.0782732 -0.00785746 -0.030252894 0.010807684 0.05215247 -0.04542477 0.07366292
0.022848925 0.0080449935 -0.0721167 -0.05747941 -0.051242158 0.011410875 0.035754174 -0.01417583
-0.13317977 -0.11705226 0.016503155 -0.13509014 -0.05375378 0.021589959 0.027882842 0.01787982
-0.10799196 0.025601758 -0.10614719 -0.08446781 0.00047252938 0.10744946 0.039707355 0.012922487
0.01802804 -0.08654936 0.055551358 0.031229343 0.040386308 -0.012430016 0.051093806 0.118925795
0.07611238 -0.048252746 0.024600264 0.015578312 0.08388495 0.039318077 -0.026416654 0.04982405
-0.0601815 -0.009057986 -0.02301092 -0.10116689 0.059308834 0.076415904 -0.079431295 -0.09389146
-0.0072274054 -0.025150666 -0.117456384 -0.10260464 0.028565748 -0.096212536 0.047343582 -0.027701078
-0.04837466 -0.087307684 -0.07047984 -0.11091783 0.058475085 0.12139198 0.007890413 0.10251781
-0.075622074 -0.06547156 -0.025968365 -0.13714772 -0.12659757 0.03835955 0.026587285 -0.085907176
-0.13636282 0.07799245 0.044495407 0.061237648 0.07355776 0.011114669 -0.02538911 -0.0222244
0.10958076 -0.01848718 0.018040119 0.06255406 0.06358594 0.014165411 -0.044945683 0.05797885
0.016167918 0.017817814 -0.0011982648 0.14843808 0.0060766223 -0.051312644 0.086358 0.0430593
0.07390728 -0.09074544 -0.047655102 -0.007601975 0.0131045375 0.08997738 0.027237203 -0.009340089
-0.08859848 0.034644995 0.059507735 0.07467681 -0.06756143 -0.07612863 -0.049110282 0.048708312
-0.069705054 -0.08144041 0.05747099 0.040734053 -0.006545807 -0.05278797 -0.12821683 -0.116770715
00000000: 24c5 e9bd 1e11 13bb e420 a63d 2e90 83bc
00000010: 6b18 563d d83d 973d 6c1b dabd 7c03 fd3b
00000020: 1105 f23d fac8 a5bd b7aa f3bb 33fc 2d3d
00000030: d12d 863a 3d2f 1fbc 2f9e f5bc cc21 2abd
00000040: 8492 09bd bb65 413c 4eff c2bb 9813 06bb
00000050: 00b7 67bd e4ec 1dbd b197 453d b28a ad3c
00000060: 0156 f1bc 9e20 1d3d 9445 d0bd 8a22 333b
00000070: 1017 b93c 8017 c03d fae8 81bd c4b7 003d
00000080: 0692 90bd 46da c43c 5483 23bd daf9 8fbd
00000090: 897b c23d aab7 c7bd 613d 1abc d5a3 f8bc
000000a0: c959 5f3d 7294 45bd 29b3 e7bc 39c2 b53d
000000b0: 3fc3 c73d 1bfc 813d 66ad f6bc 0168 8abd
000000c0: bcf3 58bd ad9d 833d f434 20bd 4ad2 95bc
000000d0: c3f5 a83d 85d7 f13d edd4 0a3e 4b5c 733d
000000e0: c4d1 b23d fa1e 343d 355f 0abd 3cff 3abd
000000f0: bfd0 7bbd 986d 91bb c29a afbc 3094 06bc
00000100: a28b 143d 7158 77bd be57 783d da52 5fbd
00000110: 0708 8d3d 6e7d eabc 0620 ec3c a575 813c
00000120: 70cc cfba 0d02 3c3d 669f 723d 5e76 d1bb
00000130: 65d8 d23c bdfc 643d b831 87bd e146 75bd
00000140: 80b5 42bd 3807 443c b54d 65bd ab86 e4bd
00000150: a130 7e3c 5edc 6c3d 194d b73d 2584 883d
00000160: c3c5 433d 98f0 9ebd 2d53 12bd bd4f 653d
00000170: 4b81 873c f2ac debd 11d3 02be 60b0 663d
00000180: dd90 18bd fbc1 6dbd 6e12 31bc 5eab 0cbd
00000190: 3e3d b43b bd1a efbd 2a91 03be 647f 44bd
000001a0: 2ffc bf3d e8a8 b63c 3510 3cbc c08c 073d
000001b0: 2014 9cbd 33a9 53bc 35b0 073e 265b 0a3c
000001c0: 141d 333e caf9 2a3d 18ae 183c fa0a 303d
000001d0: c630 9d3d 5912 ac3c 19e9 a7bb 5c40 77bc
000001e0: eee3 de3d c222 c43c 8377 f83c fd5a e1bb
000001f0: 2bbf e13d 41fb 0fbd 58b6 acbd 1a9f f43b
00000200: 282b f03c b34d a03d 93bc 00bc ebd4 f7bc
00000210: b612 313c d49d 553d 530f 3abd 96dc 963d
00000220: ab2d bb3c 26cf 033c ecb1 93bd 886f 6bbd
00000230: 4ce3 51bd aef4 3a3c f872 123d be41 68bc
00000240: 4760 08be 18b9 efbd a031 873c 1255 0abe
00000250: ec2c 5cbd 6ddd b03c 8f6a e43c b378 923c
00000260: e42a ddbd c7ba d13c b363 d9bd 76fd acbd
00000270: d2bd f739 760e dc3d 2ea4 223d d7b8 533c
00000280: 8aaf 933c ca40 b1bd d289 633d aed4 ff3c
00000290: 1d6c 253d 44a7 4bbc bd47 513d 5e8f f33d
000002a0: cfe0 9b3d aca4 45bd 7e86 c93c 2d3c 7f3c
000002b0: dfcb ab3d fe0b 213d bd67 d8bc 4e14 4c3d
000002c0: e080 76bd f267 14bc 6681 bcbc 9630 cfbd
000002d0: d2ed 723d f17f 9c3d e0ac a2bd 2a4a c0bd
000002e0: dfd3 ecbb c508 cebc f98c f0bd 6222 d2bd
000002f0: b702 ea3c 140b c5bd 58eb 413d 5fed e2bc
00000300: 8224 46bd 5fce b2bd bc57 90bd e328 e3bd
00000310: 9283 6f3d 5c9c f83d ca46 013c dcf4 d13d
00000320: bfdf 9abd f415 86bd 9cbb d4bc 7470 0cbe
00000330: cba2 01be e71e 1d3d 94cd d93c 1af0 afbd
00000340: b2a2 0bbe 81ba 9f3d d140 363d 54d4 7a3d
00000350: 73a5 963d 4d1a 363c d3fc cfbc f20f b6bc
00000360: e16b e03d 6d72 97bc dfc8 933c 581c 803d
00000370: 5839 823d 0a16 683c f718 38bd 3b7b 6d3d
00000380: 9572 843c aaf6 913c 180f 9dba 2700 183e
00000390: 671e c73b 352d 52bd 77dc b03d f35e 303d
000003a0: b35c 973d bfd8 b9bd ff31 43bd fd19 f9bb
000003b0: 6ab4 563c 1046 b83d 8e20 df3c 2c07 19bc
000003c0: 1f73 b5bd e9e7 0d3d 62be 733d 28f0 983d
000003d0: a65d 8abd 54e9 9bbd dd27 49bd 5e82 473d
000003e0: 86c1 8ebd 3bca a6bd b366 6b3d c0d8 263d
000003f0: 357e d6bb 3338 58bd 464b 03be 7c25 efbd

input_layer.bias f4 [64]
-0.03186271 -0.006403375 0.04162075 -0.10083828 -0.08013542 -0.04085632 -0.044036385 0.00832826
0.063304454 0.083643496 -0.07860614 0.009634798 -0.054322433 0.019398415 0.059326988 0.05862373
-0.02962543 -0.013733703 0.070753574 -0.07297919 -0.088531174 0.08450757 0.08551258 -0.021297047
0.03503317 -0.040288247 0.07801609 0.013824037 -0.005490609 -0.07459238 -0.04944068 -0.09915551
-0.015349888 0.058687463 0.020089282 0.008830512 -0.026355768 -0.056794252 -0.026283177 -0.060044743
-0.026220348 0.0033267315 -0.0033064177 -0.038903195 -0.034016244 0.009935528 0.06766237 -0.052528884
-0.041549746 0.055927623 -0.0882134 0.07004701 0.07705727 -0.044703484 0.045635536 -0.10324894
-0.07793206 0.04640504 0.04855281 0.026899423 0.044986058 0.074291214 0.018658891 -0.05324639
00000000: 7982 02bd 67d3 d1bb 857a 2a3d 4d84 cebd
00000010: 0a1e a4bd f558 27bd 7f5f 34bd 4173 083c
00000020: c4a5 813d 484d ab3d 42fc a0bd 46db 1d3c
00000030: 3381 5ebd 6de9 9e3c db00 733d 701f 703d
00000040: 08b1 f2bc 5303 61bc 40e7 903d 1d76 95bd
00000050: d54f b5bd 4e12 ad3d 3821 af3d 2577 aebc
00000060: f17e 0f3d 4a05 25bd e6c6 9f3d 377e 623c
00000070: 91ea b3bb e4c3 98bd 4f82 4abd 0b12 cbbd
00000080: 197e 7bbc 4462 703d 4792 a43c daad 103c
00000090: 0de8 d7bc 17a1 68bd d14f d7bc 7af1 75bd
000000a0: 0ecc d6bc 4b05 5a3b 7cb0 58bb f558 1fbd
000000b0: 9e54 0bbd a0c8 223c 9292 8a3d 8728 57bd
000000c0: 1130 2abd 5d14 653d 3aa9 b4bd cf74 8f3d
000000d0: 34d0 9d3d 001b 37bd 54ec 3a3d 2e74 d3bd
000000e0: d89a 9fbd 3613 3e3d 50df 463d 2e5c dc3c
000000f0: 4d43 383d fe25 983d 88da 983c e318 5abd

hiddens.0.weight f4 [64, 64]
-0.07933598 0.027770923 0.09720524 0.06452346 0.0021930265 0.069311254 0.027667813 -0.12522317
0.0066606263 -0.11436297 0.08017272 -0.048385426 -0.13010561 -0.15877204 -0.12454144 -0.029544352
-0.039733272 0.12533303 0.03928921 -0.074802734 -0.015809705 0.057229023 -0.054738283 0.18163912
0.023004971 0.0714713 -0.0929695 0.09907067 -0.057587836 0.113844946 -0.008177725 -0.022443738
0.053002775 -0.0007909594 0.05844756 -0.0018308352 -0.061575167 0.1463278 0.118261054 -0.0075499956
0.115668274 0.05671827 0.01503397 0.051732063 0.019504832 0.07966346 0.0063119335 0.063065745
0.1370229 -0.04954849 0.0036838388 -0.0905632 -0.05794789 -0.123115465 -0.016602146 0.120962106
-0.08094392 -0.093253985 -0.11237583 -0.0854809 -0.04886221 0.0031774177 -0.040234577 0.0081150625
0.13427399 -0.08923533 -0.077511355 0.050518055 0.121762834 0.008476809 0.026554989 -0.14179705
0.08846484 -0.04095657 0.030025436 -0.006749252 -0.07931467 0.083898984 0.028535236 0.0019491296
0.09701319 0.0715329 0.016614478 0.122264996 -0.13701336 0.12093424 0.062156107 0.06832318
0.096455425 -0.028410178 0.0038948273 -0.060085528 -0.14496487 -0.09865754 0.08337091 0.035381585
-0.16947804 -0.023496397 -0.08027369 0.071606256 -0.014369374 0.08642217 0.1469155 0.10092639
-0.17798106 0.012566379 -0.1388246 -0.021521335 -0.008843076 0.05986226 0.13845527 0.12349604
0.054441564 -0.023122426 0.1607827 -0.08058538 -0.07514808 0.18683393 -0.13909341 0.088066995
-0.02974239 -0.021827912 0.05969819 -0.054792028 0.07931533 -0.16916952 -0.010845417 -0.06949588
0.09649851 0.01304435 -0.05653475 0.11693077 0.0808212 0.058707323 0.036232486 -0.0828548
-0.08342371 0.06176058 0.010134157 -0.07343694 0.06174572 -0.040550563 0.01914849 0.1321783
-0.14003052 0.08615341 -0.11437482 -0.14858828 -0.13280028 -0.110282265 0.12878197 -0.057140898
-0.001310529 0.0030458637 0.086176634 0.008361565 -0.034875732 -0.023206428 0.05800385 -0.005466918
0.121407256 -0.09927683 -0.04210333 -0.035017245 -0.044763137 0.09444229 0.07364378 -0.021612221
0.00989509 -0.119441666 0.082564116 0.007329491 0.030777132 -0.03123502 0.063993275 -0.06598687
0.043271095 -0.0060006 0.029550051 0.101829365 0.029739235 0.09679664 0.017752672 -0.13044457
0.09420031 -0.06909562 0.10813302 -0.04578164 -0.097436376 -0.032275535 -0.08667623 -0.09122262
0.088895224 -0.10920831 -0.00023530396 -0.03423761 -0.050553672 0.10468365 -0.0017434218 0.074027814
0.011010961 0.0038642276 0.083177924 0.014353102 -0.000722702 -0.15106902 0.032786295 0.12261332
0.08411848 0.07881678 -0.012095116 0.039688796 -0.04528499 -0.07834055 0.010332227 -0.00039753612
-0.05732536 0.040967092 -0.055674274 0.016097281 -0.005228309 0.030158259 0.16676146 -0.09361749
-0.17398095 -0.1212763 -0.025020031 0.019164484 -0.010598804 0.03856702 -0.030632569 -0.07544127
0.045956705 0.15391214 0.054243844 0.10217647 -0.02865265 0.013277604 -0.13217422 0.08645524
-0.057802744 -0.16663247 -0.01225432 0.051544063 -0.089898035 0.025321366 0.0062359185 0.025950523
0.08265688 0.106446825 -0.12149158 -0.1058039 -0.13116261 -0.1063058 -0.13156909 0.1619041
00000000: e77a a2bd d97f e33c 8a13 c73d e024 843d
00000010: e1b8 0f3b 0ff3 8d3d 9ca7 e23c 813a 00be
00000020: 6241 da3b 2237 eabd 9831 a43d cc2f 46bd
00000030: 683a 05be 2395 22be 950f ffbd ff06 f2bc
00000040: 5bbf 22bd 4d57 003e b9ed 203d 2d32 99bd
00000050: 5b83 81bc fb68 6a3d 4035 60bd 9bff 393e
00000060: ec74 bc3c 8c5f 923d cb66 bebd 90e5 ca3d
00000070: 39e1 6bbd 8a27 e93d ddfb 05bc eedb b7bc
00000080: 7019 593d 6358 4fba b566 6f3d a3f8 efba
00000090: 3e36 7cbd f4d6 153e da32 f23d f465 f7bb
000000a0: 7de3 ec3d 6b51 683d 0a51 763c 00e5 533d
000000b0: 99c8 9f3c 9926 a33d 56d4 ce3b 9d28 813d
000000c0: bb4f 0c3e 5cf3 4abd 8f6c 713b 3379 b9bd
000000d0: c45a 6dbd f623 fcbd 3901 88bc fbba f73d
000000e0: edc5 a5bd f2fb bebd 4d25 e6bd 9c10 afbd
000000f0: be23 48bd 393c 503b 03cd 24bd 0af5 043c
00000100: 1f7f 093e 03c1 b6bd 46be 9ebd 05ec 4e3d
00000110: cb5e f93d 50e2 0a3c d989 d93c 3f33 11be
00000120: 0e2d b53d 14c2 27bd e7f7 f53c d428 ddbb
00000130: bb6f a2bd 3bd3 ab3d bac2 e93c f079 ff3a
00000140: daae c63d d77f 923d 161b 883c 1266 fa3d
00000150: 3b4d 0cbe 5fac f73d 6797 7e3d 06ed 8b3d
00000160: 6c8a c53d 76bc e8bc 5c40 7f3b 3e1c 76bd
00000170: ac71 14be f70c cabd 5ebe aa3d 48ec 103d
00000180: a78b 2dbe 847b c0bc 8866 a4bd 4da6 923d
00000190: 866d 6bbc 1bfe b03d 0471 163e 7fb2 ce3d
000001a0: ab40 36be 37e3 4d3c 0928 0ebe 834d b0bc
000001b0: 8de2 10bc 2132 753d 38c7 0d3e 7eeb fc3d
000001c0: 1efe 5e3d 3e6b bdbc 38a4 243e f309 a5bd
000001d0: 3de7 99bd 6551 3f3e 816e 0ebe 785c b43d
000001e0: 50a6 f3bc 73d0 b2bc 1786 743d 9b6d 60bd
000001f0: 1370 a23d c63a 2dbe fab0 31bc db53 8ebd
00000200: 03a1 c53d f8b7 553c fb90 67bd 6679 ef3d
00000210: 9685 a53d 1777 703d 8468 143d c7af a9bd
00000220: 0dda aabd a9f8 7c3d bc09 263c 1b66 96bd
00000230: 15e9 7c3d 5918 26bd 4bdd 9c3c c059 073e
00000240: 2964 0fbe 3371 b03d 583d eabd 8727 18be
00000250: ccfc 07be abdb e1bd 6cdf 033e 930c 6abd
00000260: 0ec6 abba 1d9d 473b 607d b03d f2fe 083c
00000270: dbd9 0ebd 681b bebc 7295 6d3d d523 b3bb
00000280: 5ea4 f83d a751 cbbd 8b74 2cbd 3e6e 0fbd
00000290: 8d59 37bd f66a c13d 8dd2 963d 1d0c b1bc
000002a0: 041f 223c d59d f4bd 6017 a93d 3a2c f03b
000002b0: 5320 fc3c 96e0 ffbc e80e 833d 2024 87bd
000002c0: 083d 313d aea0 c4bb f312 f23c ea8b d03d
000002d0: b29f f33c 513d c63d 0d6e 913c 4393 05be
000002e0: 18ec c03d 0182 8dbd d874 dd3d 8785 3bbd
000002f0: b98c c7bd 5a33 04bd 4f83 b1bd edd2 babd
00000300: b30e b63d 9ba8 dfbd edbb 76b9 bc3c 0cbd
00000310: 5e11 4fbd 6264 d63d 8783 e4ba e59b 973d
00000320: 5167 343c fb3e 7d3b 3059 aa3d 4629 6b3c
00000330: b673 3dba d6b1 1abe ec4a 063d b11c fb3d
00000340: 4f46 ac3d b16a a13d 982a 46bc b890 223d
00000350: c17c 39bd 0371 a0bd 8048 293c 656c d0b9
00000360: ffcd 6abd 1ccd 273d b50a 64bd 72de 833c
00000370: 3c52 abbb 740e f73c 84c3 2a3e 87ba bfbd
00000380: 1028 32be b55f f8bd cff6 ccbc d6fe 9c3c
00000390: 9ba6 2dbc 74f8 1d3d 27f1 fabc f480 9abd
000003a0: 193d 3c3d 259b 1d3e cb2e 5e3d e641 d13d
000003b0: f6b8 eabc 4f8a 593c ae58 07be 720f b13d
000003c0: 92c2 6cbd b4a1 2abe 58c6 48bc de1f 533d
000003d0: 761c b8bd c16e cf3c ad56 cc3b 3196 d43c
000003e0: 0348 a93d cb00 da3d 94d0 f8bd b7af d8bd
000003f0: 7e4f 06be dbb6 d9bd 0cba 06be 30ca 253e

hiddens.0.bias f4 [64]
-0.07401265 -0.035645068 0.055818874 -0.027997056 0.05153436 -0.003816267 0.0598383 -0.059750155
0.0059170625 0.06552383 -0.03089514 -0.025305135 -0.06966832 -0.040830556 0.028196761 0.040998638
-0.065531135 0.04497285 -0.06627526 0.0047846143 0.12429911 0.035873953 -0.025957158 -0.0065729516
-0.0569845 0.009033325 -0.12257197 0.0731469 -0.06965922 -0.097467504 -0.07789847 0.09434648
-0.06265132 0.07716219 0.013666984 -0.07540575 0.05710362 -0.0086787995 -0.09370488 0.056146123
-0.0883455 0.038884334 -0.037281454 0.0381134 -0.08796317 -0.00086882024 0.09274129 0.10302801
0.07541116 0.12121006 0.032900915 -0.07648722 -0.04259019 -0.123318434 -0.034087867 -0.08377341
-0.098254815 0.05109766 -0.065258786 0.08442994 0.0036669085 0.08479518 0.029403824 0.025542937
00000000: f293 97bd 9000 12bd 55a2 643d 155a e5bc
00000010: b115 533d 561a 7abb 0119 753d 94bc 74bd
00000020: ebe3 c13b 5c31 863d ce17 fdbc b74c cfbc
00000030: 44ae 8ebd f13d 27bd e5fc e63c 30ee 273d
00000040: 3035 86bd 7335 383d 53bb 87bd 41c8 9c3b
00000050: 8890 fe3d 91f0 123d 1ba4 d4bc ea61 d7bb
00000060: 9468 69bd 8300 143c 0307 fbbd 0bce 953d
00000070: 7ea9 8ebd 0b9d c7bd 3c89 9fbd ba38 c13d
00000080: 564f 80bd 3607 9e3d 7ceb 5f3c 546e 9abd
00000090: 7ce5 693d 8631 0ebc 58e8 bfbd 7af9 653d
000000a0: 7cee b4bd 2e45 1f3d 70b4 18bd cc1c 1c3d
000000b0: 0926 b4bd 8ac1 63ba 25ef bd3d 5900 d33d
000000c0: 2b71 9a3d fb3c f83d 1cc3 063d 55a5 9cbd
000000d0: 0d73 2ebd 608e fcbd b89f 0bbd 6591 abbd
000000e0: d239 c9bd c84b 513d 66a6 85bd 9be9 ac3d
000000f0: 8450 703b 18a9 ad3d 4ae0 f03c 6c3f d13c

hiddens.1.weight f4 [64, 64]
0.115378335 0.11077616 0.08995333 -0.08788857 -0.02472169 -0.06467252 -0.0593031 0.09656535
-0.057555955 -0.08591168 -0.047695905 0.049802672 0.06948859 0.09394461 0.02229219 0.031225493
-0.031529833 -0.0035354774 -0.08094969 -0.08089808 -0.0649814 -0.12440138 0.0128498105 -0.07389548
0.007904965 -0.14465758 0.17832185 -0.096662216 0.007932802 -0.06365974 0.1981329 -0.0046583083
-0.12542847 -0.10875226 -0.13560712 0.0944141 0.10222099 0.062122054 0.15824525 0.006584823
-0.017878948 0.06968728 0.022271011 0.032989047 -0.017497001 -0.016067764 0.028389096 -0.031655464
-0.056538142 0.019935831 -0.15751824 -0.024245715 -0.025569074 0.123407476 0.044683646 -0.07808678
0.07834644 -0.080173545 0.08276036 0.09198261 -0.14507668 0.054975193 0.15207557 -0.06643323
0.09143506 -0.1539978 -0.102237985 0.010812014 0.08436907 0.021646617 0.08842481 0.07268802
-0.19250657 -0.23693044 -0.17151347 -0.14371386 0.028975725 -0.109497525 -0.08832791 0.0015779468
0.057007648 0.08851086 0.1423929 0.016730541 0.09521023 -0.06655593 -0.023581097 0.08888422
-0.13546152 -0.11772874 -0.15192872 0.015259894 -0.14142184 -0.042575426 -0.078383334 0.096856855
-0.1858134 0.16160814 0.07195685 -0.11686948 0.00093067106 -0.20438258 0.036730792 -0.01674832
0.097625375 0.004984268 -0.05802003 -0.26464906 0.0472483 0.14974645 -0.11584816 -0.119016364
-0.01308359 0.18402734 -0.1536901 -0.02417139 0.10964162 -0.21665564 -0.11554461 -0.09917222
-0.07431626 0.019276565 0.05575877 -0.08447256 0.2574529 0.0038610257 -0.0699365 0.10384368
0.0058861393 0.024959156 -0.091548875 0.097804815 -0.010522488 0.009945233 0.14050655 0.10248685
0.12826529 -0.033431478 0.056070015 0.14223072 -0.053686123 0.029234234 0.11399044 0.11248666
0.042385776 -0.07122786 -0.0041428152 0.018627925 -0.02060582 -0.00921674 0.09030732 -0.11179983
0.14325011 0.116042726 -0.014293157 -0.1366242 -0.015826022 -0.14947425 -0.09874972 -0.0055484776
-0.10561662 -0.04555022 -0.12858112 -0.052792422 -0.09745124 0.083443806 -0.058074787 -0.10281617
-0.023054674 -0.0097619025 0.14616424 0.035745136 -0.10170393 0.01767676 -0.077345304 0.10752543
0.017184861 -0.1530649 -0.032453474 -0.020514775 0.02747101 0.09471904 0.1741522 -0.029749347
0.15463243 0.08884263 0.033485625 0.09628746 -0.19891106 0.013431553 0.101880394 0.13159633
-0.0034078746 0.065548606 0.05134876 -0.06371807 -0.018903883 -0.13584962 -0.04632786 0.06655741
0.0059314556 0.13976173 -0.005530208 0.106875315 0.15126881 0.16308722 0.14836578 0.03234341
-0.11882133 -0.08177737 -0.04086814 0.020370767 -0.063884646 -0.09700309 -0.026160004 -0.17765234
0.059680216 0.016698407 0.049679134 -0.15047166 -0.08204013 -0.00906937 0.039006867 -0.010748165
0.060594354 -0.012946381 -0.08476919 -0.068484694 -0.059608288 -0.052329414 -0.0729526 -0.11843714
0.051066358 0.07939955 0.013046649 -0.043412372 -0.049815714 -0.04187916 0.006831297 0.020959051
-0.047413565 0.0031340595 0.14253004 0.0076889773 0.03590891 0.11020807 0.16214398 0.006779128
0.14493865 0.082463145 0.06408308 0.09896046 -0.20991671 0.024523992 -0.06363302 -0.02507696
00000000: 7a4b ec3d 9dde e23d 7439 b83d ecfe b3bd
00000010: 2485 cabc 0773 84bd cfe7 72bd 0ec4 c53d
00000020: cbbf 6bbd 76f2 afbd c85c 43bd e3fd 4b3d
00000030: 0950 8e3d 0866 c03d 1c9e b63c 9bcc ff3c
00000040: 6d25 01bd 78b3 67bb f3c8 a5bd e4ad a5bd
00000050: f814 85bd 27c6 febd 0388 523c 8356 97bd
00000060: d483 013c 1e21 14be 019a 363e d7f6 c5bd
00000070: 95f8 013c 0a60 82bd 5ae3 4a3e b9a4 98bb
00000080: 5270 00be 81b9 debd 98dc 0abe 2e5c c13d
00000090: 3d59 d13d b273 7e3d 0b0b 223e 80c5 d73b
000000a0: df76 92bc 34b8 8e3d b271 b63c 861f 073d
000000b0: df55 8fbc 8ba0 83bc 4090 e83c 29a9 01bd
000000c0: 8a94 67bd 7850 a33c 764c 21be f39e c6bc
000000d0: 3c76 d1bc 0fbd fc3d 3306 373d f6eb 9fbd
000000e0: 1974 a03d 0732 a4bd 437e a93d 6161 bc3d
000000f0: fb8e 14be ab2d 613d b3b9 1b3e 250e 88bd
00000100: 4e42 bb3d 99b1 1dbe 2662 d1bd e024 313c
00000110: b1c9 ac3d 3f54 b13c 1118 b53d 75dd 943d
00000120: 7120 45be e59d 72be 3aa1 2fbe ba29 13be
00000130: 805e ed3c 3d40 e0bd 43e5 b4bd 1cd3 ce3a
00000140: da80 693d 2f45 b53d 72cf 113e 7d0e 893c
00000150: 95fd c23d 7a4e 88bd 252d c1bc ee08 b63d
00000160: 6db6 0abe c41b f1bd 3493 1bbe a204 7a3c
00000170: e3d0 10be 9263 2ebd 7187 a0bd e35c c63d
00000180: de45 3ebe 9b7c 253e 1d5e 933d 4459 efbd
00000190: 47f8 733a ab49 51be 0773 163d c633 89bc
000001a0: d0ef c73d 1253 a33b 69a6 6dbd 1580 87be
000001b0: 6f87 413d 2257 193e cd41 edbd dabe f3bd
000001c0: 8e5c 56bc aa71 3c3e f060 1dbe 1403 c6bc
000001d0: c98b e03d fada 5dbe a7a2 ecbd ce1a cbbd
000001e0: 2033 98bd e3e9 9d3c 4f63 643d f3ff acbd
000001f0: ded0 833e 4309 7d3b de3a 8fbd ffab d43d
00000200: 84e0 c03b 2577 cc3c fa7d bbbd e44d c83d
00000210: 8366 2cbc 55f1 223c f3e0 0f3e a0e4 d13d
00000220: fa57 033e 72ef 08bd aca9 653d eea4 113e
00000230: fbe5 5bbd a27c ef3c d273 e93d 685f e63d
00000240: b59c 2d3d eadf 91bd 74c0 87bb 9799 983c
00000250: 89cd a8bc cf01 17bc 0bf3 b83d 4ff7 e4bd
00000260: 28b0 123e cfa7 ed3d d82d 6abc 37e7 0bbe
00000270: 93a5 81bc c70f 19be 4b3d cabd 01d0 b5bb
00000280: 874d d8bd de92 3abd c5aa 03be de3c 58bd
00000290: 8494 c7bd 96e4 aa3d d4df 6dbd 4991 d2bd
000002a0: 28dd bcbc 63f0 1fbc 14ac 153e 7e69 123d
000002b0: 264a d0bd dace 903c 3767 9ebd 4b36 dc3d
000002c0: 44c7 8c3c 0cbd 1cbe efed 04bd 9a0e a8bc
000002d0: e20a e13c 0efc c13d f454 323e e7b4 f3bc
000002e0: f757 1e3e 20f3 b53d 3928 093d 5c32 c53d
000002f0: 57af 4bbe 0410 5c3c aba6 d03d 30c1 063e
00000300: a656 5fbb 593e 863d 1453 523d 9f7e 82bd
00000310: 51dc 9abc 2a1c 0bbe 48c2 3dbd 404f 883d
00000320: a85c c23b b31d 0f3e bf36 b5bb 72e1 da3d
00000330: 36e6 1a3e 5600 273e 33ed 173e 867a 043d
00000340: 9958 f3bd e57a a7bd 5a65 27bd 98e0 a63c
00000350: f4d5 82bd 8ea9 c6bd 814d d6bc 7fea 35be
00000360: 3e73 743d 19cb 883c 597c 4b3d 3e15 1abe
00000370: a804 a8bd b297 14bc aac5 1f3d 1219 30bc
00000380: c931 783d 0f1d 54bc 789b adbd b441 8cbd
00000390: d227 74bd 5e57 56bd 2c68 95bd 2c8f f2bd
000003a0: f52a 513d 3b9c a23d 9dc1 553c 2cd1 31bd
000003b0: 900b 4cbd 7b89 2bbd 13d9 df3b 51b2 ab3c
000003c0: ba34 42bd cb64 4d3b 65f3 113e d1f3 fb3b
000003d0: 3915 133d c5b4 e13d 1209 263e 7323 de3b
000003e0: cc6a 143e 70e2 a83d fd3d 833d c8ab ca3d
000003f0: 68f4 56be 8ae6 c83c 0752 82bd 326e cdbc

hiddens.1.bias f4 [64]
0.038169365 0.0054787192 0.023486886 0.08377329 -0.04967148 -0.047165666 0.058385033 -0.082737625
0.033695847 -0.029474609 0.092802316 0.029815847 0.03238483 -0.038345166 -0.0008950238 -0.03664036
0.02721384 0.078105964 0.0911213 -0.06843887 0.09811404 -0.03277811 0.05434305 -0.055706948
-0.03608148 0.0077869636 -0.027125945 0.07805253 -0.05125285 0.096538916 -0.01615245 0.10342175
0.07308596 0.068314634 0.07965169 -0.025645219 0.015533997 0.05352711 -0.06443677 -0.07727155
-0.0460467 0.028393824 -0.03810087 0.051716294 0.011003957 0.033277825 0.00819117 -0.05411459
0.08109929 -0.093321726 0.020803118 0.019536242 -0.11037043 0.091115996 0.07217535 -0.10777681
-0.05881589 0.020521255 -0.06705623 -0.103476845 0.04676396 0.03987956 0.017205307 0.09653693
00000000: 7b57 1c3d d486 b33b 9267 c03c 5591 ab3d
00000010: 5274 4bbd c930 41bd 2525 6f3d 5872 a9bd
00000020: a804 0a3d bc74 f1bc 240f be3d 5d40 f43c
00000030: f5a5 043d d20f 1dbd 08a0 6aba 3414 16bd
00000040: 8fef de3c 05f6 9f3d ce9d ba3d ae29 8cbd
00000050: 04f0 c83d 5742 06bd d196 5e3d f82c 64bd
00000060: 2dca 13bd c929 ff3b 3b37 debc 01da 9f3d
00000070: 82ee 51bd 32b6 c53d 2552 84bc c8ce d33d
00000080: 17ae 953d 8be8 8b3d 6d20 a33d ec15 d2bc
00000090: 4e82 7e3c 3e3f 5b3d 6df7 83bd 8c40 9ebd
000000a0: 779b 3cbd 2a9a e83c a80f 1cbd 77d4 533d
000000b0: f149 343c 544e 083d 4234 063c 43a7 5dbd
000000c0: 6217 a63d 761f bfbd 4d6b aa3c 780a a03c
000000d0: e409 e2bd 069b ba3d abd0 933d 17ba dcbd
000000e0: eee8 70bd 311c a83c c754 89bd abeb d3bd
000000f0: 918b 3f3d c058 233d 25f2 8c3c 27b5 c53d

hiddens.2.weight f4 [64, 64]
-0.041233648 0.044230003 -0.042633697 -0.018903702 -0.08693176 -0.012631571 0.08333337 0.10556002
-0.022572912 -0.069938816 0.016408263 0.07919118 0.041677814 0.053524066 -0.03243737 -0.10412284
-0.11369656 0.06576045 -0.048895374 0.019862074 0.020782696 -0.11401192 0.0581104 0.046943974
0.06269463 0.0067687593 -0.05395392 0.040465686 0.036321413 -0.019157544 0.14417222 -0.0030641458
-0.08062796 0.019237911 0.07984725 -0.027432533 0.009169163 0.07462572 -0.054687694 0.0016150578
-0.07923698 0.16317354 0.12523398 -0.1936928 0.046702083 -0.07632865 -0.055308923 0.06186525
-0.017413532 -0.09505214 0.10675417 0.17816503 -0.09192221 -0.045263983 -0.11134974 0.08327642
-0.13236104 0.12979066 0.07352346 -0.09902099 0.08042075 -0.15758052 0.023787457 -0.027959112
0.020204328 -0.009161792 0.041056257 0.095527776 -0.05393308 0.047882475 -0.049090248 0.020532882
0.040309533 -0.15013885 -0.022267068 -0.12292063 -0.08586796 0.02553069 -0.09949391 0.11841735
-0.117616855 -0.1160009 0.10125656 0.10776978 0.03505676 -0.045296278 -0.008916519 0.09528587
-0.03509701 0.100694425 -0.02214803 -0.08976621 -0.07075238 -0.042752914 -0.1812697 0.054881465
0.038567808 0.006643239 -0.028228745 -0.080132954 -0.01793337 0.044929225 0.0650681 -0.097950816
0.13696203 -0.03830795 0.082557485 0.14120443 -0.07467415 -0.063008204 -0.10135143 -0.03663194
0.14595227 0.053601705 -0.14835526 -0.014120932 0.1484331 -0.056025505 -0.016121306 0.020819696
-0.07966203 -0.070302896 -0.10973192 0.14371847 0.13446602 0.15407276 0.03829918 0.10499355
-0.07343787 0.090827376 0.07552842 0.08327841 0.034626983 -0.044382192 0.17261784 0.13088521
-0.10488203 -0.037321348 -0.09736436 0.06218226 0.01819021 0.027980024 0.0770779 0.030648805
0.056087796 0.10752268 -0.084412396 0.12076578 0.11692976 0.111220114 -0.0691168 0.049585585
-0.07194374 -0.03113817 0.09243987 -0.085291915 -0.08913811 0.0258805 -0.05783839 0.006293892
0.00080875366 -0.04480804 -0.05183599 -0.023375379 0.14270243 -0.0003061908 0.042615823 -0.0018052948
-0.104353 0.045361012 0.09862654 0.09235623 0.092770085 0.098012574 -0.08107984 -0.08721344
-0.061970122 0.0015156567 0.021928687 0.0689549 0.1051716 0.021712448 0.11220117 0.011530999
-0.063798115 0.06142818 0.08617225 0.013435465 0.120182715 0.09433324 0.14635208 -0.13906051
0.0044923816 -0.12026755 0.086291395 0.049624342 -0.030735118 0.050448302 -0.096820116 -0.0051847342
-0.0031221663 -0.030816464 0.007232284 0.04785553 -0.020956744 0.06737288 -0.10342889 -0.13771442
0.039053626 0.024377113 0.01112176 -0.101744294 -0.020649932 -0.06927612 0.017454209 -0.085120775
-0.12016276 0.06879679 0.048934616 -0.013343281 -0.10846876 -0.0036813004 -0.05253052 -0.08500352
-0.004729929 0.080665044 -0.10203639 -0.023088232 0.06606433 0.018379154 0.033189416 0.105711825
-0.052760005 -0.042720802 -0.027318552 -0.1349656 -0.100743495 -0.09270411 -0.037666928 0.10508135
-0.14495192 -0.009636688 0.10344796 0.020625018 0.008817524 0.06486731 -0.068142615 0.015970463
0.057841975 0.120380186 -0.09674659 -0.1310151 0.012379547 0.036059204 0.026316237 -0.017989052
00000000: 9de4 28bd 852a 353d aca0 2ebd f0db 9abc
00000010: 4709 b2bd a6f4 4ebc b0aa aa3d da2f d83d
00000020: d4ea b8bc 153c 8fbd 9f6a 863c fc2e a23d
00000030: 5bb6 2a3d 0d3c 5b3d 0cdd 04bd 5b3e d5bd
00000040: bed9 e8bd 6aad 863d 8446 48bd cab5 a23c
00000050: 7940 aa3c 157f e9bd 2c05 6e3d 5348 403d
00000060: 0b66 803d 78cc dd3b c9fe 5cbd 59bf 253d
00000070: c3c5 143d 48f0 9cbc e2a1 133e d6cf 48bb
00000080: 4620 a5bd d398 9d3c f486 a33d 31ba e0bc
00000090: 423a 163c 5fd5 983d 3400 60bd 59b0 d33a
000000a0: ff46 a2bd f716 273e 563d 003e 6857 46be
000000b0: af4a 3f3d 3252 9cbd 9c8b 62bd 6b66 7d3d
000000c0: d3a6 8ebc b2aa c2bd eea1 da3d e570 363e
000000d0: b641 bcbd ba66 39bd 550b e4bd d48c aa3d
000000e0: a789 07be d8e7 043e 7893 963d 84cb cabd
000000f0: a2b3 a43d ca5c 21be eadd c23c 820a e5bc
00000100: 8c83 a53c 571b 16bc 9b2a 283d 11a4 c33d
00000110: efe8 5cbd 6a20 443d db12 49bd 9334 a83c
00000120: 9c1b 253d 00be 19be 6d69 b6bc d0bd fbbd
00000130: 8adb afbd bd25 d13c 77c3 cbbd cc84 f23d
00000140: 1be1 f0bd e191 edbd 995f cf3d 67b6 dc3d
00000150: ad97 0f3d 9788 39bd 9716 12bc 3d25 c33d
00000160: e2c1 0fbd e138 ce3d c96f b5bc 59d7 b7bd
00000170: a0e6 90bd ae1d 2fbd c49e 39be 63cb 603d
00000180: 47f9 1d3d 87af d93b f83f e7bc bf1c a4bd
00000190: 01e9 92bc b507 383d 6d42 853d 709a c8bd
000001a0: c63f 0c3e cce8 1cbd e613 a93d e597 103e
000001b0: c3ee 98bd 720a 81bd 5791 cfbd 600b 16bd
000001c0: 8374 153e 768d 5b3d 71ea 17be 7b5b 67bc
000001d0: d9fe 173e 007b 65bd d410 84bc 118e aa3c
000001e0: d925 a3bd f7fa 8fbd 21bb e0bd ef2a 133e
000001f0: 76b1 093e 40c5 1d3e 9adf 1c3d dc06 d73d
00000200: 9866 96bd b403 ba3d a5ae 9a3d df8d aa3d
00000210: 06d5 0d3d 1aca 35bd bbc2 303e c606 063e
00000220: 64cc d6bd 45de 18bd f766 c7bd d3b2 7e3d
00000230: a303 953c 5d36 e53c 05db 9d3d 3413 fb3c
00000240: 51bc 653d da34 dc3d 68e0 acbd 0d54 f73d
00000250: df78 ef3d 5fc7 e33d 1c8d 8dbd 411a 4b3d
00000260: 3d57 93bd 7a15 ffbc 1d51 bd3d 87ad aebd
00000270: 0b8e b6bd 5803 d43c f3e7 6cbd fe3c ce3b
00000280: 8a02 543a a388 37bd fa51 54bd b97d bfbc
00000290: 9620 123e 3c88 a0b9 ee8d 2e3d a49f ecba
000002a0: 07b7 d5bd 78cc 393d b6fc c93d 4325 bd3d
000002b0: 3efe bd3d d1ba c83d 300d a6bd f69c b2bd
000002c0: 62d4 7dbd 00a9 c63a caa3 b33c 3a38 8d3d
000002d0: 3564 d73d 4ede b13c bac9 e53d 84ec 3c3c
000002e0: 96a8 82bd 1e9c 7b3d 147b b03d 6d20 5c3c
000002f0: 5b22 f63d c931 c13d 52dd 153e e165 0ebe
00000300: d434 933b d54e f6bd 8bb9 b03d e542 4b3d
00000310: 37c8 fbbc e1a2 4e3d a049 c6bd b4e4 a9bb
00000320: 429d 4cbb cf72 fcbc ccfc ec3b 2904 443d
00000330: 7aad abbc cbfa 893d 87d2 d3bd 0205 0dbe
00000340: b2f6 1f3d 83b2 c73c 0b38 363c 505f d0bd
00000350: 0c2a a9bc a3e0 8dbd 21fc 8e3c cd53 aebd
00000360: e517 f6bd 55e5 8c3d aa6f 483d c79d 5abc
00000370: df24 debd f941 71bb 3e2a 57bd 5316 aebd
00000380: 85fd 9abb b733 a53d 74f8 d0bd 8823 bdbc
00000390: bc4c 873d e18f 963c a0f1 073d 717f d83d
000003a0: e01a 58bd 02fc 2ebd 28cb dfbc 6c34 0abe
000003b0: 9b52 cebd a7db bdbd a348 1abd e434 d73d
000003c0: 476e 14be 33e3 1dbc 86dc d33d ccf5 a83c
000003d0: 6077 103c 27d9 843d 5b8e 8bbd 7dd4 823c
000003e0: b5eb 6c3d e389 f63d 1423 c6bd d328 06be
000003f0: 95d3 4a3c d1b2 133d 2695 d73c c75d 93bc

hiddens.2.bias f4 [64]
-0.03719532 0.06723899 0.07271912 0.03329557 -0.1110342 -0.03726834 0.05994332 0.09868687
-0.045414537 0.09142101 -0.07405982 0.096221134 -0.08574724 -0.055331632 0.05759313 -0.041131523
-0.010854317 0.097928226 0.074410565 0.0074876253 -0.083283015 0.09500189 -0.067829646 -0.028845293
-0.022375636 0.044558953 0.018507672 -0.020186419 0.08637142 0.12469241 -0.09016637 -0.027559247
0.031441376 -0.08705122 -0.044987284 0.0059533115 -0.043116335 0.108726375 -0.006821639 0.0061028786
-0.01194964 0.036986694 -0.074130565 0.040923327 -0.119967796 -0.09326393 -0.09558513 -0.07305989
0.055355057 -0.04243258 0.07610337 0.0054369713 -0.011544586 -0.09173408 -0.09404178 -0.014867359
0.022915188 0.034050155 0.07671901 -0.038310062 0.034609247 0.06492987 0.11293034 -0.053723324
00000000: 1f5a 18bd 98b4 893d c3ed 943d f060 083d
00000010: e665 e3bd b0a6 18bd 2087 753d 571c ca3d
00000020: 9804 3abd f03a bb3d adac 97bd 960f c53d
00000030: 409c afbd 6ca3 62bd c6e6 6b3d 8779 28bd
00000040: 4ed6 31bc 988e c83d 9164 983d c15a f53b
00000050: 4990 aabd 5a90 c23d 45ea 8abd f74c ecbc
00000060: 1c4d b7bc 7383 363d 679d 973c fd5d a5bc
00000070: 80e3 b03d bc5e ff3d 25a9 b8bd eec3 e1bc
00000080: acc8 003d e947 b2bd 9644 38bd ff13 c33b
00000090: c19a 30bd efab de3d 0e88 dfbb a8fa c73b
000000a0: 6cc8 43bc 5c7f 173d c4d1 97bd 389f 273d
000000b0: adb1 f5bd 2901 bfbd 23c2 c3bd 6ca0 95bd
000000c0: fcbb 623d c9cd 2dbd 15dc 9b3d 9f28 b23b
000000d0: 8125 3dbc 14df bbbd fa98 c0bd 3996 73bc
000000e0: a2b8 bb3c 2d78 0b3d db1e 9d3d 03eb 1cbd
000000f0: 6dc2 0d3d f4f9 843d 0648 e73d fd0c 5cbd

hiddens.3.weight f4 [64, 64]
-0.10156462 -0.013533223 0.027398298 0.010363164 -0.008246062 0.0076973056 0.118668355 0.05762371
-0.15582214 0.06100405 -0.07833034 -0.12005576 -0.06567384 -0.11529689 0.0025137975 0.0124862045
-0.051631723 0.004552447 0.05264715 -0.06274817 -0.11749858 0.039390218 -0.13289244 0.021653704
-0.012763319 0.021043709 -0.031612635 -0.06529483 -0.090607874 -0.03088368 -0.09250301 -0.10423085
-0.09743254 0.1313402 -0.068845026 0.0637271 0.03220835 0.088275455 -0.009413566 0.13638146
-0.08779349 0.12763464 0.12292586 -0.13165374 0.04582368 0.070160694 0.00049104117 0.060455073
-0.07475897 -0.081343986 -0.056049343 0.03448326 -0.050523307 0.012833378 0.07194437 0.013181554
0.101396546 0.089433536 0.07309662 -0.059877127 0.022971096 0.08915875 -0.032124184 -0.064722374
0.07562894 -0.023744624 0.023563765 0.1668467 0.16299823 -0.051435392 0.0035584178 -0.08875233
-0.1447947 -0.02406399 0.015338587 0.019888008 0.0553954 -0.044855863 0.11859416 -0.06911625
0.13282822 0.007115767 -0.043411117 0.015250597 0.11032978 -0.1196287 -0.039837595 0.17561553
-0.073213406 0.009607016 0.11241411 0.0057595223 -0.047295623 0.1304086 0.08933238 0.14157578
-0.1299067 0.088804886 -0.061179314 0.05713645 0.10436861 0.03214184 0.06787948 0.0026899483
0.09080432 -0.06891111 0.21451217 0.039473347 0.19671956 -0.06051443 0.0013553915 -0.114699565
-0.09829328 0.10853183 -0.10104615 0.05364286 -0.003255645 0.0781715 0.015591081 -0.050732125
-0.11729359 -0.13816048 -0.07456897 0.032504123 0.10678841 0.11087165 -0.14753085 0.04742928
-0.13366471 0.047798306 -0.11136353 0.09613386 0.09251676 -0.09344335 0.07225569 -0.0007616531
-0.15006489 -0.08159274 -0.026075093 0.12105696 0.10207915 0.026238967 0.010006063 -0.14068915
0.0646547 0.034482412 -0.08998203 0.10039537 0.077825524 0.11101845 -0.034193236 0.06455303
0.06555694 -0.10294418 -0.104082756 -0.01963049 -0.03538065 0.108837135 0.049198113 -0.054726314
0.0661301 -0.036792435 0.035732172 0.08778187 0.061730094 -0.10526745 -0.0054311184 -0.019035129
-0.08444336 0.028062522 0.07509803 -0.008164382 -0.08372161 0.023219367 -0.103764564 -0.02929752
-0.058083016 -0.02992142 0.07336447 -0.013461501 0.038725518 0.040238526 -0.019980507 -0.08312278
0.097242355 0.014211274 -0.09961529 -0.013865126 0.03202091 -0.019783169 0.07574915 0.0054351357
-0.124345176 -0.06364607 -0.0900174 -0.0765258 -0.030719912 0.0300867 0.04077175 -0.03233837
-0.025101973 -0.08178136 0.0004250535 0.083306886 0.049560245 -0.02582621 -8.57494e-06 -0.037973657
0.100953065 -0.06664755 0.0124780955 0.09709032 -0.0391513 0.035689574 0.00953606 0.0397795
-0.049519625 0.061262734 -0.11868682 -0.06655898 0.13420348 -0.063607216 0.12067113 -0.030581798
0.047095608 0.028692843 -0.024654265 0.08884128 -0.08997128 0.06143002 -0.13036104 -0.086251855
0.04241324 0.082070515 -0.13356167 0.024111954 0.06892284 -0.050300524 -0.07655276 -0.051125403
0.16911855 -0.062316142 0.067400895 0.11592065 -0.044185974 0.0788792 -0.089387916 0.03255969
0.14787191 0.0033627062 0.07690304 -0.06190499 -0.1063438 -0.08384165 0.15710102 -0.1583721
00000000: 1d01 d0bd 74ba 5dbc 6572 e03c 43ca 293c
00000010: 7e1a 07bc ae39 fc3b 6508 f33d d706 6c3d
00000020: d78f 1fbe 62df 793d a86b a0bd cbdf f5bd
00000030: 0280 86bd c720 ecbd 86be 243b f092 4c3c
00000040: c97b 53bd b12c 953b 8aa4 573d 1d82 80bd
00000050: 18a3 f0bd a357 213d f514 08be 1c63 b13c
00000060: 3d1d 51bc db63 ac3c 407c 01bd 4cb9 85bd
00000070: 9f90 b9bd c5ff fcbc 3872 bdbd fc76 d5bd
00000080: b68a c7bd 0c7e 063e 9ffe 8cbd 5b83 823d
00000090: e7ec 033d c3c9 b43d 5c3b 1abc 95a7 0b3e
000000a0: 13cd b3bd a8b2 023e 8ec0 fb3d 3dd0 06be
000000b0: 9cb1 3b3d 69b0 8f3d 37b9 003a bd9f 773d
000000c0: 3b1b 99bd ad97 a6bd ff93 65bd 523e 0d3d
000000d0: 87f1 4ebd 1743 523c 9257 933d 72f7 573c
000000e0: fea8 cf3d ee28 b73d aeb3 953d b841 75bd
000000f0: e12d bc3c dd98 b63d a694 03bd 2a8d 84bd
00000100: 58e3 9a3d 1684 c2bc cc08 c13c dcd9 2a3e
00000110: 02e9 263e ebad 52bd 5834 693b c8c3 b5bd
00000120: 1045 14be d821 c5bc b24e 7b3c 2dec a23c
00000130: 49e6 623d c8ba 37bd 7fe1 f23d d28c 8dbd
00000140: 1f04 083e 612b e93b dbcf 31bd a4dd 793c
00000150: 94f4 e13d e4ff f4bd bf2c 23bd 8fd4 333e
00000160: e9f0 95bd bf66 1d3c 5e39 e63d 60ba bc3b
00000170: 0eb9 41bd d589 053e e5f3 b63d 3ef9 103e
00000180: 4306 05be 56df b53d 2997 7abd e907 6a3d
00000190: 36bf d53d 29a7 033d 6604 8b3d d849 303b
000001a0: 9ef7 b93d 4521 8dbd 14a9 5b3e ceae 213d
000001b0: da70 493e fbdd 77bd 64a7 b13a 9be7 eabd
000001c0: fd4d c9bd f045 de3d 49f1 cebd 9eb8 5b3d
000001d0: a95c 55bb 6118 a03d bc71 7f3c 7dcc 4fbd
000001e0: 9f37 f0bd f179 0dbe 9eb7 98bd 0b23 053d
000001f0: e2b3 da3d ad10 e33d 5412 17be 3445 423d
00000200: 67df 08be 28c8 433d 9012 e4bd d4e1 c43d
00000210: 6d79 bd3d 3a5f bfbd cbfa 933d ada9 47ba
00000220: 9caa 19be 181a a7bd 6f9b d5bc b6ec f73d
00000230: e00e d13d 1af3 d63c 78f0 233c d110 10be
00000240: af69 843d 6e3d 0d3d 8048 b8bd 169c cd3d
00000250: fd62 9f3d a45d e33d 350e 0cbd 6134 843d
00000260: b842 863d 66d4 d2bd 5729 d5bd 1fd0 a0bc
00000270: 4deb 10bd 01e6 de3d f683 493d b328 60bd
00000280: 386f 873d aab3 16bd e65b 123d fbc6 b33d
00000290: b2d8 7c3d 7696 d7bd 86f7 b1bb 8fef 9bbc
000002a0: a4f0 acbd 60e3 e53c ffcc 993d e6c3 05bc
000002b0: 3c76 abbd 8b36 be3c 8482 d4bd 5a01 f0bc
000002c0: 75e8 6dbd c41d f5bc 1c40 963d a18d 5cbc
000002d0: a69e 1e3d 27d1 243d 29ae a3bc 473c aabd
000002e0: 0027 c73d 67d6 683c 1a03 ccbd 8e2a 63bc
000002f0: 5c28 033d 5010 a2bc 5f22 9b3d 3919 b23b
00000300: afa8 febd df58 82bd 0b5b b8bd 8fb9 9cbd
00000310: 53a8 fbbc 6278 f63c 4700 273d 3d75 04bd
00000320: a7a2 cdbc fc7c a7bd b7d9 de39 cd9c aa3d
00000330: afff 4a3d 7d91 d3bc 16dd 0fb7 448a 1bbd
00000340: 7bc0 ce3d 837e 88bd ed70 4c3c 4ad7 c63d
00000350: 1d5d 20bd 3b2f 123d 223d 1c3c d4ef 223d
00000360: 17d5 4abd a2ee 7a3d 1312 f3bd 1350 88bd
00000370: a36c 093e 8044 82bd 6d22 f73d ae86 fabc
00000380: 53e7 403d 410d eb3c bef7 c9bc 6bf2 b53d
00000390: dd42 b8bd 0b9e 7b3d 5d7d 05be d0a4 b0bd
000003a0: 81b9 2d3d 9614 a83d 64c4 08be 6f86 c53c
000003b0: 6b27 8d3d ec07 4ebd b2c7 9cbd df68 51bd
000003c0: 6a2d 2d3e 363f 7fbd 7b09 8a3d ce67 ed3d
000003d0: 5afc 34bd 6b8b a13d 0311 b7bd 4f5d 053d
000003e0: bc6b 173e d960 5c3b 577f 9d3d 1690 7dbd
000003f0: c7ca d9bd 2cb5 abbd 17df 203e 4c2c 22be

hiddens.3.bias f4 [64]
-0.067709655 -0.045201737 -0.075079314 -0.040974546 -0.09970227 -0.07169198 -0.11434714 0.0031816943
0.108591296 -0.11066563 -0.00090327446 0.086756274 0.022761641 -0.04740075 0.07929439 0.04361139
0.030125165 -0.0095819775 -0.056728907 -0.059571084 0.013549629 -0.08781312 0.11428197 -0.04742771
0.05803846 -0.035280187 0.1048771 0.004618304 0.12614962 0.058020737 -0.0775018 0.0076454403
0.032706477 0.05352581 0.05944356 -0.08671277 -0.009089851 0.05412788 -0.017048817 0.09938134
0.05632511 0.029617993 -0.08521357 0.033700075 0.058493532 0.100845695 0.08946658 0.016326934
0.006849109 0.045565106 0.017085103 0.005851426 -0.05613673 0.034930423 -0.050029516 0.086098544
0.063114755 0.03809966 0.039978754 0.047281396 -0.08830712 -0.09956423 -0.09704169 0.0043121735
00000000: 5cab 8abd 7525 39bd 2fc3 99bd edd4 27bd
00000010: b430 ccbd 3fd3 92bd d52e eabd f983 503b
00000020: 1d65 de3d a9a4 e2bd b9c9 6cba 46ad b13d
00000030: 9f76 ba3c 4a27 42bd 1965 a23d dba1 323d
00000040: 0dc9 f63c bafd 1cbc 925c 68bd cf00 74bd
00000050: 43ff 5d3c 5dd7 b3bd aa0c ea3d 8f43 42bd
00000060: bcb9 6d3d f581 10bd cec9 d63d 2455 973b
00000070: 5e2d 013e 27a7 6d3d 44b9 9ebd 9a86 fa3b
00000080: 3af7 053d e13d 5b3d 177b 733d 7796 b1bd
00000090: 99ed 14bc 32b5 5d3d f6a9 8bbc 7288 cb3d
000000a0: 29b5 663d 6fa1 f23c 7484 aebd 1709 0a3d
000000b0: ea96 6f3d 3088 ce3d 413a b73d 10c0 853c
000000c0: 7e6e e03b 7aa2 3a3d 0ff6 8b3c 52bd bf3b
000000d0: a1ef 65bd 3413 0f3d c0eb 4cbd 6f54 b03d
000000e0: 4f42 813d 640e 1c3d c3c0 233d 23aa 413d
000000f0: 5dda b4bd 55e8 cbbd cbbd c6bd 224d 8d3b

output_layer.weight f4 [1, 64]
-0.09697536 -0.11175012 -0.08130624 -0.047247622 0.06996544 -0.122039214 -0.14509077 -0.10720892
0.10395534 0.009144772 -0.1465747 0.04854524 0.15598078 0.12662244 -0.09595463 0.07526903
0.043471634 -0.042711917 -0.06921421 0.10331587 -0.094154805 -0.1441622 -0.084725715 -0.03350768
0.018144036 0.06639058 -0.017084446 -0.06429083 -0.11615329 0.055559028 -0.09249898 -0.1376992
0.06305771 0.030825712 -0.121503614 0.13941966 -0.012322239 -0.08089662 0.048711695 0.023198603
0.0998462 -0.08963609 0.116024084 -0.07297537 0.11498773 -0.06333532 -0.13685824 0.056423962
-0.027880592 -0.061710823 -0.09721795 0.04420365 -0.072196335 0.102601774 -0.0029809116 0.038365085
-0.10440784 -0.09852308 0.0973574 -0.060439833 -0.040177107 -0.08361385 0.0144019695 -0.14358713
00000000: 049b c6bd 3fdd e4bd e383 a6bd b986 41bd
00000010: 0a4a 8f3d b2ef f9bd ad92 14be 5a90 dbbd
00000020: 8ae6 d43d f4d3 153c ae17 16be 60d7 463d
00000030: 6db9 1f3e 50a9 013e dc83 c4bd a626 9a3d
00000040: 500f 323d b1f2 2ebd 2ec0 8dbd 4597 d33d
00000050: 3cd4 c0bd 419f 13be ad84 adbd 593f 09bd
00000060: cda2 943c c9f7 873d aef4 8bbc e9aa 83bd
00000070: c7e1 edbd dd91 633d 1b70 bdbd 0501 0dbe
00000080: 6724 813d 3486 fc3c e3d6 f8bd 07c4 0e3e
00000090: 37e3 49bc 21ad a5bd ea85 473d ff0a be3c
000000a0: 2a7c cc3d 2093 b7bd 099e ed3d 1c74 95bd
000000b0: b07e eb3d f3b5 81bd 9124 0cbe d01c 673d
000000c0: d765 e4bc 7dc4 7cbd 341a c7bd e30e 353d
000000d0: acdb 93bd e120 d23d 665b 43bb b524 1d3d
000000e0: c7d3 d5bd 78c6 c9bd 5163 c73d c28f 77bd
000000f0: c090 24bd bd3d abbd 3df6 6b3c 8108 13be
