python_skeleton/ai/small.pt (torch, 721437 bytes, 23 tensors)

hiddens.0.weight f4 [128, 104]
0.06706233 0.12209871 0.079996824 0.085615724 -0.032850567 -0.054838557 0.03933933 0.06825385
-0.011551293 -0.022328915 0.08997042 -0.0075973 0.028206835 0.019513873 0.0024412288 -0.0048198514
-0.040005155 -0.059999976 0.014784025 0.08684056 -0.04327829 -0.07097753 0.059693053 0.016674206
-0.09881943 0.015269254 -0.03718575 -0.05164502 -0.0031331861 -0.08353838 0.04597003 0.037443217
-0.017526096 -0.00069753843 -0.092641294 -0.08197147 -0.119473375 0.023694653 -0.067247026 -0.088922136
0.056870554 -0.08876007 0.035964683 -0.00898218 -0.107232444 -0.057986956 0.04348293 -0.07065501
-0.044995505 -0.0590914 0.002535677 -0.05317062 -0.041814122 0.04653489 0.07834187 0.05136867
0.050928745 0.053182606 -0.0046088956 -0.023134414 -0.042384423 -0.005449343 -0.056043535 0.09455998
0.030605176 0.010392101 0.04438328 0.055645443 0.13532178 0.05800154 0.018361164 0.027587434
0.024959443 -0.055841204 0.07149436 0.11692027 -0.070852354 0.0010530573 -0.052474704 0.079780914
0.07038692 0.0034619146 0.04188008 0.07908995 -0.033756703 0.007516244 -0.11586411 -0.009605613
-0.08479628 0.04962485 0.0139192 -0.06008891 -0.011804436 -0.12041267 -0.11788674 -0.09110093
-0.06279582 -0.08633018 -0.1198327 -0.022974722 -0.06331703 -0.15249914 -0.042768497 0.029790426
0.03675549 -0.038330797 0.03057104 0.07078604 0.014526631 -0.043411188 -0.089705184 -0.014460523
-0.0010311778 0.009613277 -0.029874193 -0.07992238 -0.058938943 -0.09430653 -0.068765506 -0.07592586
0.09803056 0.049528092 0.03836852 0.072305575 -0.010039109 -0.054549016 0.030041657 -0.07049807
-0.043568 0.078020714 0.019545693 0.038808893 -0.113682814 -0.060990397 -0.010410178 0.09222144
0.08391768 0.061348345 -0.033572976 0.07678941 -0.04683401 0.04361221 -0.06536748 -0.07588192
0.06989534 -0.040402204 -0.07793455 0.014183733 0.037371106 -0.05121762 -0.047055464 0.03315875
0.08618134 0.023670968 0.06619183 -0.030755483 0.13607039 -0.040594608 0.07847827 -0.023852967
0.05254427 -0.05293525 0.07627794 -0.031342845 0.07815537 0.020189201 -0.018004837 -0.0001213355
-0.045302693 0.111708686 0.08065501 -0.0091488715 0.0083427075 0.022076456 -0.08314614 0.0042981096
0.044051368 0.043423876 0.072750695 -0.0043180906 0.05488045 -0.091417916 0.08389934 0.11148823
-0.11282404 0.023128372 -0.048937816 -0.085325696 -0.09270462 -0.12196901 -0.03465278 0.018653484
-0.087295204 0.06593529 0.042243887 -0.059212353 -0.012423568 -0.10471695 -0.1253612 -0.12390388
-0.09086893 -0.098906115 0.006385779 -0.026794584 -0.157571 -0.033992056 0.022704767 -0.061615437
0.05370455 0.14009681 -0.021898832 0.13380603 -0.057508852 -0.026853416 -0.094518125 0.10888398
0.08100346 0.09014706 -0.040185597 -0.03319994 -0.03119268 -0.03264721 -0.02296189 0.018962521
0.04910179 -0.07213808 0.10466122 -0.005689698 0.030904297 0.056431253 0.08239264 -0.0155308675
-0.06850292 0.044385027 0.03605744 0.06509879 0.057502575 0.05967067 0.0737649 0.011543644
-0.03990097 0.056931123 -0.08853673 -0.058803447 -0.07803619 -0.03967517 0.06636869 0.057637695
-0.057831455 -0.06604613 -0.00089920394 -0.10223195 0.042178757 -0.094059534 -0.09385576 -0.041046955
00000000: fa57 893d e30e fa3d 60d5 a33d 4c57 af3d
00000010: 518e 06bd 659e 60bd 4722 213d adc8 8b3d
00000020: a241 3dbc 21eb b6bc 6942 b83d c6f2 f8bb
00000030: 0512 e73c 8fdb 9f3c 06fd 1f3b d8ef 9dbb
00000040: 72dc 23bd 89c2 75bd b238 723c 77d9 b13d
00000050: 9444 31bd ab5c 91bd b480 743d 5898 883c
00000060: d761 cabd e52b 7a3c 1650 18bd ba89 53bd
00000070: 2456 4dbb 2c16 abbd 124b 3c3d 0f5e 193d
00000080: e392 8fbc 03db 36ba b8ba bdbd a8e0 a7bd
00000090: 75ae f4bd 4a1b c23c cfb8 89bd cf1c b6bd
000000a0: 19f1 683d d7c7 b5bd b44f 133d fe29 13bc
000000b0: af9c dbbd bb83 6dbd 281b 323d 93b3 90bd
000000c0: 354d 38bd d309 72bd 9a2d 263b 70c9 59bd
000000d0: 4945 2bbd 5e9b 3e3d b471 a03d f467 523d
000000e0: a99a 503d 01d6 593d 3806 97bb 6284 bdbc
000000f0: 4a9b 2dbd 6790 b2bb e88d 65bd aaa8 c13d
00000100: b5b7 fa3c a143 2a3c 3ecb 353d 7aec 633d
00000110: cb91 0a3e 0693 6d3d 276a 963c 0bff e13c
00000120: bf77 cc3c bfb9 64bd a36b 923d e573 ef3d
00000130: 0a1b 91bd bd06 8a3a b7ef 56bd 2d64 a33d
00000140: 0427 903d 4ae1 623b 728a 2b3d e9f9 a13d
00000150: 7844 0abd d34a f63b 2a4a edbd dc60 1dbc
00000160: aca9 adbd 6d43 4b3d 5b0d 643c ca1f 76bd
00000170: 6567 41bc eb9a f6bd 9a6e f1bd 2093 babd
00000180: 189b 80bd e1cd b0bd d96a f5bd 7c35 bcbc
00000190: 5cac 81bd bc28 1cbe 052e 2fbd 0d0b f43c
000001a0: ed8c 163d c100 1dbd 1e70 fa3c 45f8 903d
000001b0: 1b01 6e3c eecf 31bd 5ab7 b7bd d4eb 6cbc
000001c0: 9628 87ba 0281 1d3c b9ba f4bc 58ae a3bd
000001d0: f669 71bd c823 c1bd eed4 8cbd 047f 9bbd
000001e0: 3fc4 c83d f8dd 4a3d 4f28 1d3d f214 943d
000001f0: 137b 24bc ca6e 5fbd ec19 f63c 4b61 90bd
00000200: 5c74 32bd 53c9 9f3d 4a1e a03c 13f6 1e3d
00000210: 89d2 e8bd 11d1 79bd 748f 2abc 98de bc3d
00000220: 08dd ab3d 6748 7b3d d183 09bd c443 9d3d
00000230: 05d5 3fbd b7a2 323d 63df 85bd fb67 9bbd
00000240: 4a25 8f3d c87c 25bd 269c 9fbd e362 683c
00000250: 7212 193d 91c9 51bd 3bbd 40bd 78d1 073d
00000260: d87f b03d 9ee9 c13c 958f 873d ecf2 fbbc
00000270: 0956 0b3e 8846 26bd 37b9 a03d 4c67 c3bc
00000280: a938 573d a2d2 58bd 9c37 9c3d 5b61 00bd
00000290: ec0f a03d d363 a53c e17e 93bc 8075 feb8
000002a0: 518f 39bd 86c7 e43d 742e a53d 26e5 15bc
000002b0: daaf 083c afd9 b43c 8648 aabd 28d7 8c3b
000002c0: 356f 343d 3cdd 313d 51fe 943d c57e 8dbb
000002d0: 53ca 603d 5139 bbbd 6bd3 ab3d f153 e43d
000002e0: 4a10 e7bd b677 bd3c 0573 48bd 3dbf aebd
000002f0: ebdb bdbd e3ca f9bd 13f0 0dbd 31cf 983c
00000300: d4c7 b2bd 1509 873d ed07 2d3d a788 72bd
00000310: 398c 4bbc d775 d6bd b05e 00be 51c1 fdbd
00000320: 7d19 babd 4a8f cabd cc3f d13b 5180 dbbc
00000330: 4b5a 21be 413b 0bbd 59ff b93c 7860 7cbd
00000340: 4df9 5b3d 8a75 0f3e 2e65 b3bc 7304 093e
00000350: 678e 6bbd b2fb dbbc b892 c1bd 90fe de3d
00000360: 24e5 a53d 069f b83d a799 24bd a9fc 07bd
00000370: cb87 ffbc 15b9 05bd 931a bcbc 4a57 9b3c
00000380: f51e 493d 21bd 93bd 9f58 d63d a570 babb
00000390: 022b fd3c 7524 673d 79bd a83d 2e75 7ebc
000003a0: 424b 8cbd 13cd 353d f7b0 133d 8452 853d
000003b0: d287 6b3d 3c69 743d 0d12 973d 8d21 3d3c
000003c0: 336f 23bd 9c30 693d bf52 b5bd e2db 70bd
000003d0: 70d1 9fbd 6e82 22bd 4fec 873d 8115 6c3d
000003e0: ade0 6cbd 3243 87bd 8eb8 6bba fc5e d1bd
000003f0: a2c3 2c3d 49a2 c0bd 7337 c0bd da20 28bd

hiddens.0.bias f4 [128]
0.08359999 0.02803962 -0.02662675 -0.078623615 0.08649649 0.062633574 -0.032669526 -0.03368403
-0.042645093 -0.009918133 0.030858554 0.012431869 -0.036010355 -0.008374374 0.092961594 0.005975664
-0.050800413 0.09672305 -0.038841438 0.048853457 -0.045614574 -0.025066318 -0.04575623 -0.08329035
-0.022322219 -0.047032565 -0.045632564 -0.00038302576 0.0016892621 -0.009196697 0.0048196223 -0.026862532
0.027889706 -0.046756927 0.060887527 0.08349534 -0.062985025 -0.027630547 0.03371735 -0.045941625
-0.0060046096 0.019886296 0.05305947 0.06737905 -0.07427502 0.05567159 0.07159732 0.060094386
-0.065459035 0.04080424 -0.03498059 -0.02557271 0.032040253 0.022814551 0.067840196 0.07057991
-0.03239197 0.061653275 -0.01955685 -0.01929965 -0.08865118 -0.03040415 0.059101425 -0.0714643
-0.05058275 0.07955505 -0.06603818 -0.033574525 0.015554637 -0.0078088907 0.04821107 0.028520018
0.036367755 0.014500384 -0.055720698 -0.047202192 0.07328945 0.031741716 0.00897849 -0.0010132054
0.041808482 -0.07709457 -0.038677257 0.022362636 0.06370468 -0.0054369965 -0.062389188 0.02207513
-0.00813363 0.06505133 -0.030023608 -0.04996513 0.045475855 -0.06813352 -0.044705164 -0.06166316
0.020082649 -0.022830702 -0.07056839 0.05981441 0.030800516 0.04040821 -0.0015977265 0.082215324
0.04470009 -0.022504142 0.041409526 0.034548797 0.00903627 0.071041495 0.06314297 0.08346567
0.04622043 -0.01893961 0.024518445 -0.028423114 0.059142224 -0.073670015 -0.05433056 0.035418913
0.013397365 0.08120262 0.023057356 0.072484426 -0.029287627 -0.07936006 0.015204602 0.07693897
00000000: 7936 ab3d 58b3 e53c 5820 dabc 6b05 a1bd
00000010: 1225 b13d 0846 803d 7bd0 05bd 44f8 09bd
00000020: 9fac 2ebd aa7f 22bc 14cb fc3c 0aaf 4b3c
00000030: 987f 13bd ac34 09bc a662 be3d 81cf c33b
00000040: 1814 50bd bc16 c63d 3318 1fbd 901a 483d
00000050: 59d6 3abd e157 cdbc e26a 3bbd 2294 aabd
00000060: 16dd b6bc 38a5 40bd 36e9 3abd d9d0 c8b9
00000070: 3b6a dd3a bead 16bc eced 9d3b d00e dcbc
00000080: f478 e43c 3184 3fbd 3365 793d 9bff aa3d
00000090: 4bfe 80bd 7559 e2bc 341b 0a3d 492d 3cbd
000000a0: 51c2 c4bb 96e8 a23c e354 593d 07fe 893d
000000b0: 801d 98bd e507 643d 9ea1 923d 8825 763d
000000c0: 630f 86bd 5922 273d cf47 0fbd dc7d d1bc
000000d0: a43c 033d 95e5 ba3c cdef 8a3d 338c 903d
000000e0: 71ad 04bd 2588 7c3d b035 a0bc 4d1a 9ebc
000000f0: c08e b5bd 2012 f9bc 5614 723d e05b 92bd
00000100: dc2f 4fbd c2ed a23d 063f 87bd 7185 09bd
00000110: e0d8 7e3c b9e1 ffbb f978 453d d0a2 e93c
00000120: 5bf6 143d 0593 6d3c 633b 64bd 1657 41bd
00000130: c718 963d 9a03 023d 841a 133c 88cd 84ba
00000140: 5f3f 2b3d c2e3 9dbd 0b6c 1ebd d931 b73c
00000150: 9977 823d d528 b2bb ce8b 7fbd e7d6 b43c
00000160: eb42 05bc a239 853d 12f4 f5bc 3ca8 4cbd
00000170: e444 3a3d 9689 8bbd c31c 37bd 8292 7cbd
00000180: 5e84 a43c 7407 bbbc 2986 90bd f4ff 743d
00000190: 5d51 fc3c 1483 253d ce6a d1ba 8260 a83d
000001a0: 7117 373d 9b5a b8bc 099d 293d 0a83 0d3d
000001b0: dd0c 143c 347e 913d 1a51 813d 0df0 aa3d
000001c0: a251 3d3d 3e27 9bbc e8da c83c 97d7 e8bc
000001d0: 1e3f 723d 4ee0 96bd b989 5ebd 6c13 113d
000001e0: 9f80 5b3c 8f4d a63d c8e2 bc3c b772 943d
000001f0: 9bec efbc 8787 a2bd b91c 793c 2e92 9d3d

hiddens.1.weight f4 [128, 128]
0.026105955 -0.057860136 0.0055006803 0.0032422883 -0.117230676 0.06889793 -0.04237731 -0.05497177
0.072260424 -0.033055507 -0.017752757 0.0073203533 0.016123446 -0.04145865 -0.13787784 0.026068851
-0.06470449 -0.017281307 -0.0038838615 -0.03364423 0.08549205 0.06443384 0.057825778 0.07148556
-0.038144216 0.0009199965 -0.01106196 0.06285792 0.05837075 0.06295222 -0.046701595 -0.002260134
-0.0028907068 -0.02483364 -0.008016429 -0.027234962 0.07876567 -0.07130358 0.010842457 0.10531125
-0.048030853 0.038990166 -0.010183732 0.05999869 -0.0052946056 0.006750642 -0.08218712 0.08213602
0.081958 -0.016498646 -0.01955864 0.114822395 0.016534945 0.036040068 -0.0061537614 0.010917809
0.09576544 0.018553345 -0.045506828 0.10297429 -0.048638616 0.040062472 0.013011389 0.07373155
0.043893084 -0.057490185 -0.021316923 0.021498937 0.010244129 -0.0858918 -0.09191227 0.051999483
0.032167003 0.033976797 0.037216064 0.009433824 0.077186726 0.0017920819 0.02409682 0.025488356
0.007417482 -0.05225507 -0.023230873 0.059907533 0.04259686 -0.07686112 0.008494613 -0.043989483
-0.1102144 -0.04382023 -0.049471293 -0.057248052 -0.006131224 -0.052006368 0.039754655 0.12923752
0.038982328 -0.0022761 -0.011056746 0.07411543 0.09793227 0.040362354 -0.052133814 0.08231059
-0.028000107 -0.0462095 0.053704172 0.02092607 -0.010058877 0.041185588 -0.09209949 0.0832796
0.08018653 -0.04116846 0.06575982 0.043991487 -0.04358473 -0.07186468 -0.056989245 -0.074933484
0.01766628 -0.051357392 -0.04616541 0.06330039 0.09849515 0.05491419 0.06334545 -0.022762123
0.041763525 -0.018567285 -0.029296443 0.006725573 -0.012433951 -0.0033621762 0.06627114 -0.0148425205
0.00786756 -0.036300406 -0.043970767 0.037770417 -0.045111198 -0.047853302 0.0392482 0.01690624
-0.110533185 -0.05851961 -0.0738144 0.08138384 -0.11972078 -0.09523066 0.027411204 0.0059260116
-0.0036545224 0.054380637 -0.031744845 -0.01060641 0.08640183 -0.033415522 -0.0037010687 -0.03231104
0.104795456 -0.0026382837 0.035494324 0.00066952186 -0.07429988 0.011677979 0.034386385 -0.062116433
0.024508594 -0.052896492 0.015864803 -0.100299224 -0.059931196 0.014854408 0.04786754 -0.066850394
0.036931172 0.0097701 -0.003556447 -0.04671543 -0.06739543 -0.069787465 0.01264474 0.062520884
0.0041644806 0.0707302 0.0101551255 0.03281583 0.04893189 0.004459261 -0.08399291 0.043093737
0.059261676 -0.019999985 -0.0224825 0.010097164 0.059338976 0.10722968 0.032358322 0.0025459833
0.03794483 0.0134939635 -0.05147772 -0.081586555 -0.037913684 -0.051917933 0.063689694 0.06927957
-0.00937765 0.011006829 0.010305316 0.056131177 0.07563355 0.04908563 0.040822 -0.034116644
0.059483502 -0.0126939975 0.045517832 0.05082882 -0.07517064 -0.05675508 0.0035911386 0.0054785716
-0.045522045 -0.06361652 -0.09203824 -0.12517557 -0.09610232 0.06346651 -0.006381386 -0.100991584
0.02525347 0.074234426 -0.049925998 -0.020734726 0.005556004 0.013879851 0.06409922 -0.013051836
0.04793754 -0.0450635 -0.08054766 0.027124709 -0.050199922 0.05772236 -0.0040330947 0.022598954
0.04570107 0.028528774 0.05694441 0.012166896 -0.07169047 -0.017020388 -0.09480567 0.065735996
00000000: 28dc d53c c0fe 6cbd 0d3f b43b 927c 543b
00000010: a316 f0bd 5c1a 8d3d d593 2dbd 142a 61bd
00000020: 46fd 933d 3665 07bd 3b6e 91bc 93df ef3b
00000030: 5115 843c 8cd0 29bd d92f 0dbe 588e d53c
00000040: ca83 84bd 8791 8dbc 6288 7ebb 88ce 09bd
00000050: 7516 af3d e4f5 833d b9da 6c3d 0567 923d
00000060: 1c3d 1cbd ec2b 713a 393d 35bc a7bb 803d
00000070: 2b16 6f3d 18ed 803d 2c4a 3fbd c21e 14bb
00000080: 0372 3dbb eb6f cbbc 5757 03bc db1b dfbc
00000090: e54f a13d 9d07 92bd 90a4 313c 6dad d73d
000000a0: 00bc 44bd 27b4 1f3d abd9 26bc 30c1 753d
000000b0: 5f7e adbb 7d34 dd3b b951 a8bd ee36 a83d
000000c0: 99d9 a73d 2b28 87bc 7139 a0bc 0128 eb3d
000000d0: 4b74 873c c09e 133d 7ea5 c9bb 9ce0 323c
000000e0: ac20 c43d 2ffd 973c 5e65 3abd 2fe4 d23d
000000f0: 4939 47bd 8c18 243d b92d 553c 9100 973d
00000100: 3cc9 333d d47a 6bbd d4a0 aebc 8a1e b03c
00000110: fed6 273c 0ae8 afbd 803c bcbd 69fd 543d
00000120: 8cc1 033d 412b 0b3d df6f 183d 5390 1a3c
00000130: 1314 9e3d 4ae4 ea3a b266 c53c f5cc d03c
00000140: 590e f33b 6a09 56bd ac4e bebc 9a61 753d
00000150: 0c7a 2e3d 5d69 9dbd fd2c 0b3c 512e 34bd
00000160: 16b8 e1bd d77c 33bd 69a2 4abd ef7c 6abd
00000170: 6fe8 c8bb a104 55bd c7d5 223d d756 043e
00000180: efab 1f3d 9f2a 15bb 5b27 35bc d5c9 973d
00000190: b790 c83d ff52 253d 448a 55bd 7492 a83d
000001a0: 7b60 e5bc 2c46 3dbd e8f8 5b3d 266d ab3c
000001b0: fdcd 24bc 38b2 283d a89e bcbd 7f8e aa3d
000001c0: d638 a43d 42a0 28bd 16ad 863d 6b30 343d
000001d0: e785 32bd ca2d 93bd 8e6d 69bd ba76 99bd
000001e0: e0b8 903c 215c 52bd f117 3dbd a3a3 813d
000001f0: d3b7 c93d b4ed 603d 42bb 813d a277 babc
00000200: 3b10 2b3d 6b1a 98bc 18ff efbc 3262 dc3b
00000210: c5b7 4bbc f557 5cbb 2ab9 873d 0b2e 73bc
00000220: f0e6 003c bcaf 14bd b11a 34bd 27b5 1a3d
00000230: 85c6 38bd d301 44bd b8c2 203d f47e 8a3c
00000240: 395f e2bd 42b2 6fbd 012c 97bd 92ac a63d
00000250: 2b30 f5bd 4b08 c3bd 768d e03c fd2e c23b
00000260: b680 6fbb 3bbe 5e3d e206 02bd 82c6 2dbc
00000270: 71f3 b03d b7de 08bd a18d 72bb 9558 04bd
00000280: 009f d63d 0ee7 2cbb 7f62 113d da82 2f3a
00000290: 892a 98bd fe54 3f3c bdd8 0c3d cd6d 7ebd
000002a0: 3fc6 c83c fea9 58bd e7f6 813c ae69 cdbd
000002b0: 6a7a 75bd e75f 733c c110 443d dce8 88bd
000002c0: 2445 173d c512 203c 4813 69bb ae58 3fbd
000002d0: 9d06 8abd bbec 8ebd e22b 4f3c f30a 803d
000002e0: 3276 883b ffda 903d af61 263c e469 063d
000002f0: ce6c 483d fe1e 923b 7a04 acbd 0f83 303d
00000300: 5fbc 723d 02d7 a3bc 382d b8bc 936e 253c
00000310: 6d0d 733d 3c9b db3d 298a 043d 83da 263b
00000320: 0a6c 1b3d c915 5d3c 4dda 52bd da16 a7bd
00000330: 614b 1bbd e6a7 54bd be6f 823d 72e2 8d3d
00000340: b7a4 19bc fd55 343c a1d7 283c cee9 653d
00000350: c3e5 9a3d 030e 493d f834 273d e5bd 0bbd
00000360: f9a4 733d 7cfa 4fbc e870 3a3d e131 503d
00000370: 11f3 99bd 0478 68bd 4f59 6b3b 9785 b33b
00000380: 5375 3abd 6149 82bd 8b7e bcbd 062e 00be
00000390: 4bd1 c4bd bbfa 813d f21a d1bb add4 cebd
000003a0: 5de0 ce3c 3808 983d 347f 4cbd dfdb a9bc
000003b0: 240f b63b 5168 633c 7446 833d 5ed7 55bc
000003c0: 275a 443d 8194 38bd 2cf6 a4bd a334 de3c
000003d0: 6f9e 4dbd 486e 6c3d 0d28 84bb 7121 b93c
000003e0: 0c31 3b3d 2db5 e93c 8b3e 693d a957 473c
000003f0: 74d2 92bd 576e 8bbc 7a29 c2bd 98a0 863d

hiddens.1.bias f4 [128]
0.05518539 0.02219743 -0.015553887 -0.032249898 -0.051420487 -0.015826017 0.024307514 -0.00025907243
-0.03792292 0.051532887 -0.03539843 0.059815384 0.048143 0.07290207 0.03073379 -0.06467456
-0.026210934 -0.012991813 0.017281488 0.04930862 -0.07782769 0.035579123 -0.016477214 0.053336833
-0.026719406 -0.08108586 0.02045203 0.026008733 -0.030066816 -0.03665485 0.053229596 0.08691243
0.013716923 -0.03538229 -0.017734256 0.020838194 0.0042636474 -0.011130233 0.0800433 -0.008105316
-0.059822626 0.054374676 0.022025956 0.03476735 0.051701646 0.035234507 0.054727316 -0.05487575
-0.00085674855 -0.057697807 -0.04009523 -0.05453821 0.046070747 -0.06932965 -0.0016943516 0.04228635
0.007842529 -0.025676658 -0.024615498 -0.058803033 0.0023567239 -0.026173862 -0.040888846 0.059427068
-0.006903787 -0.04299644 0.013591172 0.030853916 0.036253363 0.016122434 -0.07688135 0.0058400854
-0.047557235 -0.068966776 -0.0774589 0.0037472115 -0.061294492 0.03419984 -0.07231638 0.04194427
-0.04856388 -0.042501148 -0.030296315 0.016445637 -0.03627587 -0.027986249 0.07154629 0.023819432
-0.07358337 0.079704136 0.017113933 0.05861784 -0.051432062 -0.07824309 0.010114248 0.029685855
-0.052397873 0.05124316 0.077433735 -0.028176945 -0.01890663 0.014105319 -0.043034863 -0.030497048
-0.048845757 -0.029834997 0.046490096 0.069338985 -0.019250026 -0.019681573 0.019683976 -0.05094919
0.033486836 0.0054765223 0.071909666 0.04818019 0.07345897 0.055778854 -0.008923572 -0.066742204
-0.03642685 -0.025083013 -0.046747774 -0.02712145 0.039039433 0.038115554 0.0027648208 -0.03232122
00000000: 130a 623d 62d7 b53c bbd5 7ebc 7818 04bd
00000010: 4a9e 52bd 90a5 81bc 8d20 c73c 1dd4 87b9
00000020: 1055 1bbd 2614 533d f2fd 10bd fa00 753d
00000030: 9831 453d ae4d 953d 6ec5 fb3c 1974 84bd
00000040: 50b8 d6bc 9ddb 54bc e891 8d3c d6f7 493d
00000050: 2064 9fbd 6abb 113d 39fb 86bc b977 5a3d
00000060: a8e2 dabc 5810 a6bd 048b a73c 4410 d53c
00000070: af4e f6bc 6523 16bd 4707 5a3d 25ff b13d
00000080: f2bc 603c 05ed 10bd 6e47 91bc dcb4 aa3c
00000090: 11b6 8b3b 955b 36bc beed a33d 29cc 04bc
000000a0: 9208 75bd fbb7 5e3d c76f b43c 3568 0e3d
000000b0: 1bc5 533d 0f52 103d c029 603d 65c5 60bd
000000c0: 6c97 60ba 8954 6cbd e53a 24bd 7563 5fbd
000000d0: aeb4 3c3d b4fc 8dbd 0115 deba 7434 2d3d
000000e0: f37d 003c db57 d2bc 71a6 c9bc 73db 70bd
000000f0: 4473 1a3b 916a d6bc 107b 27bd cc69 733d
00000100: 2a39 e2bb 091d 30bd 82ad 5e3c 5ac1 fc3c
00000110: 687e 143d 3213 843c f873 9dbd 305e bf3b
00000120: 60cb 42bd 743e 8dbd c6a2 9ebd c793 753b
00000130: ef0f 7bbd 2215 0c3d 9c1a 94bd c1cd 2b3d
00000140: ebea 46bd af15 2ebd fa2f f8bc 00b9 863c
00000150: 0296 14bd 6b43 e5bc dc86 923d f820 c33c
00000160: e1b2 96bd ec3b a33d 8532 8c3c 4319 703d
00000170: 6daa 52bd ea3d a0bd 3bb6 253c c02f f33c
00000180: 279f 56bd 59e4 513d 9495 9e3d 56d3 e6bc
00000190: 14e2 9abc ff19 673c 5345 30bd f2d4 f9bc
000001a0: 7d12 48bd 8668 f4bc 666c 3e3d 9901 8e3d
000001b0: 3bb2 9dbc 403b a1bc 4a40 a13c 19b0 50bd
000001c0: 7e29 093d 6674 b33b 6045 933d 9758 453d
000001d0: a871 963d 5e78 643d 2c34 12bc 23b0 88bd
000001e0: 5234 15bd e47a cdbc 987a 3fbd ce2d debc
000001f0: d0e7 1f3d 0e1f 1c3d ff31 353b 4163 04bd

hiddens.2.weight f4 [128, 128]
0.025018819 -0.029614946 0.055326656 0.08645999 0.04483306 0.04287391 0.020604478 -0.032737125
-0.09340686 -0.020758484 0.006108885 -0.009217984 -0.017090203 -0.032748204 0.071604334 0.030248381
0.06771116 0.057820354 0.0068292776 0.038876645 0.063168354 -0.034488145 -0.0672481 -0.0993347
0.11346128 0.026813596 -0.06921699 -0.07221901 0.06215333 0.017326286 0.057940193 -0.046968974
-0.059022307 -0.0019640573 -0.026901321 -0.005318343 -0.064555824 -0.08912167 -0.049768724 0.0651587
-0.029173508 -0.054078214 0.054890156 0.029401192 0.06395654 -0.037187632 -0.023628611 -0.00801418
-0.03818874 -0.06343339 0.07488328 0.09402032 0.074898764 0.015904931 0.038934853 -0.056533925
-0.11258239 -0.03131326 -0.011919911 -0.02579396 0.11036355 0.00012675392 0.009381137 -0.06545791
-0.010667355 0.08343744 -0.008039437 -0.07808669 -0.050593782 -0.00060310535 0.005588086 -0.0013540505
0.0081394985 0.0052798213 -0.07906127 0.07498136 -0.018241297 -0.07472754 -0.0075240023 0.015627779
-0.0041707787 -0.071966246 0.10795806 0.060249653 0.03882732 0.06728988 -0.03184402 0.06422308
0.019124517 0.10116042 -0.00035093902 -0.07579087 0.08778799 0.034851443 -0.06131036 -0.028720478
0.025596287 0.008224705 -0.0020006911 -0.06012629 -0.10713535 0.063951045 -0.05953881 0.02423717
0.023479102 0.021998381 -0.09462179 -0.022560658 0.05868358 0.060976613 -0.010016428 -0.08706659
-0.031398483 0.057755515 -0.005654146 -0.056177355 0.0424989 -0.0066009425 -0.030986803 -0.0820245
-0.0577876 0.050404828 -0.012360744 -0.030433977 -0.024707036 -0.07098452 -0.102294825 0.07328403
-0.010922892 0.022481404 -0.06484889 -0.08041164 0.012712535 0.055347666 0.090571456 -0.062242642
-0.070233874 -0.04320583 -0.07327022 0.08652306 -0.020929348 0.07275562 0.009063405 0.026011048
0.038971107 0.06330539 -0.036376458 0.02458338 -0.043656573 -0.024841217 0.007604961 -0.011762751
0.08009532 0.024128057 0.05156102 0.0025006307 -0.054742575 -0.05172995 -0.0055723484 0.06133754
-0.018082613 -0.11167433 0.015670888 0.04193138 0.017558174 -0.0018669203 -0.016561093 -0.03703236
0.022692986 -0.0173682 -0.06466402 0.063670546 0.00029663462 -0.03554041 0.013343229 0.020868562
0.008944279 -0.09551431 -0.061845917 -0.036326136 0.024895463 -0.040897176 0.014841675 0.043658517
0.027964182 0.045760006 0.020066775 0.01367917 0.08185478 -0.049273588 0.009785163 0.07931354
-0.021886198 -0.029232029 -0.011536392 -0.055133034 0.05245125 0.03425742 0.008242423 -0.074051164
-0.0051430576 -0.045941345 -0.02352982 0.021967245 -0.011899746 -0.023512661 0.0922252 0.023074847
0.07065982 0.073676206 0.0059685837 0.06252449 0.021523856 -0.04888523 -0.031225411 -0.0032114487
0.0029479368 0.08636767 0.08193975 -0.04131621 -0.045616508 0.07183006 -0.07114817 0.029685821
-0.002597357 0.060007975 0.06308142 -0.052520514 0.043364454 -0.052446917 -0.08355895 0.024687814
-0.045981638 0.07858758 -0.04791069 0.03527327 0.0073898025 0.017160524 0.040587526 -0.009511092
0.03156848 0.10123175 -0.0126250805 -0.010900056 0.037810218 -0.03277531 -0.02638768 -0.063374735
0.042347264 0.058402114 0.07607191 0.039048262 -0.068751484 0.09733578 -0.01777673 0.04679069
00000000: 44f4 cc3c 0b9b f2bc 349e 623d ef11 b13d
00000010: dfa2 373d 8e9c 2f3d b9ca a83c 5d17 06bd
00000020: 194c bfbd b20d aabc 0b2d c83b 0707 17bc
00000030: c100 8cbc fb22 06bd 4ba5 923d 74cb f73c
00000040: 26ac 8a3d 09d5 6c3d 22c8 df3b 1e3d 1f3d
00000050: 695e 813d 7143 0dbd 5fb9 89bd fe6f cbbd
00000060: 635e e83d 30a8 db3c a3c1 8dbd 8fe7 93bd
00000070: 7d94 7e3d dbef 8d3c b252 6d3d 8a62 40bd
00000080: 60c1 71bd 6ab7 00bb 2960 dcbc 7f45 aebb
00000090: d835 84bd 6c85 b6bd 4ada 4bbd ed71 853d
000000a0: 48fd eebc 1e81 5dbd 80d4 603d c5da f03c
000000b0: a5fb 823d 0f52 18bd ca90 c1bc e84d 03bc
000000c0: cc6b 1cbd 5de9 81bd 685c 993d ba8d c03d
000000d0: 8664 993d 0f4b 823c 277a 1f3d 1e90 67bd
000000e0: 9991 e6bd 5542 00bd bb4b 43bc db4d d3bc
000000f0: 4906 e23d 3fe9 0439 57b3 193c cc0e 86bd
00000100: 21c6 2ebc 40e1 aa3d d8b7 03bc eaeb 9fbd
00000110: 6d3b 4fbd b719 1eba 431c b73b 657a b1ba
00000120: 885b 053c 5a02 ad3b e0ea a1bd d48f 993d
00000130: c66e 95bc c10a 99bd e88b f6bb d405 803c
00000140: 07ab 88bb 0a63 93bd 1e19 dd3d 57c8 763d
00000150: 6509 1f3d 47cf 893d e06e 02bd 6487 833d
00000160: 05ab 9c3c 322d cf3d 3dfe b7b9 3e38 9bbd
00000170: 31ca b33d 63c0 0e3d 9220 7bbd 3547 ebbc
00000180: 4eaf d13c eac0 063c 071e 03bb fc46 76bd
00000190: c769 dbbd c4f8 823d f8de 73bd 088d c63c
000001a0: 3f57 c03c f335 b43c 12c9 c1bd 21d1 b8bc
000001b0: 325e 703d 9dc2 793d f21b 24bc f84f b2bd
000001c0: b29b 00bd 0c91 6c3d 6a46 b9bb 3a1a 66bd
000001d0: 5413 2e3d b84c d8bb 09d8 fdbc 76fc a7bd
000001e0: b1b2 6cbd 4b75 4e3d b884 4abc ad50 f9bc
000001f0: 6966 cabc 5560 91bd f37f d1bd f015 963d
00000200: eef5 32bc ec2a b83c 7fcf 84bd dcae a4bd
00000210: 3d48 503c 3cb4 623d 877d b93d 24f2 7ebd
00000220: c7d6 8fbd 99f8 30bd b20e 96bd 0133 b13d
00000230: 0674 abbc e600 953d ad7e 143c 1f15 d53c
00000240: 2ba0 1f3d 42a6 813d 7bff 14bd 1663 c93c
00000250: 3cd1 32bd cf7f cbbc 0933 f93b 8eb8 40bc
00000260: 0409 a43d 34a8 c53c a631 533d 9fe1 233b
00000270: c039 60bd c9e2 53bd 3f98 b6bb 133d 7b3d
00000280: fd21 94bc 83b5 e4bd 3c60 803c 3dc0 2b3d
00000290: 29d6 8f3c 73b3 f4ba 21ab 87bc 3eaf 17bd
000002a0: a4e6 b93c c147 8ebc 926e 84bd b465 823d
000002b0: a085 9b39 d292 11bd 8f9d 5a3c 8cf4 aa3c
000002c0: 068b 123c 029d c3bd 2552 7dbd b7ca 14bd
000002d0: 92f1 cb3c cc83 27bd 7f2a 733c 46d3 323d
000002e0: 2415 e53c d86e 3b3d 1463 a43c 991e 603c
000002f0: 7ba3 a73d 1ad3 49bd f351 203c 236f a23d
00000300: af4a b3bc 0278 efbc 2303 3dbc 2dd3 61bd
00000310: 1fd7 563d 8251 0c3d 3a0b 073c 23a8 97bd
00000320: 1887 a8bb fe2c 3cbd 9cc1 c0bc a7f4 b33c
00000330: 27f7 42bc a09d c0bc 91e0 bc3d 7607 bd3c
00000340: 19b6 903d 8de3 963d 1c94 c33b d70c 803d
00000350: cc52 b03c e13b 48bd 6fcc ffbc 2b77 52bb
00000360: 2c32 413b 88e1 b03d 07d0 a73d 303b 29bd
00000370: 60d8 3abd a31b 933d 22b6 91bd ae2f f33c
00000380: 6b38 2abb ecca 753d d530 813d c01f 57bd
00000390: ed9e 313d 94d2 56bd f420 abbd 193e ca3c
000003a0: 3e57 3cbd 86f2 a03d 003e 44bd b47a 103d
000003b0: 2826 f23b 3a94 8c3c 1b3f 263d 69d4 1bbc
000003c0: f34d 013d 9752 cf3d 6dd9 4ebc 2696 32bc
000003d0: e3de 1a3d 673f 06bd fa2a d8bc 9dca 81bd
000003e0: 5374 2d3d 0e37 6f3d 97cb 9b3d 12f1 1f3d
000003f0: 94cd 8cbd fb57 c73d 81a0 91bc 98a7 3f3d

hiddens.2.bias f4 [128]
0.03688143 -0.031825498 0.016137036 -0.013258728 0.010816516 -0.055424105 0.05640286 0.012394289
-0.06968871 -0.0776258 -0.0012130613 -0.07611498 -0.050682407 -0.05803932 0.08080046 0.06416171
0.05010552 -0.020466583 -0.016829697 0.00695498 -0.005815623 0.04473068 0.04440997 -0.069697656
-0.061728872 0.037173588 -0.021975981 -0.03261744 0.07996743 0.06335612 0.03385269 0.05093873
-0.023846973 -0.042194504 -0.0039211805 -0.058394216 -0.012560162 0.054561883 0.036768716 0.06259559
-0.020503528 -0.056593254 -0.028836979 -0.04206585 -0.03661823 -0.062039662 -0.017574642 0.038271803
-0.08033147 -0.07890906 -0.069469325 0.018965404 -0.062051386 0.06382428 0.0031161804 0.003932328
-0.035585992 -0.07134594 -0.04529737 0.039478127 0.023361823 0.024104554 0.06830565 0.03895502
-0.04111794 -0.04644281 -0.065165974 -0.018965527 0.0038217697 -0.07014443 -0.024839947 -0.0705553
-0.025597451 0.04114532 0.02710884 0.06282038 0.015561572 0.05472136 0.031965684 0.002724666
0.028764728 -0.018648958 -0.07570502 0.078171104 0.056928094 -0.05268452 0.00509252 -0.0075160014
0.04736781 -0.031130416 -0.04197102 -0.031597264 0.014857174 0.045691844 -0.023551742 0.06985731
-0.06268318 0.06967577 0.0098752165 0.0022277334 -0.06866969 0.017496558 -0.042222347 0.03275462
0.061422404 -0.047142558 -0.0028321347 0.025667591 -0.028007949 -0.020757688 0.024801044 0.007602512
0.068708934 -0.06346063 -0.07516125 -0.061890803 0.01559938 0.042677447 -0.09123449 0.050763357
-0.055564042 -0.056330554 -0.00411528 0.010524024 -0.017327035 0.043202233 0.080284424 -0.06952685
00000000: fb10 173d 745b 02bd d131 843c 233b 59bc
00000010: c237 313c 6304 63bd af06 673d 6a11 4b3c
00000020: f4b8 8ebd 47fa 9ebd 95ff 9eba 2ce2 9bbd
00000030: 5b98 4fbd a3ba 6dbd b67a a53d 3767 833d
00000040: 723b 4d3d 89a9 a7bc 6fde 89bc 9ae6 e33b
00000050: fb90 bebb 8437 373d 3be7 353d a5bd 8ebd
00000060: 6ad7 7cbd 5543 183d f906 b4bc dd99 05bd
00000070: f7c5 a33d dac0 813d 1ea9 0a3d 21a5 503d
00000080: ba5a c3bc 25d4 2cbd 3f7d 80bb c62e 6fbd
00000090: 23c9 4dbc 487c 5f3d cb9a 163d 1e32 803d
000000a0: 04f7 a7bc 54ce 67bd 873b ecbc 3e4d 2cbd
000000b0: fffc 15bd 4d1d 7ebd b2f8 8fbc e5c2 1c3d
000000c0: d384 a4bd 139b a1bd ef45 8ebd 565d 9b3c
000000d0: 9829 7ebd 4eb6 823d d538 4c3b c2da 803b
000000e0: 9ec2 11bd d21d 92bd bc89 39bd d1b3 213d
000000f0: 4b61 bf3c ea76 c53c d5e3 8b3d 4d8f 1f3d
00000100: 496b 28bd d13a 3ebd bd75 85bd 985d 9bbc
00000110: a876 7a3b e2a7 8fbd 257d cbbc 4c7f 90bd
00000120: bfb1 d1bc ff87 283d 5c13 de3c f9a7 803d
00000130: f7f5 7e3c 8123 603d 73ee 023d 4f90 323b
00000140: 02a4 eb3c b3c5 98bc 3c0b 9bbd 2c18 a03d
00000150: 6f2d 693d b9cb 57bd 27df a63b ca48 f6bb
00000160: c004 423d 3705 ffbc cee9 2bbd 226c 01bd
00000170: 816b 733c 5f27 3b3d 95ef c0bc 5911 8f3d
00000180: 0a60 80bd 2cb2 8e3d a9cb 213c 2aff 113b
00000190: b2a2 8cbd f154 8f3c 57f1 2cbd b529 063d
000001a0: 0f96 7b3d 8e18 41bd 569b 39bb d744 d23c
000001b0: ed70 e5bc 070c aabc 8f2b cb3c 7e1e f93b
000001c0: 45b7 8c3d a6f7 81bd 24ee 99bd 3681 7dbd
000001d0: 8b94 7f3c 8cce 2e3d 26d9 babd 3ded 4f3d
000001e0: 1f97 63bd deba 66bd 79d9 86bb f56c 2c3c
000001f0: 6df1 8dbc d3f4 303d 296c a43d 1864 8ebd

hiddens.3.weight f4 [128, 128]
0.043755274 0.04609185 -0.012256997 -0.074481495 -0.06470141 -0.06903924 0.04468755 0.07926026
0.03225474 0.06600414 -0.058497004 0.04012526 -0.0606757 -0.083439484 0.08559439 -0.065609924
-0.0007482771 0.014650601 0.071680896 0.048872095 -0.028707772 -0.029506104 0.026277589 0.009252584
0.03188205 0.018980639 0.047633786 0.048255794 -0.06548936 0.002317201 0.075386986 -0.03833278
-0.051640745 -0.061434686 0.064584106 -0.031948004 -0.00505778 0.017412655 0.0513386 0.11173077
-0.07090619 -0.03771817 -0.033303823 0.044351976 -0.07143584 0.036226034 0.039877962 0.05742209
-0.034008343 -0.015167125 0.06700565 -0.090714686 -0.018896423 -0.014993165 0.065569445 0.024618166
-0.039253797 0.0041059437 0.006119571 0.08781817 0.052656155 -0.0027236275 0.10743139 0.0632167
0.04869059 0.0092498185 0.020954665 0.044046517 -0.067588575 -0.07128309 0.059221476 -0.0066664014
0.09162882 -0.002539294 -0.04615628 -0.019349063 0.091159955 0.08115492 0.009907728 0.04569716
-0.013895702 0.028474513 -0.040166214 -0.013481563 0.08606437 0.057307653 0.007862024 -0.07772602
0.0005850001 -0.080589704 -0.010672779 0.028614152 -0.031210914 -0.083801955 -0.08066739 -0.034446206
0.053201657 0.054504402 -0.073435076 0.02023623 -0.080225594 -0.010171016 0.057980765 0.03713991
-0.083201304 0.021421397 0.012177459 -0.004165041 -0.046304632 0.007651242 -0.08882035 -0.07701608
-0.048948035 0.0689413 0.025328863 0.002999305 -0.03449977 0.02520719 0.05554497 0.058852777
0.022483863 0.02145549 -0.09294895 -0.023785345 0.015288825 -0.02633869 0.0012405155 -0.032505527
-0.0003852037 -0.07360686 0.046925273 0.01172104 -0.03809933 0.02362258 0.08595822 0.05422668
0.021138651 0.005783563 0.08485008 0.0410702 -0.017900907 0.04920323 0.02731896 -0.029724635
-0.06578978 -0.04989599 -0.03572341 -0.0045032217 -0.009516363 -0.012173345 -0.104123116 0.027473535
-0.029273443 0.056855805 0.09140054 -0.04377052 0.011183001 -0.019545015 0.08020621 -0.002270891
0.00474249 -0.0850527 0.010545955 -0.036056038 0.03529027 -0.093084924 0.025056645 -0.092822984
-0.037060685 0.016451731 0.082272135 0.043859743 0.035391543 0.073531665 0.06938032 -0.01929294
-0.03850299 0.07129914 -0.010330863 0.08706088 0.06972206 -0.06240856 0.07980755 0.09011592
-0.055843253 0.012011769 -0.0015203564 -0.02625904 -0.065014906 -0.057477143 -0.09225111 -0.012669598
0.062227312 -0.08725616 0.03854985 -0.07203131 0.056508172 0.0029557883 -0.0017548081 0.04702842
0.07515667 -0.09132457 -0.033828985 -0.0047221743 -0.03388529 -0.01971074 0.066879824 0.026747063
0.013060539 0.059674244 -0.07295228 -0.010323831 0.044500183 -0.099168696 0.07609797 -0.012596217
0.057547994 0.019412583 0.018688092 0.022736488 0.0767267 0.015553523 0.013034406 -0.048815828
0.016260218 0.09293376 0.061661456 -0.061821707 0.03006277 -0.10725505 -0.06842587 -0.07018178
-0.05136202 -0.07948476 0.0654228 -0.0667822 -0.07415492 0.0040742145 0.07675782 -0.077919796
-0.014702937 0.028496599 0.05861347 -0.041083224 0.042199124 0.09635117 0.040928528 -0.07926165
-0.026757339 0.049739666 -0.0058287494 0.047600064 0.08396349 -0.05454968 0.04060859 -0.047064327
00000000: bb38 333d cfca 3c3d 92d1 48bc c189 98bd
00000010: 2c82 84bd 7264 8dbd 4b0a 373d 3453 a23d
00000020: 8c1d 043d 2e2d 873d 8e9a 6fbd 625a 243d
00000030: 1587 78bd 52e2 aabd 1d4c af3d 7f5e 86bd
00000040: 0728 44ba 1309 703c 6fcd 923d 1b2e 483d
00000050: 902c ebbc c9b6 f1bc 1944 d73c 2698 173c
00000060: c196 023d 497d 9b3c a51b 433d dea7 453d
00000070: 491f 86bd 2fdc 173b 7e64 9a3d d502 1dbd
00000080: 3f85 53bd f0a2 7bbd ac44 843d e9db 02bd
00000090: bcbb a5bb fca4 8e3c 6d48 523d 1ad3 e43d
000000a0: 4437 91bd 5e7e 1abd 9769 08bd 6baa 353d
000000b0: f44c 92bd c061 143d 1357 233d 6d33 6b3d
000000c0: 554c 0bbd 887f 78bc 423a 893d 9fc8 b9bd
000000d0: accc 9abc e4a5 75bc 4649 863d 09ac c93c
000000e0: 97c8 20bd 278b 863b af86 c83b 03da b33d
000000f0: fbad 573d e37e 32bb fd04 dc3d c277 813d
00000100: c96f 473d 8d8c 173c 1ea9 ab3c 1f6a 343d
00000110: e16b 8abd defc 91bd 3892 723d d471 dabb
00000120: e4a7 bb3d 496a 26bb 5e0e 3dbd ed81 9ebc
00000130: 12b2 ba3d 8d34 a63d 0654 223c f22c 3b3d
00000140: ccaa 63bc 6243 e93c 5485 24bd c6e1 5cbc
00000150: 8442 b03d 6ebb 6a3d b8cf 003c d22e 9fbd
00000160: b15a 193a 370c a5bd e1dc 2ebc 3a68 ea3c
00000170: 08ae ffbc 5ca0 abbd f234 a5bd 7717 0dbd
00000180: fbe9 593d 0240 5f3d 2165 96bd 73c6 a53c
00000190: 514d a4bd 55a4 26bc 3d7d 6d3d 0520 183d
000001a0: 7265 aabd ed7b af3c f783 473c e57a 88bb
000001b0: eda9 3dbd 45b7 fa3b 72e7 b5bd 9bba 9dbd
000001c0: bc7d 48bd 1931 8d3d 7a7e cf3c fd8f 443b
000001d0: a14f 0dbd 4f7f ce3c 1f83 633d 9c0f 713d
000001e0: 1430 b83c 6cc3 af3c 055c bebd 7cd9 c2bc
000001f0: fb7d 7a3c 3dc4 d7bc cb98 a23a 8424 05bd
00000200: 2af5 c9b9 32bf 96bd b734 403d 9b09 403c
00000210: 0b0e 1cbd 2484 c13c dd0a b03d cc1c 5e3d
00000220: f72a ad3c 0b84 bd3b e1c5 ad3d 3a39 283d
00000230: eca4 92bc 5389 493d 03cc df3c 1481 f3bc
00000240: cbbc 86bd bd5f 4cbd b652 12bd c38f 93bb
00000250: 85ea 1bbc b672 47bc 803e d5bd 2e10 e13c
00000260: dcce efbc a2e1 683d 3530 bb3d b748 33bd
00000270: e838 373c de1c a0bc 2743 a43d 3bd3 14bb
00000280: e466 9b3b 1c30 aebd f1c8 2c3c 7faf 13bd
00000290: 888c 103d 4fa3 bebd 9843 cd3c fa19 bebd
000002a0: f2cc 17bd c8c5 863c 4b7e a83d 46a6 333d
000002b0: b9f6 103d c597 963d 4517 8e3d 3a0c 9ebc
000002c0: 50b5 1dbd 4905 923d c842 29bc fa4c b23d
000002d0: 70ca 8e3d 1ea0 7fbd 2472 a33d b28e b83d
000002e0: e5bb 64bd 03cd 443c b246 c7ba 331d d7bc
000002f0: 8926 85bd 276d 6bbd 26ee bcbd 2594 4fbc
00000300: 11e2 7e3d 5cb3 b2bd 73e6 1d3d 2785 93bd
00000310: 1d75 673d e6b5 413b 9701 e6ba dfa0 403d
00000320: bdeb 993d 6008 bbbd 4390 0abd 78bc 9abb
00000330: 4dcb 0abd 6b78 a1bc 4af8 883d a81c db3c
00000340: dffb 553c fb6c 743d 0168 95bd 4925 29bc
00000350: d345 363d f518 cbbd 41d9 9b3d 5d60 4ebc
00000360: 72b7 6b3d 2307 9f3c c517 993c df41 ba3c
00000370: e322 9d3d 34d4 7e3c 438e 553c 1bf3 47bd
00000380: 2634 853c 0e54 be3d b990 7c3d c238 7dbd
00000390: 3346 f63c 89a8 dbbd dd22 8cbd 77bb 8fbd
000003a0: fb60 52bd e8c8 a2bd 64fc 853d 1bc5 88bd
000003b0: 89de 97bd fd80 853b 3433 9d3d 6a94 9fbd
000003c0: 96e4 70bc b371 e93c ae14 703d e246 28bd
000003d0: fdd8 2c3d c353 c53d aca4 273d ef53 a2bd
000003e0: 3532 dbbc d2bb 4b3d 18ff bebb 49f8 423d
000003f0: 0df5 ab3d 7c6f 5fbd 3155 263d 86c6 40bd

hiddens.3.bias f4 [128]
-0.012435053 -0.07393724 0.023505751 0.05992766 -0.056847416 -0.05684274 0.07021846 -0.005370886
-0.014877777 0.05983851 0.039729606 -0.06440312 -0.040633455 -0.032260325 -0.03245625 -0.015915412
0.011769137 -0.07247589 -0.05076943 -0.0043178448 0.050000377 -0.06351779 -0.016804514 -0.0674539
-0.06378165 -0.0041931323 -0.012321089 -0.028809795 0.04845259 -0.08058836 -0.009743596 -0.029637875
-0.017814927 0.05525594 0.020518556 0.001378176 0.018499019 0.05966265 0.0036512308 -0.013288504
-0.0050189323 -0.026520142 0.018256402 -0.05695257 -0.02715254 -0.057549834 0.02014207 -0.071493074
0.040600818 0.041552886 -0.035191067 0.01671167 -0.07180303 -0.029308597 -0.012130943 0.036439907
-0.015074931 0.0119568035 0.08529145 -0.028018335 0.024629401 0.03239258 0.06314313 -0.025699956
0.04032799 -0.0021854835 0.0005826534 -0.0521289 -0.06938076 -0.04089071 -0.044559777 0.07418158
-0.025874475 0.06185256 0.03516736 -0.010439457 -0.0015622615 0.029739866 0.039745957 0.03082515
-0.062590264 -0.0061077117 -0.05978402 -0.031324644 0.0136839105 0.05449536 -0.04024398 -0.022049176
-0.043926664 0.058639098 -0.026054006 -0.07315765 -0.00012502488 0.02429549 0.004284841 0.024932751
0.07758933 0.010192753 0.02020244 0.022464063 0.06870249 0.04627245 0.044587355 0.06286523
-0.0062497915 0.003844551 0.009666508 0.040777173 -0.039988656 0.06433669 -0.03491219 -0.012874201
0.029518856 -0.020737333 -0.051663 0.060580082 -0.06612648 0.050712243 0.050623473 0.012994229
0.025284782 -0.072039455 -0.045567904 -0.001183357 0.050012913 -0.03290485 -0.04569116 -0.06451101
00000000: 64bc 4bbc 686c 97bd 228f c03c b576 753d
00000010: d6d8 68bd efd3 68bd b2ce 8f3d 42fe afbb
00000020: ebc1 73bc 3a19 753d 83bb 223d c8e5 83bd
00000030: 446f 26bd 6723 04bd d8f0 04bd 0a61 82bc
00000040: 57d3 403c 3d6e 94bd 9bf3 4fbd b57c 8dbb
00000050: 32cd 4c3d 9d15 82bd 9fa9 89bc 4525 8abd
00000060: f49f 82bd 8b66 89bb 65de 49bc 8502 ecbc
00000070: 3976 463d 830b a5bd 9ba3 1fbc 21cb f2bc
00000080: 9cf0 91bc 0d54 623d 8816 a83c eaa3 b43a
00000090: 418b 973c d360 743d 7d49 6f3b 07b8 59bc
000000a0: db75 a4bb c540 d9bc 738e 953c 1947 69bd
000000b0: 016f debc 60b9 6bbd fb00 a53c f66a 92bd
000000c0: 0b4d 263d 5c33 2a3d 8224 10bd eae6 883c
000000d0: 780d 93bd 9518 f0bc ddc0 46bc 0342 153d
000000e0: d8fc 76bc 78e6 433c 49ad ae3d b586 e5bc
000000f0: 99c3 c93c 15ae 043d 2f51 813d b788 d2bc
00000100: f62e 253d 543a 0fbb 35bd 183a 1d85 55bd
00000110: 8017 8ebd 047d 27bd 5084 36bd 83ec 973d
00000120: b5f6 d3bc 1c59 7d3d a60b 103d 420a 2bbc
00000130: ccc4 ccba 05a1 f33c a8cc 223d 0685 fc3c
00000140: 532f 80bd 3323 c8bb 17e0 74bd 454e 00bd
00000150: 7b32 603c 8736 5f3d dfd6 24bd 79a0 b4bc
00000160: 72ec 33bd 8d2f 703d 366f d5bc aed3 95bd
00000170: 1c19 03b9 5607 c73c da67 8c3b c53f cc3c
00000180: 28e7 9e3d 81ff 263c 967f a53c 8e06 b83c
00000190: e4b3 8c3d 2e88 3d3d 3ba1 363d 7cbf 803d
000001a0: 0dcb ccbb ddf4 7b3b 4660 1e3c f705 273d
000001b0: 25cb 23bd f4c2 833d 1600 0fbd 50ee 52bc
000001c0: 87d1 f13c 57e1 a9bc 959c 53bd d222 783d
000001d0: 526d 87bd a4b7 4f3d 8f5a 4f3d bfe5 543c
000001e0: 0822 cf3c 6c89 93bd 69a5 3abd df1a 9bba
000001f0: 57da 4c3d 3cc7 06bd a726 3bbd 591e 84bd

hiddens.4.weight f4 [128, 128]
0.049062707 0.045617852 0.091766596 -0.0875307 -0.02329829 -0.011481797 0.035309017 0.04126324
-0.08313287 -0.04718013 0.08551285 0.024876589 0.10538608 0.0125048915 -0.022775449 0.001564752
0.03535143 0.0048888465 0.017873239 -0.017271638 0.08360138 0.06456455 -0.0030687102 0.04102438
-0.0020668558 0.054920264 -0.00087638304 0.06318767 0.019179653 0.045067556 -0.044047672 0.04323064
0.012542718 0.0031776587 -0.058907263 -0.0795343 0.09263602 0.094189316 -0.015238432 0.035891946
0.07615974 0.05727311 -0.037815645 0.030487834 0.026055781 0.043579936 -0.052972946 0.028499829
-0.024514144 -0.031967476 -0.07096595 0.05725623 0.066580325 -0.029953748 -0.0479236 -0.007705393
-0.0417582 0.03150747 -0.06734843 -0.032902606 0.01004272 0.004618736 -0.07703631 -0.015281936
-0.09074818 0.03174984 -0.012796337 -0.08495671 0.05581924 -0.083271116 -0.049820315 0.06890701
-0.046625696 0.062225856 0.06242079 -0.02864582 -0.044855963 -0.040040437 0.052709892 0.09111924
0.0807422 -0.027208498 0.007713755 0.0065503423 0.06259195 0.013458235 0.07494402 -0.06290205
0.051714 0.012682603 0.0675817 -0.075845264 0.01551307 -0.016039915 -0.0396206 0.10045119
0.00038254063 -0.03941942 0.026763136 0.045500416 0.046451055 -0.05393049 -0.075002894 0.047950517
-0.0077460255 0.045230642 -0.0228112 0.053743474 -0.06168279 -0.028238917 0.017534811 0.055017058
0.030284988 -0.07690306 0.08581723 -0.055703677 -0.073588304 -0.04599907 -0.007806264 0.050226018
-0.05821169 -0.04219975 -0.022230504 -0.06656123 -0.08636074 0.039455038 -0.04261216 0.032722797
-0.039771598 0.056568425 -0.02490571 -0.043506034 -0.049267024 -0.018372413 -0.09316023 0.024338191
-0.033073615 -0.011652604 0.03786451 -0.053074192 0.035983924 0.07484222 -0.010053183 0.028673608
0.011842406 0.00018001148 -0.047602385 0.036080606 -0.057012234 0.049255323 -0.029555803 0.062068418
0.0016435783 0.07573368 0.054599073 0.028647745 0.050071236 -0.06993061 0.00068436324 -0.03793563
-0.033744648 -0.09582962 0.008998574 -0.06056354 -0.047405247 -0.09298669 0.10286335 -0.057653107
-0.007850109 -0.047271837 0.037540432 -0.068274796 -0.013405463 0.03222952 0.056483246 -0.08959583
-0.05341525 0.028471032 -0.021874333 0.014950823 0.039275564 -0.08285838 0.041649185 0.076220006
0.07312879 0.05366083 0.038643543 -0.090649314 -0.07173214 -0.018336806 -0.0552679 0.027747102
0.031748086 0.046822716 -0.06444776 -0.038004678 0.015512596 -0.07713602 0.013152476 0.05910214
-0.030366192 -0.06871408 -0.08155825 -0.026834194 -0.09065288 -0.049402125 0.03248638 0.057436265
0.03667775 0.042364895 -0.053002354 0.083750494 -0.012794375 0.11176932 0.029750178 0.06702515
0.0061587086 -0.033745013 0.06757899 -0.06359322 0.03747011 -0.03888829 0.09086187 0.041080017
-0.061318062 0.081982024 -0.100142874 -0.0022070461 0.024908798 -0.09936874 0.05508551 -0.11569089
0.0008635839 -0.021871146 0.00942372 0.02433358 -0.017138196 -0.07637524 -0.027484564 6.2184205e-07
-0.05654933 -0.030405581 -0.039078232 0.04386252 0.054553114 -0.02404106 -0.08237149 -0.038839117
0.06132417 -0.017411914 -0.015841076 0.08760921 0.053922836 -0.0058211545 -0.080600254 0.0786114
00000000: faf5 483d c9d9 3a3d 20f0 bb3d 4c43 b3bd
00000010: 0edc bebc 261e 3cbc 30a0 103d a503 293d
00000020: 9141 aabd f43f 41bd 5c21 af3d fdc9 cb3c
00000030: a8d4 d73d 51e1 4c3c 9493 babc 5d18 cd3a
00000040: a9cc 103d 9e32 a03b e66a 923c 407d 8dbc
00000050: 3337 ab3d 6b3a 843d 6a1c 49bb 2e09 283d
00000060: 1674 07bb 12f4 603d 12bd 65ba 8a68 813d
00000070: a61e 9d3c c298 383d 556b 34bd 9d12 313d
00000080: f97f 4d3c 4440 503b be48 71bd e1e2 a2bd
00000090: f4b7 bd3d 54e6 c03d 9eaa 79bc 6f03 133d
000000a0: a3f9 9b3d 3597 6a3d 94e4 1abd 9fc1 f93c
000000b0: ef72 d53c e080 323d 29fa 58bd 7978 e93c
000000c0: e3d1 c8bc 54f0 02bd 9956 91bd 8285 6a3d
000000d0: 445b 883d 9061 f5bc 894b 44bd 857d fcbb
000000e0: a50a 2bbd fa0d 013d f9ed 89bd e2c4 06bd
000000f0: 388a 243c c458 973b 37c5 9dbd 1661 7abc
00000100: 2fda b9bd 1f0c 023d baa7 51bc c9fd adbd
00000110: b7a2 643d 0c8a aabd 6310 4cbd 1e1f 8d3d
00000120: 96fa 3ebd 8ae0 7e3d f1ac 7f3d a4aa eabc
00000130: e3ba 37bd 7101 24bd 54e6 573d b99c ba3d
00000140: 2b5c a53d 5be4 debc abc3 fc3b 41a4 d63b
00000150: 3530 803d ee7f 5c3c 407c 993d cad2 80bd
00000160: 0fd2 533d b1ca 4f3c 4668 8a3d c354 9bbd
00000170: 882a 7e3c 2466 83bc 3649 22bd 5ab9 cd3d
00000180: bc8f c839 4276 21bd 5d3e db3c a55e 3a3d
00000190: 7643 3e3d 38e6 5cbd 1e9b 99bd c367 443d
000001a0: 5fd2 fdbb c443 393d 8ede babc 1e22 5c3d
000001b0: 18a7 7cbd 4d55 e7bc 2aa5 8f3c 9159 613d
000001c0: 3918 f83c 5a7f 9dbd f2c0 af3d 8a29 64bd
000001d0: 77b5 96bd 8569 3cbd b0cb ffbb ccb9 4d3d
000001e0: 626f 6ebd a5d9 2cbd bf1c b6bc 4151 88bd
000001f0: e6dd b0bd 9b9b 213d 178a 2ebd 5708 063d
00000200: 8be7 22bd 4bb4 673d 0f07 ccbc 6233 32bd
00000210: 38cc 49bd be81 96bc caca bebd e360 c73c
00000220: 3378 07bd 90ea 3ebc d117 1b3d 5364 59bd
00000230: e163 133d e146 993d 1bb6 24bc eae4 ea3c
00000240: a706 423c 77c1 3c39 b8fa 42bd 42c9 133d
00000250: a985 69bd f3bf 493d 031f f2bc 743b 7e3d
00000260: 566d d73a 421a 9b3d 47a3 5f3d adae ea3c
00000270: 7f17 4d3d c837 8fbd d766 333a 6462 1bbd
00000280: d437 0abd 5242 c4bd c16e 133c 7911 78bd
00000290: 012c 42bd ce6f bebd 05aa d23d aa25 6cbd
000002a0: be9d 00bc 1da0 41bd ffc3 193d a8d3 8bbd
000002b0: 96a2 5bbc 1a03 043d fa5a 673d 057e b7bd
000002c0: f3c9 5abd 153c e93c cd31 b3bc 4cf4 743c
000002d0: 6adf 203d a8b1 a9bd 5698 2a3d 3c19 9c3d
000002e0: 8cc4 953d 75cb 5b3d b148 1e3d 59a6 b9bd
000002f0: 4de8 92bd 1237 96bc 9860 62bd e44d e33c
00000300: 480a 023d 2dc9 3f3d 30fd 83bd cbaa 1bbd
00000310: 8b28 7e3c 7df9 9dbd 7c7d 573c 1615 723d
00000320: 85c2 f8bc f8b9 8cbd 0308 a7bd 62d3 dbbc
00000330: 38a8 b9bd e259 4abd 7010 053d 4a42 6b3d
00000340: 693b 163d d086 2d3d ff18 59bd 6185 ab3d
00000350: 809f 51bc 50e7 e43d a5b6 f33c 7b44 893d
00000360: fece c93b 3638 0abd da66 8a3d 2a3d 82bd
00000370: 427a 193d 5449 1fbd ca15 ba3d 8543 283d
00000380: a628 7bbd 31e6 a73d b517 cdbd 17a4 10bb
00000390: 890d cc3c d781 cbbd 58a1 613d 58ef ecbd
000003a0: 2262 623a 1e2b b3bc f265 1a3c 3757 c73c
000003b0: 6765 8cbc 9f6a 9cbd 4f27 e1bc a9ec 2635
000003c0: 45a0 67bd 2015 f9bc 7f10 20bd 30a9 333d
000003d0: 1673 5f3d c2f1 c4bc 62b2 a8bd c415 1fbd
000003e0: 0e2f 7b3d 6ea3 8ebc 25c5 81bc 756c b33d
000003f0: 31de 5c3d 62bf bebb bf11 a5bd 04ff a03d

hiddens.4.bias f4 [128]
0.0663279 0.024552764 0.05863711 -0.02849102 0.0067233206 0.022393452 0.010684533 -0.025629615
-0.02261457 -0.065626174 -0.0336753 -0.019388458 0.0076444135 -0.05742062 0.065493196 0.012372766
-0.005722478 0.043120533 -0.018821469 -0.04636784 0.033153515 0.035095148 -0.047638245 0.03927729
0.037994973 -0.04993213 -0.042269457 0.008216225 -0.010393316 -0.07315665 -0.041963518 -0.024055148
-0.024881057 -0.029130533 -0.07380473 0.055897254 -0.030974133 -0.057115056 -0.029626103 0.041316256
-0.03517328 -0.07077009 0.043261208 -0.019916033 0.031922914 -0.0025163933 -0.052031778 -0.021475388
0.0684278 -0.045117468 0.003558122 -0.024054999 -0.016005319 0.02794674 0.049358208 -0.024553813
-0.07483017 -0.07943828 0.03049307 -0.008111093 -0.008191753 0.022853252 -0.044429664 -0.053938586
-0.08595906 0.05846509 0.0132753365 -0.006098516 -0.0029846425 -0.077675715 -0.0711562 0.0013199861
-0.01540344 0.0719682 -0.02664646 0.05431082 0.060811173 0.06745869 0.04367988 -0.050524525
-0.031928044 -0.021344736 0.04954645 0.03355377 -0.034152523 0.040736172 0.011459242 0.062042266
-0.055755164 0.057762425 0.063398525 0.003173105 -0.036519006 0.08772365 -0.012918153 0.012738221
-0.040971585 -0.034328777 0.027781991 -0.02818636 -0.017068405 -0.008476175 -0.041688286 -0.028261036
-0.05548671 -0.04751434 0.0015656322 -0.085759014 -0.042153418 0.05386121 0.011793454 -0.051881123
-0.051472317 0.031101536 -0.024351133 -0.0408671 -0.051148657 -0.055209104 0.0701094 0.06329971
0.0008204366 0.07466338 0.029135982 -0.037732076 0.015050371 0.012890381 0.00892054 -0.033120677
00000000: ecd6 873d e122 c93c 772d 703d 0066 e9bc
00000010: 4d4f dc3b 7972 b73c 2e0e 2f3c 33f5 d1bc
00000020: 3142 b9bc 0467 86bd 1def 09bd 8bd4 9ebc
00000030: fd7d fa3b e231 6bbd 4c21 863d 24b7 4a3c
00000040: a083 bbbb 289f 303d 7b2f 9abc 34ec 3dbd
00000050: fbcb 073d eebf 0f3d 5220 43bd 39e1 203d
00000060: 9ea0 1b3d a285 4cbd bd22 2dbd 589d 063c
00000070: ba48 2abc 27d3 95bd f0e1 2bbd 4d0f c5bc
00000080: 5cd3 cbbc 28a3 eebc ef26 97bd 85f4 643d
00000090: 77bd fdbc 7af1 69bd 71b2 f2bc 3c3b 293d
000000a0: db11 10bd e9ef 90bd aa32 313d f326 a3bc
000000b0: 9ac1 023d 13ea 24bb 461f 55bd 27ed afbc
000000c0: e023 8c3d 18cd 38bd 622f 693b fd0e c5bc
000000d0: 961d 83bc 90f0 e43c d52b 4a3d 1425 c9bc
000000e0: 8f40 99bd 89b0 a2bd 9acc f93c 64e4 04bc
000000f0: b436 06bc be36 bb3c e1fb 35bd b5ee 5cbd
00000100: 4e0b b0bd 1779 6f3d cc80 593c 0fd6 c7bb
00000110: fe99 43bb 7214 9fbd 57ba 91bd 6203 ad3a
00000120: b65e 7cbc 1064 933d ad49 dabc 0675 5e3d
00000130: 2315 793d c827 8a3d ade9 323d cef2 4ebd
00000140: fbc6 02bd 28db aebc 38f1 4a3d ae6f 093d
00000150: 84e3 0bbd f9da 263d 8bbf 3b3c 0820 7e3d
00000160: 875f 64bd 4b98 6c3d 16d7 813d def3 4f3b
00000170: f494 15bd 75a8 b33d a9a6 53bc f9b3 503c
00000180: d2d1 27bd 559c 0cbd 0f97 e33c 15e7 e6bc
00000190: 0ad3 8bbc a8df 0abc 56c1 2abd b083 e7bc
000001a0: 0846 63bd 669e 42bd e635 cd3a 6ca2 afbd
000001b0: 10a9 2cbd 929d 5c3d 5539 413c 4d81 54bd
000001c0: a3d4 52bd a6c8 fe3c 077c c7bc 4364 27bd
000001d0: 4181 51bd f122 62bd 8495 8f3d 47a3 813d
000001e0: 9112 573a 1de9 983d 95ae ee3c f38c 1abd
000001f0: d595 763c 2d32 533c 7527 123c 8ca9 07bd
