python_skeleton/ai/small.pt (torch, 97153 bytes, 11 tensors)

input_layer.weight f4 [64, 104]
00000000: 0af6 b0bd 2618 78b8 6ef3 c53d bc94 3c3c
00000010: 46a5 8b3d 459a 993d e437 9ebd 8401 4a3d
00000020: fab9 713d b058 bfbd 6270 87bd 3798 013d
00000030: 1e54 313c ef51 a2bb d66e 89bd e5d8 8dbd
00000040: c652 76bc 63c6 623d 184a 39bc 1ef3 7abc
00000050: 6ae9 8bbd f4e5 2cbd 9f6c 2c3d 8ede 4d3d
00000060: 95c7 e4bc ff7d 553d f567 a9bd 8333 103c
00000070: e045 b03d 5961 873d f08b 7fbd e954 1e3d
00000080: c0e5 77bd 751b 273d 51de 05bd 4fb9 a0bd
00000090: 8d2f cb3d ceb8 b9bd 2571 193b 9feb f3bc
000000a0: 7c02 873d 5054 77bd 6f50 9dbd 8e32 a63d
000000b0: 26eb c43d 9b2b 3d3d 63d2 c5bc 82d6 a2bd
000000c0: 428c 78bd b551 543d c4fd 42bd 243b ddbc
000000d0: bfc9 723d 4f00 9b3d 55c9 bb3d 1af7 e13b
000000e0: c6b9 2a3d f246 e73c 9b74 ffbc ea7c 94bd
000000f0: d0ad 9ebd 1b61 66bd ce83 98bd 3b49 5cbd
00000100: 4eda fcbc 6c1b b9bd 93fa 5f3c dcfe 6ebd
00000110: f56c 1d3d 9162 07bc 8256 c03c 495c 033c
00000120: 4830 a2bc d02e e43c 12ef 5d3d 9627 13bb
00000130: e9bc 9b3d b97f c63c ad5e a5bd 2b91 76bd
00000140: 311b 42bd 13b6 903c 2d68 8cbc 7066 a8bd
00000150: 0c19 b23c c52b 8b3d 22e9 b73d b74a b83d
00000160: 77cb 183d 7c9d e4bc ef66 96bc 6a79 773d
00000170: d39a 0d3d 4c59 5cbd 99df acbd 0854 3f3d
00000180: d62b 88bb 5abc eb3c 1467 8d3c 792e 753c
00000190: 08fd 413b 268a 83bd c4d5 89bd 4e64 9ebc
000001a0: c5cd 883c 1f4d 03bc 4176 25bd bd7f 82bc
000001b0: c2c3 84bd 97b3 c2bc 00f7 c23d 8bae 26bd
000001c0: 5d0a 0c3d 94a1 523d edd4 3ebd 0e3d 0bbd
000001d0: 891f ad3d cddd 04bd 5f32 8ebd 34fe f5bc
000001e0: 8e69 bd3d db36 e03b 7152 653c 5703 8ebc
000001f0: dc75 af3d a104 0e3b f1e4 afbd 7a72 e6bc
00000200: 02c7 0c3d 31ab a03d 5cf9 39bb 7610 08bd
00000210: bb19 853d 636a 4b3d 264c c8bc d229 943d
00000220: 7d7c c43d 29fd ef3c 101f 8cbd 2ffa 40bd
00000230: f36d ad3c a88d 933d dc91 4b3d 0940 333d
00000240: 1e93 8ebd e960 55bd f734 3a3c f2cc 4abd
00000250: 73c0 853c cbd5 b53d 68a9 9a3d 629e 293d
00000260: 8cff acbd e2ca 3a3d 5eea c4bd c5d3 92bd
00000270: 2962 0c3d 8d73 c93d f691 0d3d d614 023c
00000280: 68c2 e8bb c1ba b5bd 87ad 123c 7d46 ea3c
00000290: 194e c7bc 43ef 7bbd 43b5 b23d 56db 983d
000002a0: 4d8a c23b 0915 abbd 73ba aabc 193c ab3a
000002b0: 71cf 5a3d cb1c 633d 51bf 59bd 2689 67bc
000002c0: a378 c2bd 1b8c 9ebd f61f 36bb 70c2 54bd
000002d0: 2fac 893d 6d12 783d ea81 c2bd 9e26 33bd
000002e0: 12e0 1e3c 25db ffbc 7194 bdbd d0fe ffbc
000002f0: 6f8e fd3c 6790 0f3d 8394 753d 4cde 5e3d
00000300: 3e45 62bd 5137 8cbd e051 b0bc 8893 99bd
00000310: 0a79 6a3d 636d 913d 569f b2bb 126d 9c3d
00000320: e011 0f3d 383f cfba 00b5 0ebd ea7a bfbd
00000330: 6bd2 a9bd fcec f03c da17 b53d d682 9ebd
00000340: 9905 cbbd a083 833d a8ed 223d 69f7 d43c
00000350: 45c7 ce3d 6067 bcbc 7f8a 45bd bda0 53bd
00000360: 1fbd 363d e49d 21bc b798 15bd 81d3 713d
00000370: 22ab 243d 31b7 dd39 05a6 78bd b101 943d
00000380: 40b9 f6ba 374a 803b 890a 48bd d5af c43d
00000390: e078 4ebd b6f1 93bc 3f5c 9e3d 444a 503d
000003a0: d290 e93c fe5e a3bd c928 13bd a042 d2bc
000003b0: b00e f13b 9afd bb3d 7ac1 173d 5962 57bc
000003c0: 8744 bebd df79 a23c 5d58 993c 120b 2d3d
000003d0: 7973 67bd 2daf c6bd 57bf abbd a49e 583d
000003e0: a8f4 f0bc 1e11 9dbd 15bd 4d3d 8250 c23d
000003f0: a930 6e3d 94c7 c53a e5cc 67bd 85f8 17bd
-0.08640678 -5.9150298e-05 0.09665571 0.01151007 0.06818633 0.07500128 -0.07725504 0.04931785
0.05901525 -0.09343088 -0.06613232 0.031639304 0.010823278 -0.004953615 -0.067105934 -0.06926135
-0.015034383 0.055364978 -0.011309169 -0.015316753 -0.068316296 -0.042211488 0.042095777 0.050261073
-0.0279272 0.052122112 -0.08271781 0.008801344 0.086070776 0.066103645 -0.062389314 0.038655195
-0.06052184 0.04079767 -0.03268272 -0.07847845 0.09921179 -0.09068452 0.0023413387 -0.029775439
0.06592271 -0.06038314 -0.07681357 0.08115111 0.096151635 0.046184164 -0.024148172 -0.0795107
-0.060680635 0.051835734 -0.04760529 -0.02700574 0.05927443 0.07568418 0.091692604 0.006895912
0.041681074 0.028232072 -0.031183532 -0.07250388 -0.07747996 -0.05624495 -0.07447015 -0.053780776
-0.030865815 -0.090384334 0.013670581 -0.05834852 0.038433988 -0.008263246 0.02347875 0.008017608
-0.019798413 0.027854353 0.054183073 -0.0022454015 0.07604391 0.024230825 -0.080746986 -0.060197037
-0.047389213 0.017664945 -0.017139519 -0.082226634 0.021740459 0.06795458 0.089800134 0.08998626
0.037303414 -0.027907126 -0.01835963 0.060418524 0.03457148 -0.053796098 -0.08441085 0.046710998
-0.0041556163 0.028776336 0.017261066 0.014964693 0.0029600281 -0.06422834 -0.06730226 -0.019334938
0.016699681 -0.008013993 -0.04039598 -0.015930051 -0.0648265 -0.023767276 0.09519768 -0.0406938
0.03418957 0.051423624 -0.04658978 -0.033993773 0.084532805 -0.03243809 -0.06943201 -0.03002844
0.092486486 0.006842477 0.013996706 -0.017335577 0.08567402 0.002167024 -0.08588589 -0.028130759
0.034369476 0.07845152 -0.002837739 -0.033218823 0.06499048 0.049662005 -0.024450373 0.07234539
0.09594057 0.02929552 -0.06841862 -0.047113594 0.021170592 0.07204753 0.04969965 0.04376224
-0.06961654 -0.052094374 0.011365167 -0.049511857 0.016327119 0.088786684 0.07551843 0.04141081
-0.08447179 0.04560364 -0.096150145 -0.07169298 0.0342733 0.09836493 0.034563027 0.007939538
-0.007103253 -0.08873511 0.008952505 0.028598065 -0.024329232 -0.061507475 0.08725979 0.0746371
0.005936897 -0.083536215 -0.020840859 0.0013064175 0.053420488 0.05544738 -0.05316097 -0.01413182
-0.09495666 -0.07741567 -0.0027790046 -0.051943243 0.067222945 0.060564447 -0.094974354 -0.043738
0.009696977 -0.031232426 -0.092568286 -0.031249434 0.030951707 0.035049822 0.059956085 0.054411218
-0.055241816 -0.06846488 -0.021523416 -0.074988425 0.057244338 0.07100942 -0.005451123 0.07637991
0.034929156 -0.0015811687 -0.034840584 -0.09349616 -0.08292087 0.029409878 0.0884244 -0.07739799
-0.09913177 0.0642159 0.039777428 0.02599688 0.100966014 -0.022998512 -0.048227783 -0.051666964
0.044613954 -0.009864304 -0.036522593 0.059039596 0.040202267 0.00042288893 -0.060705204 0.07226885
-0.0018823519 0.003915097 -0.048838172 0.0960385 -0.050408244 -0.018059593 0.07732438 0.050852075
0.028511439 -0.07977103 -0.035927568 -0.025666535 0.007356487 0.0917923 0.037049748 -0.0131460065
-0.09290414 0.019833503 0.018718893 0.042246886 -0.056506608 -0.09701381 -0.083861046 0.052885666
-0.029413536 -0.076692805 0.05022915 0.09488012 0.058151875 0.0015089386 -0.056591887 -0.03710224

input_layer.bias f4 [64]
00000000: daf5 ddbc af8f a0bc 9844 263d d406 bebd
00000010: dd41 a9bd 2acf 37bc 3e2d 8abd 972f a6bc
00000020: 9d15 a73d 695f ac3d d051 9ebd 689d 20b9
00000030: 6052 5ebd d561 183c a6b0 813d 9c63 803d
00000040: 286f 2cbd 343a eabb 9749 8e3d 257e 96bd
00000050: faf7 a5bd d225 b23d 2f5e af3d 2462 7bbc
00000060: 730d 683d 3c08 07bd f001 a03d a89f 8b3c
00000070: 4125 febb 8d0c b1bd 0003 08bd 93c0 b6bd
00000080: 8326 64bc d2d8 7a3d a96f 743c 1b92 c83c
00000090: e0cf 24bd 6599 3abd c2f9 17bc ecfe 92bd
000000a0: dbaf c1bc 2455 493c abfc 19bc bf24 eabc
000000b0: 96a2 2abd e1f2 b03c caea b63d 8d6a 87bd
000000c0: 3572 58bd 32e7 823d 7f77 96bd 7e0d b83d
000000d0: ac43 a93d ed77 0abd 5811 553d bf6b c9bd
000000e0: a7cb a2bd f435 7f3d f593 683d 54db e83c
000000f0: 0991 693d 1cb9 7c3d 3a6e ef3c be43 2fbd
-0.02709477 -0.019599764 0.04059276 -0.09278646 -0.082645155 -0.011218825 -0.067469105 -0.020286364
0.08158419 0.084166355 -0.07730448 -0.00015317427 -0.054277778 0.009300669 0.06332521 0.06268999
-0.042098194 -0.0071480516 0.0694763 -0.07348279 -0.081039384 0.0869862 0.08562886 -0.015343223
0.05665345 -0.032966837 0.078128695 0.017043903 -0.007755906 -0.08644972 -0.033205986 -0.08923449
-0.0139251975 0.061241932 0.0149192 0.024483731 -0.040237308 -0.045556445 -0.0092758555 -0.07177529
-0.023643425 0.0122883655 -0.00939862 -0.028581975 -0.04165896 0.021600189 0.08931501 -0.0661212
-0.05284329 0.06391753 -0.07347011 0.089869484 0.082648605 -0.033805776 0.052018493 -0.09835004
-0.07949 0.062307313 0.056781728 0.028424896 0.057023082 0.06169997 0.029227365 -0.042789213

hiddens.0.weight f4 [64, 64]
00000000: 7696 87bd 1594 323d 2d2e d93d c1bc c63d
00000010: 88e3 5d3b e541 453d 9689 af3c 6366 b9bd
00000020: 6068 083d e2d5 e3bd 56c8 843d 9e75 123c
00000030: 0585 c7bd 5e83 ebbd d998 00be 34b2 2dbb
00000040: 9571 e7bc da62 b13d c27b 913d b63c 96bd
00000050: af8c 97bd 51bc 043d 4b06 1abd a976 fe3d
00000060: 0013 05bb 4633 403d 6cab a9bd 8650 d13d
00000070: aba4 bbbd e609 f33d f139 f4bc 8eff 8f3c
00000080: 73f6 fa3c 65ff 9d3c 2838 5b3d 4921 8bbc
00000090: c05b 75bd 146f c23d ce51 e13d 233e 51bd
000000a0: 23fc c63d 45fe 7f3d 5601 883d adb5 9d3d
000000b0: ac2c 5d3d 724c 483d 2a08 0a3d e5ee bd3d
000000c0: 4ff4 dc3d 09c3 4dbd 5420 c1bc 05dc a7bd
000000d0: 9663 8fbd 5445 bcbd f0d9 7f3b 036d 853d
000000e0: 312d 53bd ea63 d0bd cd06 b6bd afa8 c3bd
000000f0: a27f aebc 1f04 f6bb ec9e 73bd 80ec 3dbb
00000100: 806a e63d 329b 78bd 1327 8bbb 2267 1dbc
00000110: 32a5 273d b649 033d 41dd 363d ff9f a5bd
00000120: 5cfd 573c 6d28 dcbc fc9c 493c bfa4 07bd
00000130: 1367 5ebd 795a f03d 6c9a 513c f9bc 35bd
00000140: 1b56 b13d 3ebe ba3d 820e f33c 1496 c13d
00000150: 8ae9 8fbd 096d d23d 880b 433d 8997 9a3d
00000160: e40c 9a3d 407d fa3c 2184 ca3c 7c0f abbd
00000170: 29ee dfbd 53eb 44bd 7aff 863d a900 fcbc
00000180: 3fef babd 2d04 e63c 8395 18bd 5c95 773d
00000190: d8ae 1fbd e76b ce3d 41b2 a33d e0f1 f63d
000001a0: 7db3 c0bd 7d63 333b 1404 e7bd 35ad 23bd
000001b0: 1061 4abd 788d 5e3d feb1 863d 6c2d bc3d
000001c0: 920c 9c3d 4770 933b 9beb b43d 2e40 f9bd
000001d0: 1b6e ccbd ac93 f73d edde e8bd 9988 b03d
000001e0: 7eaa 29ba cce0 0c3a ba50 d83c 53cb 1cbc
000001f0: cedb 803d a423 febd 0c76 3dbc b082 2bbd
00000200: 6409 c03d 1f6a 2bbb a907 0fbd 0f9f c13d
00000210: 6aab 503d ffda 643d d919 3d3d 53a2 83bd
00000220: 933f e8bd d6ee 5f3d f1ad 83bb e237 b4bd
00000230: 222f 453d 6c63 74bd bf6d 3f3c 1ced ea3d
00000240: 5ba1 ecbd a43c a63d 4928 f7bd a975 f3bd
00000250: e1bd d3bd d07c babd 4cc3 fc3d 8344 cebc
00000260: d007 9ebc b1e0 503d 73a2 b93d 1d2c 873c
00000270: cce4 81bc 423f 97bc 94bd 7c3d 2ed4 27bd
00000280: d462 f23d 16d8 a3bd 78b5 19bd 893c 49bd
00000290: ad04 3dbd b316 c73d c3aa 8b3d 6b75 a1bc
000002a0: 0c94 9a3c a1d9 acbd 3b20 4e3d d68e f8bb
000002b0: 5fc7 eb3c 568b 3bbd 932b 523d 9660 7bbd
000002c0: e5fe 543d 7b1a e43a e632 9f3c 66e7 c43d
000002d0: 9c44 c93c 0e03 b63d 727f a23c a226 fbbd
000002e0: 532e c73d 658f 4fbd c981 cf3d cf04 33bd
000002f0: a009 ebbd 9f58 7ebc 3b68 b7bd f80c e9bd
00000300: 979f 8d3d e677 d5bd e716 eb3c ba9c 71bc
00000310: 248c 2ebd 733e de3d f5c1 953c 8781 e73d
00000320: 5aa7 413c 7b89 5dbb d71d 5f3d a9ff fd3d
00000330: a3ad 473d 93f8 aebd ec1b 323d 6fc9 e53d
00000340: 4195 1d3d 724e e03d abd1 163d 02f5 22bd
00000350: dbd4 ddbc be6e b4bd 4a60 8ebd 7d44 04bd
00000360: b112 57bd 7e9f 333d a259 d93c af6e 91bb
00000370: 6a7a b33c 64c6 d43c ca5e cf3d a9d4 c3bd
00000380: 17df c7bd c145 a6bd 029a 393c 1531 1c3d
00000390: cc91 d13c e263 a43d aaa3 e7bb 4d3c e5bc
000003a0: 3a4d 8a3d 582d c53d e990 823d 9961 fa3d
000003b0: 6471 073d daec 16bc 285d dabd f08a b13d
000003c0: 7534 b4bd 57dc ddbd db32 2ebd e756 3e3d
000003d0: 2d99 42bd 1ea8 2cbc aa81 d23b c317 3d3c
000003e0: adc7 be3d 33e5 643d 3f15 8cbd 15f0 c1bd
000003f0: 49c2 f1bd bdc7 9ebd 7e73 f9bd 73ac f33d
-0.06620495 0.043598253 0.106045105 0.09703971 0.0033857543 0.048158545 0.02142791 -0.09052732
0.033302665 -0.11124779 0.064835235 0.008939175 -0.09742168 -0.11499666 -0.12558307 -0.0026503922
-0.028252402 0.086614326 0.07103683 -0.073357984 -0.0739988 0.032406155 -0.037603658 0.124249764
-0.0020305514 0.0469239 -0.08284649 0.10220437 -0.09162267 0.11867122 -0.029812785 0.017577913
0.030635094 0.01928682 0.05352035 -0.016983645 -0.059901953 0.09493843 0.11001931 -0.05108465
0.0971606 0.06249835 0.0664088 0.077006675 0.05399768 0.04890103 0.033699192 0.09274081
0.10788786 -0.05023483 -0.023574986 -0.08196262 -0.070014164 -0.09192911 0.0039039813 0.06514933
-0.05155677 -0.10175307 -0.08888016 -0.09553658 -0.021301094 -0.0075078155 -0.05947773 -0.0028980076
0.11250782 -0.06069488 -0.0042466014 -0.009607108 0.040929027 0.032052718 0.044644598 -0.080871575
0.013182964 -0.026874745 0.012305494 -0.0331161 -0.054297518 0.11736006 0.012793165 -0.04436967
0.086590014 0.09118317 0.029670004 0.09452453 -0.07026966 0.10274703 0.04761842 0.07548434
0.0752199 0.030577302 0.024721207 -0.08352563 -0.10934097 -0.048075985 0.06591697 -0.030762034
-0.09127664 0.028078163 -0.03725196 0.060445175 -0.038985103 0.100791745 0.079929836 0.12057853
-0.09409235 0.0027372532 -0.11280075 -0.039960105 -0.049408972 0.054334134 0.06576918 0.09188351
0.07619585 0.0044994685 0.08834001 -0.121704444 -0.099819385 0.12088713 -0.11370645 0.08619804
-0.00064722437 0.00053740735 0.02640568 -0.009569961 0.062919244 -0.12409142 -0.011563789 -0.04187268
0.09376791 -0.0026155782 -0.034919415 0.09454166 0.050944723 0.055872913 0.04616723 -0.06427445
-0.11340251 0.05467113 -0.004018538 -0.08799721 0.048140652 -0.05966513 0.01168388 0.11471006
-0.115542136 0.08117035 -0.12068231 -0.11887676 -0.10338951 -0.09105837 0.123419374 -0.025179153
-0.019290835 0.050995532 0.09064188 0.016500527 -0.01585617 -0.01846278 0.061704233 -0.040973835
0.11835256 -0.080001995 -0.037526578 -0.049129996 -0.046147037 0.097211264 0.068196796 -0.01970931
0.018869422 -0.08439947 0.050323706 -0.0075853867 0.028781591 -0.045787178 0.051311087 -0.06137141
0.0520009 0.0017402911 0.01943345 0.09614448 0.024568848 0.088873014 0.019836161 -0.12263228
0.097256325 -0.05067386 0.101321764 -0.043705758 -0.11476445 -0.015524059 -0.08955427 -0.11379427
0.06915205 -0.104232594 0.028697444 -0.014746839 -0.042614117 0.10851755 0.018280962 0.11304002
0.011819685 -0.0033803869 0.054471817 0.12402279 0.048749577 -0.085435055 0.04348366 0.11220061
0.038472418 0.10952462 0.03682105 -0.03978444 -0.027079036 -0.08810185 -0.069519594 -0.032291878
-0.05250806 0.043853275 0.026531998 -0.0044382433 0.021908958 0.025973506 0.101255015 -0.09562046
-0.09759348 -0.08118773 0.011328222 0.038132746 0.025582217 0.08026864 -0.007069071 -0.027982855
0.06753011 0.09627789 0.06375296 0.122256465 0.033067122 -0.009211743 -0.106622994 0.08669078
-0.08799068 -0.10833042 -0.04252897 0.046469595 -0.04750936 -0.010538129 0.0064241486 0.01154131
0.09315429 0.055882644 -0.0683999 -0.0946962 -0.11804635 -0.07752941 -0.121802315 0.118981265

hiddens.0.bias f4 [64]
00000000: b41f 9abd 51c7 07bd 94b5 863d 6302 1bbd
00000010: eb28 713d 5dba 2dbc a28f 7d3d 350f 78bd
00000020: 0fbd 2f3c 4d8e 893d 0444 15bd d71c febc
00000030: 96f8 71bd bb48 1fbd 6497 0e3d e911 5e3d
00000040: 400a 88bd 132d 403d de45 98bd c03e f4ba
00000050: 3f8c f63d b4c8 ec3c 72e5 debc 9929 03bb
00000060: 47ce 80bd 855c e6ba 9123 ebbd 6e8b 993d
00000070: d73a 9ebd 80db cfbd 8a82 8ebd f24f d83d
00000080: 0995 86bd 5fd1 a73d 288c 333c 5756 a1bd
00000090: 0711 8c3d 3a66 75bc d474 90bd 1156 673d
000000a0: 773c d9bd 8541 0e3d 37e9 40bd 12fb 003d
000000b0: da5d d2bd e5fd 5b3c 766d c83d 3fd7 c73d
000000c0: be4f 913d 7477 ed3d 690c 093d 3659 a7bd
000000d0: 1dab 4dbd c4bb f9bd 80d0 2cbd addc b7bd
000000e0: bedf b4bd 0463 833d 5836 78bd e07f b23d
000000f0: 82eb cdbc 9621 ba3d de6b 3a3d b299 e03c
-0.07525578 -0.033149067 0.06577602 -0.037844073 0.058876913 -0.0106035145 0.061904557 -0.060561378
0.010726227 0.06716595 -0.036441818 -0.031019611 -0.05907496 -0.03888772 0.034812346 0.0542163
-0.0664258 0.046917986 -0.07435201 -0.0018634424 0.120384686 0.028904296 -0.027209017 -0.0020013808
-0.06289344 -0.001757518 -0.11481393 0.07497297 -0.077260666 -0.10149288 -0.06958492 0.10562123
-0.06571395 0.08194231 0.010958709 -0.07877796 0.06839185 -0.014977986 -0.07053533 0.056478564
-0.10607236 0.034730453 -0.04709741 0.03148944 -0.10271807 0.013427232 0.09786503 0.09757852
0.07095288 0.115950495 0.0334591 -0.081713125 -0.050212014 -0.121940166 -0.04219103 -0.089776374
-0.08831738 0.0641537 -0.0605987 0.087157965 -0.025136713 0.09088437 0.045513026 0.027417038

hiddens.1.weight f4 [64, 64]
00000000: 4ffb db3d 7416 033d c2e6 ac3d 1831 a3bd
00000010: 1583 bf3c d09b 85bd e946 87bd bb1e e43c
00000020: bc9d 41bd 3f86 79bd cd1f f6bc 4058 4b3d
00000030: 4e16 c03b 9521 963d 19db a0bd 8b34 7ebc
00000040: 5a2b c8bc ca38 cd3c f616 88bd b40b 71bd
00000050: 4e93 abbc a18d 9dbd c266 0e3b 396f fcbc
00000060: dbb6 c33c 7280 f2bd fad7 fa3d 7cb1 dfbd
00000070: 43f4 babc 9802 99bd 30df f43d 92e2 bdbc
00000080: 4948 f8bd e99e b4bd 1a2d f2bd 83c0 563d
00000090: a7db a43d 2a81 873d 3c51 c03d 2b79 ec3b
000000a0: a78d dfbc 26da 983d fabc 053b 8bc9 763c
000000b0: 1dd8 fcbc 60dd 66bd e2b6 2d3c 7f50 c5bc
000000c0: bd7c 66bd 442f 073d f4e9 01be 0132 a2bc
000000d0: 5834 87bd bdfe 943d 8705 0b3d 0a3a b8bd
000000e0: 4764 003c e03f a0bd 3ded 223d c154 df3d
000000f0: 4c2a 02be 9ac2 8e3d 72e9 d83d b794 1abd
00000100: 720b 8b3d e1f6 a5bc 5633 fbbd 7730 873d
00000110: fbf8 e4bb 9375 f6bd cb16 ef3d 3698 c63d
00000120: 15cd e8bd d90a b0bd 4d89 81bd 3264 b5bd
00000130: d592 bd3c d393 373c 65e9 aabc 354f ed3d
00000140: 7989 cc3c b3be 37bb d725 0f3b d9e6 f63d
00000150: 119d 973d daeb 66bc a7d9 ebbd dc5b 863d
00000160: 7e0e b2bd 57b7 d3bb 3484 bfbd f809 97bd
00000170: 1624 6bbb 1eda d7bc 5241 26bd 374e 9f3d
00000180: d284 e9bd 433d ad3d bad2 833d 8045 abbd
00000190: 6da9 5abd 3ea5 acbd 6e15 8d3d 14fa 09bd
000001a0: edc8 603d 2922 463d 4d2c cd3c f3ef e8bd
000001b0: 0553 d23c e2bd 513d 5d70 f8ba bfc1 333d
000001c0: ba3d 833d 9df0 c43d 9960 01bd c639 563d
000001d0: f480 d03d 6df9 cebd f993 e2bc 4474 f8bd
000001e0: 3738 5fba d5d6 e83c f1d3 97bb 4f4f b23d
000001f0: f557 b53d 64a7 b8bd 50ec 92bb 713a 473d
00000200: 26f4 84bc 8420 e0bc 4c06 a6bd 5c1d 903d
00000210: bd79 273d b3dc 983d f858 af3d 5590 c73d
00000220: 9322 cb3d 695a cdbd dba6 713c 0482 af3d
00000230: 596f 5abd 33a9 a9bc e161 ea3d b1d6 833d
00000240: 4838 233d 6242 81bc e7b7 fa3c 29cb f3bc
00000250: 373e 48bc 314a 0cbd 2c28 e33d 6ecc 38bd
00000260: a662 e53d 863f 953d e04f b7bc 3db5 b8bd
00000270: 1dd5 31bd b3d7 f3bd e1dd efbd d1f2 7dbc
00000280: 8f52 e9bd a7c9 2ebd 1bd6 f6bd 3b40 67bd
00000290: ffc0 d3bd 179d 433d 85b5 6dbd 7b96 85bd
000002a0: fec1 20bd 05b8 a43a f033 d43d 368b 8dbb
000002b0: 575e b3bd ad9b 013d 706f e1bd ee4d 733d
000002c0: c37b 28bc 7e2e d2bd 3592 29bd 63fe 92bd
000002d0: 1073 433d 1e2a 9e3d 3518 e53d 57f6 f1bc
000002e0: c11e f83d 6355 d43d 29c0 c73c 84ac 5c3d
000002f0: f0a0 f2bd e76c 813d 647c be3d 574e ba3d
00000300: 7885 883b 600f 3dbd 415b ba3c 7f42 9cbd
00000310: bdc5 803d 3f7a c0bd 8623 d1bd b7b0 9e3b
00000320: 5d61 ddbc e13d bc3d dfc6 43bd 9ab2 513d
00000330: 266f db3d 3678 633d 5b91 8d3d fcd4 25bd
00000340: 5c18 e5bd 4550 0bbd 486e 9b3b 13a8 a4bb
00000350: 7bbc 09bd f1f5 b4bd c94f 0ebd 09ed c4bd
00000360: 87c9 343d a923 30bd 2f0f cb3c e674 ebbd
00000370: 5676 d6bd 0920 2b3c 3216 33bd 73b8 46bd
00000380: c7b4 373d f121 273c d9ab 93bd 5fd5 7fbd
00000390: 48a0 87bd 0948 84bd af1c bfbd e232 bbbd
000003a0: 98b2 353d de3e 6d3d c0a4 10bd 60bf b1bd
000003b0: 80cb 48bd a3a4 84bd 3c1f 20bd 33d1 60bd
000003c0: 0dac adbd 0722 233d 2d0f f83d 0223 08bd
000003d0: e652 dd3c 4b68 0c3d f21e e63c 4504 213c
000003e0: 3dc1 c03d 5795 f23d f691 1a3d 7393 413d
000003f0: e06a d0bd 74a2 a93d 0a12 afbd 66f0 98bd
0.10741293 0.032003835 0.08442451 -0.07968348 0.023377934 -0.065238595 -0.06605322 0.027846685
-0.047269568 -0.060919043 -0.03004446 0.04964471 0.005862034 0.07330624 -0.078542896 -0.015515457
-0.024434734 0.025051493 -0.066450045 -0.05884905 -0.020944264 -0.07693029 0.002172873 -0.030814754
0.023890903 -0.11840905 0.122482255 -0.10922524 -0.022821551 -0.07471198 0.11956632 -0.023179326
-0.12123162 -0.08819372 -0.11825009 0.052429687 0.08049708 0.06616433 0.09390494 0.007216593
-0.027289225 0.074634835 0.0020406828 0.0150627 -0.03086477 -0.056363463 0.010602685 -0.024086235
-0.056271303 0.03300406 -0.12686902 -0.019799234 -0.06601781 0.0727515 0.03394082 -0.08995445
0.007836408 -0.07824683 0.03977703 0.109048374 -0.12711447 0.06970711 0.10591401 -0.03773948
0.067892924 -0.020259323 -0.12265651 0.06601041 -0.0069876886 -0.12034144 0.11674269 0.09697001
-0.11367241 -0.08595819 -0.06325016 -0.08857001 0.023141304 0.011204678 -0.020863244 0.11587373
0.024967896 -0.002803725 0.0021842623 0.120557494 0.07403005 -0.014094317 -0.11516123 0.065604895
-0.086941704 -0.006461065 -0.093513876 -0.07374948 -0.0035879663 -0.026349124 -0.040589638 0.0777859
-0.114022866 0.0845895 0.06436677 -0.083628654 -0.053384233 -0.08429955 0.06888853 -0.03368576
0.054879118 0.04837242 0.025045538 -0.11373892 0.025674352 0.051206477 -0.0018954385 0.043885943
0.06408258 0.09616206 -0.031586263 0.05230119 0.10180846 -0.10106168 -0.02765845 -0.12131551
-0.00085151516 0.028422752 -0.0046334197 0.08706533 0.08854667 -0.09016302 -0.004483737 0.04863972
-0.0162297 -0.027359255 -0.0810667 0.0703685 0.040887583 0.0746397 0.08561891 0.09744326
0.09918704 -0.1002701 0.014749254 0.085697204 -0.053328846 -0.020710563 0.1144445 0.064374335
0.039848596 -0.015778724 0.03060527 -0.02975996 -0.012221864 -0.034250442 0.110916466 -0.045116834
0.11200456 0.07287507 -0.022376955 -0.090189435 -0.04341613 -0.11906376 -0.11712242 -0.0154997865
-0.113927 -0.04267278 -0.12052556 -0.05645774 -0.103395455 0.047757234 -0.05803444 -0.065228425
-0.039247505 0.0012567049 0.10361469 -0.0043195738 -0.08758228 0.031642605 -0.11007583 0.05940049
-0.010283413 -0.10262774 -0.0413992 -0.07177427 0.047717154 0.07722877 0.11186258 -0.02953641
0.12115241 0.10367849 0.024383621 0.05387546 -0.11847103 0.063195996 0.093010694 0.090969734
0.0041663013 -0.04615724 0.022748591 -0.076298706 0.062877156 -0.093983166 -0.10211854 0.0048428434
-0.027023965 0.0919149 -0.04779708 0.05119572 0.10714559 0.055534564 0.0691249 -0.04048632
-0.11186287 -0.034012098 0.004743371 -0.005024919 -0.033627015 -0.08835972 -0.034744058 -0.09615523
0.044137504 -0.04300276 0.024787514 -0.11496906 -0.104717895 0.0104446495 -0.04372234 -0.04851575
0.044850137 0.010200963 -0.07210512 -0.062459346 -0.06622368 -0.06459052 -0.09331643 -0.091405645
0.044359773 0.057921283 -0.035313368 -0.0867908 -0.049022198 -0.064767145 -0.039092287 -0.054887008
-0.08480082 0.039827373 0.121122696 -0.03323651 0.027017068 0.03427915 0.028090928 0.009827678
0.09411857 0.118448906 0.037736855 0.04725976 -0.10176635 0.082829386 -0.085483626 -0.07467727

hiddens.1.bias f4 [64]
00000000: a7ca 613d 6366 7e3c a447 8c3c 3ee6 ad3d
00000010: 0f26 54bd 4a93 3dbd 3457 8a3d bdaa a4bd
00000020: 26be 0e3d 23b1 fabc 164c fb3d 2bb2 113d
00000030: 5f41 aa3c b4a5 19bd 50ff 193c 532f 32bd
00000040: 2046 dc3c d9e9 b63d 1587 d03d b335 95bd
00000050: 369b d03d 960b 03bd b101 7b3d dc36 87bd
00000060: 5228 35bd d22d 103c a57a fabc a5c5 b83d
00000070: 38ec 7abd 2c59 cf3d b5b9 9cbc 1b9f df3d
00000080: d238 a53d 1e2a 9d3d e5aa a73d 5f14 acbc
00000090: cf63 ae3c 8907 8d3d 4ad4 95bd ad77 b3bd
000000a0: e554 16bd c770 383d 9e4a 03bd 5333 303d
000000b0: 8f65 803c e159 353d f765 133c 3cce 57bd
000000c0: e6f2 ad3d 95e8 c9bd 4810 043d da51 0a3d
000000d0: b7be f8bd 972f c03d 59c8 c13d d981 d9bd
000000e0: ec35 8abd ab03 373d 863f a8bd 5492 e4bd
000000f0: 0040 453d bb2e 0b3d 5ead d73c 8982 df3d
0.055124905 0.015527341 0.017124005 0.08491181 -0.051794108 -0.046283044 0.06754914 -0.08040378
0.03484931 -0.030602043 0.122703716 0.035570305 0.020783124 -0.037511542 0.00939925 -0.043502163
0.026888907 0.08931322 0.10182015 -0.07285633 0.10185854 -0.03199347 0.06128091 -0.066022605
-0.044227906 0.008799987 -0.03057606 0.09022073 -0.061260432 0.1012443 -0.01913152 0.10919019
0.08067478 0.07674049 0.081868924 -0.021005807 0.021287827 0.06886203 -0.073158816 -0.08763061
-0.036702055 0.045029428 -0.032053582 0.043017697 0.015673427 0.04427517 0.008996478 -0.052686915
0.08493595 -0.098588146 0.03224209 0.033769466 -0.12145751 0.09384077 0.094620414 -0.106204696
-0.06748566 0.044681232 -0.08215241 -0.111607224 0.04815674 0.033980113 0.026327785 0.109135695

hiddens.2.weight f4 [64, 64]
00000000: e4ae a4bd 2ca1 723d 1f1d 14bc 872f a23b
00000010: a548 abbd 319e de3c 7e9e 983d 807d 533d
00000020: 2420 27bd 41b7 f6bd dbee fc3b b9f0 493d
00000030: 3cc8 9d3d e586 9b3d 2523 03bd cf58 9cbd
00000040: d9d3 aebd e82b 413d 6016 4bbd 7082 893d
00000050: 2920 82bc 2f1f 88bd fc02 e63d 08a5 b03d
00000060: b39a 683d cc38 5d3b a44f 06bd b9ec 883d
00000070: 9c47 123d de18 1fbd 658b a93d 0811 9d3c
00000080: 5f34 63bd 98c5 0cba a36e 4d3d d29b cd3c
00000090: a8eb 4a3d 4e7a f03c 1810 22bd 13ee 6bbd
000000a0: 4b0c 4bbd ef6e de3d 1181 cf3d 01a1 e0bd
000000b0: 7b24 b03d fc7e c4bd 9202 e4bc eceb 453d
000000c0: 0fa7 2d3d 10b2 e3bd b832 8f3d 2427 f03d
000000d0: 8d14 94bd 19e1 90bd afce f2bd 30ba 8a3d
000000e0: eb3d fabd d9a8 a73d 8ebf c73d 308f 75bd
000000f0: 0aa5 d33d 0fe0 e4bd 7ba5 5e3c 1692 2bbd
00000100: 367c a23d 7d62 dbbc d715 d13c fee1 cc3d
00000110: 8ac5 5ebd 7ec6 6d3c 0dc1 45bd 9dcf 2b3d
00000120: 3690 9a3d 0baa c3bd 389c abbc 3c79 c3bd
00000130: ea0c f3bd 4cd9 d63b 2c10 e4bd 7a42 bd3d
00000140: 4575 f4bd 906c f2bd 650c b43d 257e a93d
00000150: 2d3d b93d cbca a1bd 6434 31bd 23f6 703d
00000160: fd36 2abd c1f1 b23d 66dc 66bd 130b fabd
00000170: 851a a7bd fc9f cabc 1961 babd 2ede 043d
00000180: f0c2 173d 65d3 bf3c c555 a23c d075 e6bd
00000190: 6fe4 00bd 5ad7 d53d d217 803d bdb7 61bd
000001a0: 7d89 dd3d debd ca3b 4aef f73d 70e5 a93d
000001b0: 7718 9fbd fb93 86bd 8c4e d7bd 6621 1bbc
000001c0: c93b dc3d 4144 bd3d 1943 bcbd d6cc 273d
000001d0: 681b fd3d 073e 1dbd 6342 87bc 2694 393d
000001e0: f15e b7bd 99b7 a0bb 025d dbbd f8bd ea3d
000001f0: c8b6 f73d c39a d83d 6536 ef3c 105a f33d
00000200: e2db 89bd 89a6 c93d bd0c 8f3d a437 943d
00000210: e712 75bb ec1a a6bd fbf2 e03d 268d c23d
00000220: 31d1 eabd cb34 7fbd fe84 e6bd cccd b53c
00000230: 9281 473d 93ee a1bc b4af bf3d ad66 843c
00000240: f155 6d3d 3e4a 9f3d 1f5e b3bd ffcd c53d
00000250: edf6 c53d ad2f bf3d ced2 f5bd b67a ab3d
00000260: 807e 94bd f7a4 5d3c dda5 673d 2d45 74bd
00000270: 411e afbd 7ed1 be3b 5037 2fbd bbad 5a3c
00000280: 0ef6 a9b5 3d59 2bbd bfc8 43bd 63ba 38bd
00000290: edd5 fc3d 871f 08bc 50b0 ef3c fbfd 79bc
000002a0: 8c68 bbbd 996e 86bc 3c54 d13d c238 f93d
000002b0: da65 823d 7919 4d3d 37f4 f8bc ff06 e3bd
000002c0: 7b3e e6bd 0440 d23c 599b 893c 0bc1 043d
000002d0: 1b5a d93d 3bf8 953c 8ade fc3d c234 d5bb
000002e0: 25db 95bd e55b 853d cfea b03d 2483 883d
000002f0: 2f4b fa3d fdc2 b53d e20d de3d a58c f9bd
00000300: cb60 83bd 4a0b c8bd 3252 9f3d a65f 383d
00000310: f738 ddbc 55a3 913d 36a3 98bd 774d 193c
00000320: 3568 e3bc a95b 32bd 14fe 763c fc12 483d
00000330: 6dab 2f3c 3869 ce3d eff7 a3bd 15da febd
00000340: 8b62 be3c 65c4 f73c 17c1 0a3d e632 a7bd
00000350: bf14 16bd a5d4 8cbd 1a2e 1b3d db43 c5bd
00000360: 4634 c4bd b96b af3d 0b27 823d 52be ab3c
00000370: 9e36 b6bd 1b2a 8b3c 46ef 9cbd 9463 74bd
00000380: fe22 09bc 2e6f 843d b85e fcbd 7080 67bb
00000390: 2b7a b73d d96d 4cbd 6fbf 0e3d ffcd db3d
000003a0: 6983 a9bc 9db9 2abd fc17 07bd 513e 00be
000003b0: 2fdd e1bd 1be4 a2bd 1016 57bd ae4a 9c3d
000003c0: a492 eabd 0ce2 48bd 95c9 183d 394e f63b
000003d0: cdd9 123c 479e 583d 7106 63bd 4786 e9bc
000003e0: 0e60 8a3d d028 363d 02e0 ecbd 8a57 eebd
000003f0: c965 6d3c c7a8 5e3d bbc1 663d 4d4d cbbb
-0.0804117 0.059235737 -0.009040146 0.0049495134 -0.08363465 0.02717504 0.07452105 0.051633358
-0.040802136 -0.12046672 0.0077189035 0.049301837 0.07704207 0.075940885 -0.03201594 -0.076341264
-0.085365005 0.047161013 -0.049581885 0.06714332 -0.015884476 -0.06646573 0.11231038 0.08625227
0.056788158 0.0033755777 -0.032790795 0.06685776 0.035712823 -0.038842075 0.082785405 0.01917316
-0.055469867 -0.000537002 0.05015434 0.025098715 0.049541146 0.029355194 -0.03956613 -0.057600092
-0.04957227 0.10861003 0.10132039 -0.10968209 0.08600708 -0.09594533 -0.027833257 0.048320696
0.042395648 -0.11117947 0.06992096 0.117262155 -0.07230482 -0.07074184 -0.11855828 0.06773794
-0.12218841 0.08186502 0.09753333 -0.059951007 0.10334213 -0.11175548 0.013589258 -0.041887365
0.079338476 -0.026780361 0.02552311 0.10004042 -0.054387607 0.014512656 -0.04827981 0.041946042
0.07547037 -0.095539175 -0.020948514 -0.09544608 -0.118676975 0.0065566655 -0.11135897 0.09241195
-0.1193643 -0.11837113 0.087914266 0.08276013 0.090448715 -0.07900008 -0.043262854 0.058828484
-0.041556347 0.08737517 -0.056362532 -0.122091435 -0.08159355 -0.02473449 -0.09100551 0.03243845
0.03705114 0.02341623 0.019816289 -0.1125294 -0.03146785 0.10441466 0.06254543 -0.055106867
0.108172394 0.0061871847 0.12106188 0.08295715 -0.07768338 -0.06571194 -0.105130285 -0.009468412
0.107535906 0.09241534 -0.09192485 0.04096683 0.12358743 -0.038389232 -0.016511148 0.0453073
-0.089536555 -0.004904699 -0.10711099 0.11462015 0.1209541 0.105763935 0.029200742 0.118824124
-0.067313924 0.09846217 0.069848515 0.07237175 -0.00373953 -0.08110604 0.10983845 0.09499578
-0.11465681 -0.062306207 -0.11255835 0.022192858 0.048707552 -0.019767081 0.093596846 0.01616224
0.05794329 0.077778324 -0.087581865 0.09658431 0.09666238 0.09335265 -0.120030984 0.08373015
-0.072506905 0.0135281 0.056554664 -0.059636284 -0.08550692 0.0058233133 -0.04277736 0.013347085
-1.2663093e-06 -0.04183315 -0.04779887 -0.045099627 0.123454906 -0.008308298 0.029258877 -0.015258308
-0.091508 -0.016410159 0.102211446 0.12169029 0.06367083 0.05007312 -0.030389888 -0.11085319
-0.11242386 0.02566529 0.016797708 0.032410663 0.106128894 0.018306842 0.123471335 -0.0065065334
-0.07317189 0.06511668 0.08638536 0.06665638 0.122213714 0.08875082 0.10842492 -0.12185029
-0.06414946 -0.09767778 0.077793494 0.045013092 -0.027004702 0.07111231 -0.07453005 0.009356848
-0.02775965 -0.043544445 0.015075225 0.04884623 0.010722023 0.10078663 -0.08006274 -0.124439396
0.023240348 0.030245015 0.03387555 -0.08164005 -0.03664088 -0.06876496 0.037885763 -0.09632083
-0.09580283 0.08565468 0.06355103 0.020964775 -0.08897136 0.01698785 -0.07662825 -0.059665278
-0.008370159 0.06466518 -0.12322754 -0.0035324357 0.089588486 -0.049909446 0.034850534 0.1073265
-0.020692544 -0.04168092 -0.032981858 -0.12523772 -0.110285155 -0.07953664 -0.052511275 0.076314315
-0.11453751 -0.0490437 0.03730162 0.007516649 0.008963061 0.05288532 -0.055426065 -0.028506411
0.06756602 0.044472516 -0.115661636 -0.116377905 0.0144895995 0.054360177 0.0563371 -0.0062042833

hiddens.2.bias f4 [64]
00000000: 9f09 28bd 2db6 9a3d af3f 9e3d b9e7 2d3d
00000010: 32ec efbd abaf 3bbd ceed 333d 9782 dd3d
00000020: 1032 1cbd 17b3 da3d ba5a c7bd b100 ca3d
00000030: 5e22 b7bd 1a98 73bd f74c 863d 33f9 0dbd
00000040: 8eaa 26bc d8af dd3d 770e a23d 4599 893c
00000050: d3cd b2bd c919 dc3d f1fe 91bd 4132 d4bc
00000060: fba5 acbc 021d 5e3d 72c0 b53c ff76 6dbc
00000070: 3407 be3d c780 f23d 5b5a b9bd c082 0cbd
00000080: b797 1e3d 8eda a9bd bda2 60bd 19c9 d439
00000090: 606d 25bd 5f7e ef3d 1c4e 33bb 2e8a f1ba
000000a0: 3e4d 08bc c208 403d cccd 82bd f5f7 2d3d
000000b0: 2d85 f9bd d4c8 dcbd 5330 e8bd 4324 9cbd
000000c0: 66fb 7f3d 5ed7 1ebd 4203 b33d 245c 6b3c
000000d0: a8b2 76bc bdc2 c7bd 0031 e0bd 2343 51bc
000000e0: c89d 003d dbcd 443d c36e aa3d 3a5b 54bd
000000f0: 041d 0f3d e530 9b3d 8e6c f13d f81d 43bd
-0.0410248 0.075542785 0.077269904 0.042457316 -0.117149726 -0.045821827 0.04392796 0.10815924
-0.03813368 0.1067869 -0.097341016 0.09863413 -0.08942102 -0.059471227 0.06557649 -0.034661483
-0.010172499 0.10824555 0.07912915 0.016796717 -0.08730664 0.10747106 -0.07128704 -0.02590287
-0.02107524 0.054226883 0.022186492 -0.014493703 0.09278718 0.118409686 -0.09050437 -0.03430438
0.038718905 -0.08293639 -0.0548427 0.0004058562 -0.04038751 0.11694025 -0.002735979 -0.0018428022
-0.008319197 0.046883352 -0.06386909 0.0424728 -0.121836044 -0.107804924 -0.11337342 -0.07624104
0.06249561 -0.03877961 0.08740856 0.01436523 -0.015057243 -0.0975394 -0.10946846 -0.012772354
0.031400472 0.04804788 0.08321907 -0.051844813 0.03493978 0.07577685 0.11788283 -0.047636002

hiddens.3.weight f4 [64, 64]
00000000: 6d93 90bd bd6c 83bd 6ce5 213c ee15 2b3c
00000010: f298 9abc 318b 17bc f943 a53d 055b fb3c
00000020: c359 e6bd 51c8 973d 9064 9bbd ca81 f5bd
00000030: aaeb 8dbd 9408 aabd 0f7b 15bc 5429 843d
00000040: 7535 32bd 0e59 aa3c 8818 8e3c 5f37 9abd
00000050: 0fbc f3bd 75cd 6a3d 3bd4 f9bd b20b 1cbc
00000060: e242 41bc 5fc4 943c 22f1 10bc f1b5 83bd
00000070: 3e3b b4bd aeb5 d7bc 4886 bcbd 8014 01be
00000080: 36c7 a9bd 6f91 c63d 16f9 babd aaed 073d
00000090: f38b 1c3d 88bd c73d 9fe8 6ebd 3715 de3d
000000a0: 5875 cabd 7b7d d33d ad15 ba3d 8eac eebd
000000b0: 1bab 303c 84c2 263d b208 ce3a 057a 913d
000000c0: fb9a e9bd feb3 8bbd 6489 bfbd d642 9c3c
000000d0: 8815 90bd 0046 493c fcc9 923d ae4f 6b3c
000000e0: a166 dd3d 12b8 bf3d 40e2 8b3d f7ea 8bbd
000000f0: 9e57 19bc db21 b33d 4e2d 3ebd 1601 c3bd
00000100: 3741 303d 4f05 00bd 33f0 bf3b a9df f23d
00000110: ad36 fa3d 7d54 b9bd 3c36 39bc 9c84 f0bd
00000120: 7eb7 cdbd 863a 07bd ffb5 4f3b ef92 123d
00000130: b920 8f3c adb5 81bd e2cb 943d 65ca b1bc
00000140: 6814 ff3d e018 943c feb5 17bd 37ad 963c
00000150: d540 ed3d b6e2 bfbd dabb c5bc 67b7 ed3d
00000160: bb9e 93bd 39a9 fc3b 878c b23d f3aa fd3b
00000170: 717c 1ebc 7029 a03d 07a9 ce3d e683 ee3d
00000180: 7dbd cdbd 9569 8b3b 20c8 c7bd e8aa c03c
00000190: 9a78 f43d 1084 583d 9b81 9ebc cf0f 5cbd
000001a0: 00ed c33d 97be f5bd feca fc3d 07c5 9e3d
000001b0: bb4d fe3d c000 6fbd 74d4 003b ab0b cbbd
000001c0: dd31 acbd 8be7 8d3d 176c c5bd eb22 623d
000001d0: 77c8 67bd be87 a63d 2d52 823c 9869 11bd
000001e0: 181e bcbd d4b1 edbd d305 80bd e982 463d
000001f0: eb93 5c3d f8a2 e83d 300e efbd c229 eebc
00000200: 4f06 ebbd cd25 563c 0674 f6bd 7c0a ce3d
00000210: fe23 af3d 7cea e2bd dfb0 373d 26e0 84bc
00000220: dcd0 eebd 00dc a7bd 57fa 7abc 67f4 ef3d
00000230: f00c dd3d feb5 533d e3ff cb3b eb58 c2bd
00000240: 8ff0 b43d 3361 303d a661 eebd c3a1 d13d
00000250: b293 b93d be88 ff3d 27c8 3ebc b3bb 223d
00000260: 9935 a13d e079 c6bd 7aa5 bdbd 19d1 c1bb
00000270: 858f f5bc 74fe ef3d 0ddb 7d3d f763 81bd
00000280: 13d7 a93d 99fd 92bd e73f c93c 21d8 6d3d
00000290: e05d 9e3d a621 e2bd cf5d 46bd 0fad 43bd
000002a0: 6663 adbd 989c 2c3c 21c5 263d 583e ac3b
000002b0: 6d0a f2bd 30b9 ccbb 755c c8bd d77a 40bc
000002c0: d93e aebd 5fb7 d0bc abdf 353d 9cc0 77bc
000002d0: 3c1b cc3c 2d4a 4d3d ec8d 72bc db6e 92bd
000002e0: d8ab c73d 0171 6b3c 6ca2 c7bd 5df8 c8bc
000002f0: 19d8 d33b 5d36 42bc fb6c 7b3d 5e0f a3bc
00000300: b10e 80bd 5ab5 bfbd 31e6 c7bd 15d7 b23b
00000310: 6012 d13b 28b1 6f3d e677 183d d9c5 b4bc
00000320: 7c0c f9bc 3f45 b3bd fc0d a03c bbfd 8c3d
00000330: 2a09 af3d dbbe 6b3c dbb2 733d 7b03 3ebd
00000340: 1aee e23d 2fb1 a3bd f43a e2bc 44a6 b23d
00000350: 8089 51bd fa54 fc3b 57d9 5dbc 36dd c73d
00000360: 404b 7bbd 75eb 323d 0b80 93bd a52d aebd
00000370: bff8 953d d5b6 4d3c 5a28 e03d 9c1c debb
00000380: 3864 343c cc11 d53d 9a85 63bc 6ca6 e03d
00000390: 92e3 d9bd 3f5d 263d 74c7 9bbd a7dc 02bd
000003a0: 8efd bf3c 3001 c93d 7eb8 80bd 6c44 7ebc
000003b0: fcd4 fb3d 51b1 c3bd 30f2 a7bd b81e 91bd
000003c0: 21f9 d63d 2fd9 66bc a6aa 133c 1710 ec3d
000003d0: d03e 993c c768 9c3d 0034 cbbd 2ebd a0ba
000003e0: 44ae dc3d f38d a9bc d4c4 263d 1f29 57bd
000003f0: 9f5e 93bd 1674 cfbd d7fb bb3d b579 bfbd
-0.07059369 -0.064172246 0.009881359 0.01044224 -0.018871758 -0.009249494 0.080696054 0.03068305
-0.112475894 0.07411254 -0.0758754 -0.11987646 -0.06929715 -0.083024174 -0.009123578 0.06453195
-0.04350801 0.020794418 0.017345682 -0.075300924 -0.11901104 0.057324845 -0.12198683 -0.009524273
-0.011795731 0.018160043 -0.008846553 -0.06431187 -0.08800362 -0.026331749 -0.092052996 -0.12605476
-0.082899496 0.09695708 -0.091295406 0.03318564 0.038219403 0.09752947 -0.058327314 0.1084389
-0.09885663 0.10326668 0.090861656 -0.11654006 0.010782982 0.04071285 0.0015719144 0.071033515
-0.11406513 -0.0682144 -0.09352377 0.019074839 -0.07035357 0.012284756 0.07167432 0.014362259
0.108105905 0.093612805 0.06830263 -0.06831925 -0.0093592685 0.08746692 -0.046429925 -0.095216915
0.043030944 -0.031255063 0.0058574914 0.11859066 0.1221746 -0.09049318 -0.011304434 -0.11744043
-0.10044764 -0.033014797 0.0031694171 0.035784658 0.017471658 -0.0633348 0.0726545 -0.021702955
0.12455064 0.018078268 -0.037038796 0.018393142 0.11584631 -0.093694136 -0.024137426 0.11607247
-0.0720801 0.0077106026 0.0871821 0.007741326 -0.009673224 0.078204036 0.10090833 0.116462514
-0.10045908 0.0042545297 -0.09754968 0.023518994 0.119370654 0.05286032 -0.01934891 -0.053726014
0.095666885 -0.11999243 0.12343405 0.07752424 0.1241717 -0.058350325 0.0019657882 -0.09914335
-0.08407948 0.06928929 -0.09639757 0.05520908 -0.056587663 0.081313595 0.015908325 -0.035501093
-0.091854274 -0.11606184 -0.06251111 0.04846469 0.053852003 0.11359209 -0.11672628 -0.029072646
-0.11475813 0.013070536 -0.120338485 0.100605935 0.08551787 -0.110798806 0.04484641 -0.016220164
-0.116609305 -0.081962585 -0.015318475 0.11716538 0.10793483 0.051687233 0.0062255724 -0.09489616
0.088349454 0.043061446 -0.11639719 0.10235932 0.09061374 0.124772534 -0.0116444 0.039729785
0.07871551 -0.096912146 -0.09260078 -0.005914819 -0.029975662 0.11718455 0.06197648 -0.06317895
0.08292975 -0.07177276 0.024566604 0.058067445 0.07732749 -0.11041574 -0.048429307 -0.047772463
-0.08466224 0.010535382 0.04071534 0.0052564554 -0.11818395 -0.006247662 -0.0978326 -0.011748037
-0.08508081 -0.025478063 0.04440276 -0.015121605 0.02491533 0.050119568 -0.014804345 -0.0715005
0.097495735 0.014370204 -0.097477764 -0.024532491 0.00646497 -0.0118537815 0.06138323 -0.019904789
-0.06252802 -0.09360762 -0.097607024 0.0054577687 0.0063803643 0.05851856 0.03722372 -0.022066997
-0.03040146 -0.08753442 0.019537918 0.06884333 0.0854667 0.014388765 0.05949674 -0.046390038
0.110805705 -0.079927795 -0.027616002 0.08723119 -0.05115652 0.0077005597 -0.013540587 0.097589895
-0.06135106 0.04368158 -0.07202157 -0.085048 0.07322835 0.012555798 0.109451964 -0.006778313
0.011010222 0.10403785 -0.013886834 0.109692425 -0.10639109 0.04061627 -0.07606402 -0.03194871
0.023436334 0.098146796 -0.06285189 -0.015519243 0.12296483 -0.09555305 -0.082004905 -0.07085937
0.10496736 -0.014089867 0.009012854 0.115265064 0.01870671 0.07637172 -0.099220276 -0.0012263411
0.10775426 -0.02069757 0.040715054 -0.05252945 -0.07195782 -0.101295635 0.09178894 -0.09349386

hiddens.3.bias f4 [64]
00000000: 55f2 97bd fbac 3abd f533 abbd f1c3 4cbd
00000010: b7fc d5bd 8b96 9abd 1af1 e2bd 41d1 91b9
00000020: ec1d f83d 440f fcbd c838 143a dd7b c13d
00000030: be34 0c3d 6111 3abd c7ce 943d 999e 413d
00000040: 4859 153d a077 60bc 2f47 70bd a926 55bd
00000050: d475 893c 21a4 c0bd de52 ec3d c0a8 56bd
00000060: b670 813d ae69 fcbc 5a0d e73d 6188 f3b9
00000070: 91fe fe3d 3574 943d bd18 b8bd f29d ca3a
00000080: 42d8 2a3d 36df 7c3d 56ce 763d 1a40 b3bd
00000090: a49e 25bc 550a 693d 8f37 33bc 8357 e93d
000000a0: d9fc 8e3d 7db0 053d 332b b4bd 83ef d63c
000000b0: 5dda 823d f6ad d23d 46ba b23d c9a0 9a3c
000000c0: 1ec6 213b 3781 223d 36bb 733c 766e 393c
000000d0: ffa3 65bd e9ba 413d ba60 87bd d2e9 bb3d
000000e0: 5447 913d fed4 1c3d efbc 373d 8a3d 483d
000000f0: 1610 c9bd d16e d6bd edff debd ff5e c23a
-0.07419268 -0.045575123 -0.083595194 -0.04999155 -0.10448592 -0.07548245 -0.11081143 -0.00027812461
0.12115082 -0.12307599 0.0005654213 0.09447453 0.034229986 -0.04542673 0.07266002 0.04727039
0.0364621 -0.013700396 -0.058661636 -0.052038822 0.016779818 -0.09406305 0.11539243 -0.052407026
0.06320326 -0.03081211 0.112818435 -0.00046450182 0.124508984 0.07248727 -0.089890935 0.0015458448
0.041710146 0.061736308 0.06025537 -0.08752461 -0.010108624 0.05689462 -0.010938539 0.11393645
0.069818206 0.032639015 -0.08797302 0.026237255 0.06389306 0.10287087 0.08726935 0.018875496
0.0024684737 0.03967401 0.014876178 0.01131784 -0.056064602 0.047297392 -0.06610246 0.09175457
0.07093683 0.038289063 0.044857915 0.048886813 -0.09817521 -0.10470355 -0.10888658 0.0014829336

output_layer.weight f4 [1, 64]
00000000: 229d a3bd c8db c9bd 34c5 a6bd 5648 e53b
00000010: 9a77 783d 84a8 f8bd 150e e9bd fc70 b8bd
00000020: 447b 943d af24 ae3b c105 f2bd d883 fe3c
00000030: bd67 e73d 6303 f03d 66ff 79bd d2b0 8d3d
00000040: 2850 123d 46d7 5abd f563 68bc b540 a03d
00000050: f96c 9fbd 0bba f7bd 083b 82bd 4efa eaba
00000060: 7467 a63c 0c88 3d3d b88f 9abb 7faf 97bd
00000070: 17d2 e6bd c713 5e3d 64cc 9dbd e1bb afbd
00000080: ba69 393d b9dd f23c 64fa f8bd 90d9 cf3d
00000090: 2b30 c7bb 0901 92bd 5b6e 4a3d 36b4 d9ba
000000a0: 9824 4e3d f5d4 9abd e4a7 b43d 0b63 043d
000000b0: 3e1a a43d cb85 76bd 030a f6bd 5cfd 513d
000000c0: 9df6 63bc 17c4 50bd 389a b2bd 4dea e63c
000000d0: c32a 7abd e8f8 c73d 6229 813c bdc5 333d
000000e0: 067b b3bd 5929 c8bd 5175 c83d a6b4 d2bc
000000f0: 5d31 ffbc 79fe acbd f3b8 27bb f5b6 f3bd
-0.07988955 -0.09856373 -0.08143082 0.0069971485 0.060660936 -0.12141517 -0.11379639 -0.09005925
0.072500736 0.0053144316 -0.11817504 0.031068727 0.112990834 0.11719396 -0.061034583 0.069184914
0.035720974 -0.053427957 -0.014183988 0.07824842 -0.07784457 -0.12096032 -0.063589156 -0.001792738
0.020313002 0.046272323 -0.0047168396 -0.0740652 -0.1127054 0.05421808 -0.07705 -0.08580757
0.045266844 0.029646741 -0.12157133 0.10148919 -0.00607874 -0.07129104 0.04942165 -0.0016609493
0.050327867 -0.075601496 0.08821085 0.032321017 0.08012818 -0.06018619 -0.12013628 0.051267013
-0.013913778 -0.050968256 -0.08720821 0.028187895 -0.061075937 0.09764272 0.015766803 0.04388975
-0.08763699 -0.097735114 0.09788001 -0.025720906 -0.031151468 -0.08446974 -0.0025592416 -0.11900131
